models/LSTM_for_best_trained_maximum.pth (torch, 706561 bytes, 46 tensors)

lstm.weight_ih_l0 f4 [160, 34]
00000000: c469 c93d 228d 423e 9d01 9e3e 9713 913e
00000010: ecb2 e63d a75c 473d 33ae 15be f693 c0bd
00000020: 118f 0a3f bf74 9c3e 8250 c03e fe55 c0bc
00000030: b7a3 233e d541 b03d d910 983e cb0e 463e
00000040: 4d77 c4bc 5dc6 bc3c 741e 3b3e 8fce 953e
00000050: f236 9bbe 189d 61be c522 d03a 0d1a 813e
00000060: 432f 213e 3548 b43c 2954 ec3c f0c7 223d
00000070: 00b0 903e d09f 0d3e 862e 87bd 646e 8e3e
00000080: 8222 b33e bf90 993e a859 9c3b 6206 1ebe
00000090: 62ff d53d 957b 48be f3af f6bc 24ba 5ebe
000000a0: 25fa 8abc 1a1c a03e 9980 313d ffcc 07bd
000000b0: 44f7 743e 8e87 3c3c 7ad1 b43e e7c4 8139
000000c0: 30e2 273b 01dd ddbd dc84 3c39 4efc 933d
000000d0: 6345 30bd 0149 d5bd 2d3c cfbe 3f16 62be
000000e0: c960 8d3d 4a0a a3bd 18d9 133e 68e2 ae3d
000000f0: 4afa f43d 4789 f33d 1a83 12bd 3e1d 1f3d
00000100: ffd6 82be 81f2 f73d 8502 913d 335d 7e3d
00000110: 03de 7dbc 8472 0e3e 2888 853d ab40 643e
00000120: c624 d2bd da42 ca3e 7062 013e e413 c83e
00000130: 8dc6 1bbe 5585 e23e 281f 113e cc4d c93e
00000140: 6db4 f2bc 7e68 453f 3b95 2c3e 78b8 f23e
00000150: 9b57 353e b3be fe3e 48e5 4c3e 58ca 0b3e
00000160: b786 b13e f904 af3d fcf3 be3d dff2 983e
00000170: 6d82 323d eb07 883e 66d3 473e 0bfa d13e
00000180: 39bc 703e 7cc9 f63e f430 c03e 65fa be3e
00000190: d14b ff3e 17a7 8e3e 7f43 963e e8fd 25be
000001a0: b7ca e73d ab2d 053d deed 363d 1bdd 8b3d
000001b0: 4ed1 0c3e 29e1 b63d 1a65 8e3e c7bd f63e
000001c0: 8d40 183e 0203 783e c7cb 0d3d b5c4 a43e
000001d0: a1ef 323e a00d 663e 245f cbbe 6add d3bd
000001e0: b69a 693e 6351 f23e 2129 a13c c97e 993e
000001f0: 7fec 903e 4877 853b 011f 0c3e a555 c73d
00000200: 7628 913e 596f 703e 69c2 263e b436 df3d
00000210: c204 b6bd 5435 00be 3ba6 f13e fdc0 f83d
00000220: e5ca c33e f405 9ebd 521a ab3e 3a13 603e
00000230: 5e23 4d3d 08e7 26be 0bdd 583d db87 c9bc
00000240: 5daa 1a3d d933 ac3e 10a8 8e3e 440a cc3d
00000250: fd6a d53e aedf 093e 8d15 513d 9dcf f73d
00000260: c783 55be bf46 8d3c 0a29 1b3b e609 1dbe
00000270: ccee 1abe fd1e eebd c3ae f53c bdf7 5b3e
00000280: c5c0 5b3d 91fc 9b3e 9f71 f0bd 961e 1b3e
00000290: d3c7 183e 7c4c 733e e8be 1cbe ca65 893e
000002a0: 9cdd e1bd ee10 cb3d d84a 0a3e 8355 4abd
000002b0: 970d 543c 8bab 8ebd d7fd 943e 2267 ef3d
000002c0: 0d9d edbd 3761 0bbf f18b 7b3e 866f 20bc
000002d0: 479c d03e e3d1 793e cc9f 163e b230 cb3b
000002e0: 9ed9 ae3c 6714 633e 19b7 673e f29c 423e
000002f0: 0b8a 163e bcdf 163f d8b9 8bbe 3ee8 dd3e
00000300: a370 4f3d eec5 33bd 0869 513d dbf0 aabd
00000310: 92f6 a83d b024 c7bd 1be8 c83e aaea 493e
00000320: 663d dabd f637 353e 1608 263e 4ca5 253d
00000330: 99da 8e3d aedb f23e c489 793e f157 f53e
00000340: b825 403e fa31 ec3e a826 4e3e 26b2 8a3e
00000350: d9ca aebe 0627 2d3e e381 333e 7b53 643e
00000360: 3878 e7be 571b 613e d089 f73d ae95 f03e
00000370: a246 13be eab0 bb3e 4ce5 b4bd fbc1 bb3e
00000380: 92f7 083f 3b3d 9e3e 2756 043e 9c98 413e
00000390: 2754 23be 2bc9 013e 9798 4b3e ae80 0cbb
000003a0: bd3b b33c 4d50 553e 1189 e6bb bc06 22bd
000003b0: 599d 4dbe bb88 053e 2558 263e ab45 93be
000003c0: 50fd de3c d7f5 c0be d3ec 1d3e 5b78 b1be
000003d0: 2409 a33e 9eea bc3e 627d 833e e056 1d3d
000003e0: d4b4 c73d 45ad 123e 986e 3f3e 3532 753d
000003f0: 3576 3fbe 1b8f d13d 7b13 ca3e 797d 21be
0.09834626 0.1899915 0.30860606 0.28335258 0.112645954 0.048672345 -0.14617233 -0.09403221
0.5412455 0.3055782 0.37561423 -0.023478504 0.15980421 0.086063065 0.29700354 0.1934158
-0.023982668 0.023043806 0.18273336 0.29259154 -0.30315357 -0.22032583 0.0015879503 0.25215188
0.15740685 0.022007087 0.028848724 0.039741457 0.28259277 0.13830495 -0.066006705 0.27818596
0.34987265 0.29993245 0.00477143 -0.15432122 0.10449101 -0.19578393 -0.030113196 -0.21750695
-0.016964981 0.3127144 0.04333553 -0.033154484 0.2392245 0.011506928 0.35316068 0.000247515
0.0025616996 -0.10833169 0.00017978571 0.07225858 -0.043034922 -0.10414315 -0.40475598 -0.22078799
0.06903226 -0.07960947 0.14438283 0.08539277 0.11961801 0.11891418 -0.03576956 0.038846247
-0.25554654 0.12106801 0.07080559 0.0621006 -0.015494826 0.13910872 0.0652011 0.22290294
-0.1026092 0.3950413 0.12635207 0.39077675 -0.1521246 0.4424235 0.14172041 0.39317167
-0.02962705 0.7711257 0.16853802 0.47406363 0.177092 0.49754867 0.20009339 0.13651407
0.34673092 0.0854587 0.0932388 0.29872796 0.043581415 0.2656854 0.19514236 0.4101108
0.23509301 0.48200595 0.37537348 0.3730041 0.4986253 0.27861854 0.2934837 -0.16210139
0.11317962 0.032514255 0.04466044 0.06829282 0.13751718 0.08929665 0.2781151 0.48191664
0.14868374 0.24219897 0.034618165 0.32181326 0.17474224 0.22466135 -0.39721024 -0.10344966
0.22812924 0.47327718 0.019672932 0.29979542 0.28305432 0.0040730573 0.13683702 0.09733132
0.28351182 0.23479976 0.16285099 0.10899106 -0.08887626 -0.12520343 0.47197136 0.121461846
0.38240734 -0.07715979 0.33418518 0.21882334 0.050082557 -0.16299069 0.052945178 -0.024600914
0.037760127 0.33633307 0.27862597 0.099628955 0.41683188 0.13464233 0.051045943 0.12100146
-0.2085105 0.017245648 0.0023675584 -0.15335807 -0.15130156 -0.11627004 0.02999056 0.21481223
0.053650636 0.3046613 -0.117404215 0.15148386 0.14919977 0.23759645 -0.153072 0.2683547
-0.11028597 0.099153385 0.13505113 -0.049397957 0.012942693 -0.06966313 0.29099914 0.11689593
-0.11602221 -0.54445213 0.24565102 -0.009792214 0.4074423 0.24396472 0.14709395 0.0062008733
0.021344002 0.22175752 0.2262844 0.19005182 0.14701097 0.5893514 -0.27290225 0.4334125
0.050644528 -0.043889932 0.051125556 -0.08346721 0.082501546 -0.097237945 0.39239582 0.19718423
-0.10656242 0.17697129 0.16214022 0.040440843 0.06975288 0.47433227 0.2436896 0.47918656
0.18764389 0.4613188 0.20131934 0.2708904 -0.34139135 0.16909418 0.17530017 0.2229747
-0.45208907 0.21983086 0.120868325 0.46989197 -0.14382413 0.36658412 -0.088327974 0.36671433
0.5350276 0.3090609 0.1292349 0.18905872 -0.1595007 0.12674396 0.19882427 -0.0021439004
0.021879071 0.20831414 -0.0070353826 -0.039557204 -0.20079555 0.1304044 0.16244562 -0.2876409
0.027220398 -0.3768756 0.15422373 -0.34662136 0.3184291 0.3689775 0.25681597 0.03841293
0.09751287 0.1432391 0.18694532 0.059862334 -0.18697436 0.10232373 0.39467987 -0.1577052

lstm.weight_hh_l0 f4 [160, 40]
00000000: ebef 823e 7c1b c63d 2b5e 0dbe 5489 d5be
00000010: e9d8 bdbd ca0f edba 6018 f0be d15b dcbe
00000020: 6079 5d3e 860a f03d 8b94 96bd 5088 e43e
00000030: 5888 c23e b8d5 16be ddca 7cbe cadf a73e
00000040: 5735 c0be bef1 463e 7667 233e dbad a6be
00000050: 4bb3 2d3e c060 203e f816 9c3d 1df6 15bf
00000060: 885c a3be f526 793e 4fe9 0fbc 4987 9f3e
00000070: b9ac 773c 459c b03d b93a e1be 7dc4 f73e
00000080: 372e 1a3e 2807 863d 11f5 c6be 356b f03e
00000090: a063 903e 67a8 b6bd 4c6f 07be 5af7 e03e
000000a0: d7c9 bc3e ee64 2e3e 6474 0b3e 3204 e9be
000000b0: aa01 1dbe 453f 093e 22df cbbe 727e 813e
000000c0: 341e 54bd e1db 933d 3c5a 0abe 909d 8c3d
000000d0: b741 1dbe 8d31 a73e feb7 82bd 0b3a debd
000000e0: 01dd be3d 4028 1dbe b202 3abd 1f16 683e
000000f0: 0294 343e 77eb 313e d6f6 343d 76b2 3bbd
00000100: b682 89bc 609a 423e 6ff9 49be 6916 9ebe
00000110: baa9 ab3d 015e a63e 4ce1 24be bbb2 ccbd
00000120: d676 843e 28d4 56be 2fff 623e 1ee7 053d
00000130: b840 0bbe 6576 babd 6344 78be 30e1 20be
00000140: 0e9f e33e c388 3c3e 4474 fbbd 4943 dcbb
00000150: ba2e aabe 9582 ca3e 0fec 7b3e eb87 07bf
00000160: 0977 80bd b65f 2b3e 4b2f c43d f68a f03d
00000170: c069 edbe 1d4b 21bf 7a09 cc3e 4b16 ddbe
00000180: 6f32 143e 11b2 b2be f210 3cbd d263 d23e
00000190: 1d04 32be 804e 12bf 40b8 18be fe72 5f3e
000001a0: 353d 923e be8a 7fbd ff5c 25bf ea2e 3abe
000001b0: 17b5 dc3d 389f e93d f2eb b4be 4498 e23d
000001c0: f0d3 b1be 5681 a13e cb05 053e 79da 6abe
000001d0: 0df6 bc3c 563c b3bd 40d8 78be a92b a83d
000001e0: 9756 0abf 799b d5be a190 723e b9a1 eb3d
000001f0: 446b cfbd 05cf 2bbe 6cad 393f 3e6b 3bbf
00000200: bd18 0d3e 07cb 363d 0660 d43e 3226 babd
00000210: 10d4 973e 2dcf 7c3d d709 c73e 238b f4bd
00000220: 2a23 9d3e 352f 533e 67c7 e7ba 0ff1 b4be
00000230: 9cd1 c8bd d0cf 67bf 8483 0fbd b14d d6be
00000240: c590 b0bd a368 e5bc b5ee aa3e 97c6 263e
00000250: c167 f53e 47f0 91be 4757 cb3d c806 173e
00000260: e3cd ce3d 6f7f 853e 375b a9bd 6c23 b93e
00000270: af27 cd3d ac3f c0be d7a2 493b c62d 123f
00000280: eba0 413e 5fb7 9bbc 17a4 643f 1ec6 133d
00000290: 7186 dc3c af7b 063f e693 683f 2f19 393e
000002a0: 35f8 73be d791 bb3b 798a 0d3f a349 a1be
000002b0: aca4 d53c af10 fe3d aff6 7d3e 1931 00be
000002c0: 5b13 043e 97a3 1b3e 0ebd 4dbe 5fb2 c43e
000002d0: bc13 bfbe c190 e5bd 8c7f 383e 6341 c2bd
000002e0: e4d7 5c3e aedd 833e f537 0dbe 3e1a acbc
000002f0: d94a 393f f993 2bbe 249e 0ebf 2727 0e3f
00000300: c977 093f 89d8 0fbe 595c 383f 5ce7 babc
00000310: 0e6a 403e 7f43 aabe 1427 acbd ab12 a23e
00000320: 0d35 aabe a54c 45bd dba0 6d3e 8332 26be
00000330: 02db e83e 5f7f 31be da53 7fbb d804 23be
00000340: adf9 0fbe a34c 9c3e d34c 833e 8ab1 4b3d
00000350: daf4 483d 0ee2 2abe 68cd fa3e 9806 0a3e
00000360: d83d 9ebd 946e a63d 4c7e b83e ebe4 5cbe
00000370: 4742 063e f5f7 313e fcf0 a4be e4f2 953d
00000380: 6b9f 8b3e af35 f93d d8a8 cc3e a0a9 b23e
00000390: 147f 393e 9276 92be e63b efbe a409 033f
000003a0: fbee d03e e7b3 173d f949 903e 17fd bb3e
000003b0: 0fd7 16bf a3eb 2bbe 8db9 8e3e ca15 613e
000003c0: bda1 fc3c 3d6c ebbd 2709 59bf dbe9 ea3e
000003d0: 0ec2 213f b4d8 233e b65d b1be 7cdd 0cbf
000003e0: 92a4 983e 8c0d 2fbd a41a 6abe 78b8 493e
000003f0: 16ee bcbe 675c a8be 5a30 e7bd d914 80be
0.25573668 0.09673211 -0.13805453 -0.41706336 -0.09269888 -0.001808637 -0.46893597 -0.430388
0.21628332 0.11720757 -0.07352551 0.44635248 0.37994647 -0.14729965 -0.24686761 0.32787925
-0.37540695 0.19428155 0.15957436 -0.32554516 0.16962926 0.15661907 0.076215684 -0.58578664
-0.31906533 0.24331267 -0.008783652 0.31157902 0.015116864 0.08623556 -0.43990114 0.48392096
0.15056692 0.06544334 -0.38858846 0.46956792 0.28201008 -0.08918839 -0.1322605 0.43938714
0.36872742 0.17030689 0.13618618 -0.45511013 -0.15332666 0.13403042 -0.39818674 0.25291783
-0.051786616 0.07219673 -0.13510984 0.0686599 -0.153571 0.32654992 -0.0638275 -0.108509146
0.09319497 -0.15347385 -0.045412727 0.22664689 0.17634585 0.17374979 0.044180714 -0.04582449
-0.01678596 0.19004202 -0.19724058 -0.30876473 0.08381982 0.32493594 -0.16101569 -0.09995028
0.25871915 -0.20979369 0.22167657 0.032691114 -0.13598907 -0.09104613 -0.24244837 -0.15710902
0.44457287 0.18411545 -0.12278035 -0.006721888 -0.33238775 0.3955275 0.24601768 -0.5294177
-0.06272704 0.1673573 0.09579333 0.11745255 -0.46369743 -0.6300524 0.3985098 -0.4318107
0.14472364 -0.3490148 -0.045914598 0.41091782 -0.17384382 -0.5715103 -0.14914036 0.2182121
0.28562322 -0.062388174 -0.64595026 -0.18181959 0.10776728 0.11407322 -0.35336262 0.110641986
-0.34732008 0.31543988 0.12990491 -0.22934903 0.023066545 -0.087517425 -0.24301243 0.082114525
-0.54038376 -0.4172018 0.23687984 0.115054555 -0.10127881 -0.1677819 0.72530246 -0.73210514
0.13778968 0.044627216 0.4147951 -0.090893164 0.29653978 0.061721016 0.38874695 -0.11940601
0.3069089 0.20623477 -0.0017683328 -0.35340163 -0.09805605 -0.9055147 -0.035037532 -0.4185615
-0.086213626 -0.028003996 0.33385244 0.16286694 0.4793072 -0.2850363 0.09928756 0.1474868
0.100978635 0.26073787 -0.08269351 0.36159837 0.10017335 -0.37548578 0.0030767226 0.57101095
0.18909042 -0.019008337 0.8931288 0.03607761 0.026919575 0.52532476 0.90850675 0.18076013
-0.23825152 0.0057241726 0.5528942 -0.31501493 0.026079498 0.12405526 0.24801134 -0.1251873
0.12898009 0.15199123 -0.2009165 0.38417336 -0.37319744 -0.1120925 0.18017405 -0.09485128
0.2156673 0.25755066 -0.13790877 -0.021008607 0.72379833 -0.16755666 -0.55710053 0.5552849
0.536984 -0.14047445 0.7201591 -0.022815399 0.18790457 -0.3325462 -0.08405891 0.31654868
-0.332436 -0.048168797 0.23205893 -0.16230206 0.4547959 -0.17333744 -0.0038959892 -0.15919816
-0.14060088 0.3052722 0.2564455 0.04972986 0.049061634 -0.16687796 0.48984838 0.13479078
-0.077266395 0.0812656 0.36033857 -0.215717 0.1311122 0.17379744 -0.32215106 0.07321718
0.27270064 0.121684425 0.39972568 0.3489504 0.18114883 -0.28606087 -0.46725386 0.51186585
0.40807328 0.037036803 0.28181437 0.3671653 -0.58921903 -0.16789107 0.2787594 0.21980968
0.030838842 -0.11495254 -0.8477959 0.45881543 0.6318673 0.16000634 -0.34641808 -0.5502546
0.29813057 -0.04273753 -0.22861725 0.19699275 -0.36900395 -0.32882997 -0.11288519 -0.25015905

lstm.bias_ih_l0 f4 [160]
00000000: 5f0c 433d 8bb7 69bc 0c1f b23e e899 163e
00000010: 1f74 1f3b d309 5c3e 3f85 ea3d 8b4b 583e
00000020: 844a 14bc e696 02be 9f67 203d 3560 753e
00000030: ee35 223e 5417 c63d 1067 f53d 44f0 5f3e
00000040: bd0a 4d3e fd03 1ebb 5a80 313d 24ad 0e3e
00000050: 85ac 193d b2e9 b13e baf8 ef3d d053 5f3e
00000060: 5ffc 823d 72c4 873e 34f5 9bbd 7936 20be
00000070: 32c2 f83c 33f7 ed3c cdeb 1a3d 4214 7c3e
00000080: 454e bb3e a43f 883d 1164 273d 19db 483e
00000090: 472c 7d3d 38c4 5c3e e233 673e 0adf 6a3e
000000a0: 2671 b3bd 457d c43d 9415 f6bd 940d 93bd
000000b0: 8f72 2c3d 89e3 d5bd d1be 243e 6889 583e
000000c0: bebd fb3d b055 f43d c2a5 f8bd 34ce 9c3c
000000d0: 5388 0f3e 87a4 b3bd 2278 d5bd 7b2a ff3b
000000e0: bdd5 023e 7d13 14bb 0740 1f3e 0993 d63d
000000f0: 7767 85bd 3dfa 6ebc 0994 21be b88a 063e
00000100: dcd4 333b 3762 babb 550b 1fbd 62e0 d3bd
00000110: b926 e63d 9852 4b3b 0475 10bd 2aa3 563d
00000120: 1967 643d c4d7 cabd c7e9 e43d 18dd 20be
00000130: cc0a cb3d 90df acbd b61e c2bd cbda d5bd
00000140: d4fb 22be 376d b0bd d9a3 a3bd 3e21 e7bd
00000150: 2f75 ebbb 7ec1 fdba 86db 41be b42b 2fbe
00000160: 3b33 a0bd 4279 51bc 2b0f ba3d ae80 13be
00000170: ea16 78bd c392 963c f42f 68bd 6bd9 63bd
00000180: 06ac adba 2f29 123e a663 013e 98c5 90bd
00000190: f627 67bb 178e a13d 532b 293c 52c8 603d
000001a0: b886 143e e5b1 6dbc 812b bdbd d981 98bc
000001b0: 426f 5cbd 61ba 93bd 7c48 b2bd dbad 86bc
000001c0: e718 5d3d 034d 043d 040b 6dbd 3ea0 293d
000001d0: 8978 18be 22eb 00be 4b01 473d 14cd 0bbe
000001e0: 233d 843e 5b4f 3a3e 623b 0f3e 255a 313e
000001f0: 1337 dc3d 015b fa3c f248 2a3e 8d9d a73c
00000200: 979d 423e bf5e 293e e887 6ebb e2b0 bfbc
00000210: ff4d e0bc 80f0 63bb 64a1 8e3c 4c3d e33d
00000220: b08d 2e3e f3e0 083e e361 c93d 73f2 5a3e
00000230: 6689 e5bc 039b 983e 50e3 7e3e 798a b73e
00000240: 85fd 073e 737e 403e 4261 133e 505a 083d
00000250: b0c8 823d 6402 b0bc 8130 d5bc 8ad5 7c3d
00000260: 7f1f a23e 4dbf d83d 8968 163e 5814 1f3e
00000270: f87f f43d e89a cdba 876b d23d 2855 433e
0.04761922 -0.014264951 0.34789312 0.14707148 0.0024330688 0.21488123 0.11451196 0.21122567
-0.009050969 -0.12752876 0.03916132 0.23962481 0.15840885 0.09672418 0.11982548 0.21868998
0.20023628 -0.0024111264 0.043335296 0.13933235 0.037518043 0.34748608 0.11717363 0.21809316
0.06395792 0.26517063 -0.07615128 -0.1564578 0.030366037 0.029048538 0.037822533 0.24617103
0.36583152 0.066527635 0.040866915 0.19614829 0.061809804 0.21559227 0.22578385 0.22936645
-0.08761816 0.09594206 -0.120158345 -0.07180324 0.04210144 -0.104437895 0.16088416 0.21146166
0.1229205 0.11930406 -0.12140991 0.019141294 0.14016847 -0.087716155 -0.10423304 0.0077870465
0.12776847 -0.0022594624 0.15551768 0.104772635 -0.06513875 -0.014586029 -0.15779127 0.13138855
0.0027440106 -0.0056879777 -0.038829166 -0.10345532 0.112378545 0.0031024572 -0.035267845 0.0524017
0.055762384 -0.09904435 0.11177402 -0.1570934 0.09914169 -0.08441079 -0.09478514 -0.10442122
-0.15916377 -0.08614581 -0.07990236 -0.11285637 -0.0071856 -0.0019360033 -0.18931398 -0.17106515
-0.078222714 -0.012785258 0.09084924 -0.14404556 -0.060568728 0.018380528 -0.056686357 -0.055627268
-0.001325012 0.14273523 0.12635669 -0.07068938 -0.0035271621 0.078884296 0.010325271 0.05487854
0.14504516 -0.014507745 -0.09236813 -0.018616604 -0.05381704 -0.07213283 -0.087052315 -0.016440323
0.053978827 0.032300007 -0.057871833 0.041412584 -0.1488973 -0.12589696 0.048585217 -0.1365245
0.25827894 0.18194334 0.13987496 0.17319544 0.10752692 0.030560972 0.16629389 0.020460868
0.19005428 0.16540049 -0.0036396924 -0.023399774 -0.027380941 -0.00347808 0.017410941 0.11095676
0.17046237 0.13367061 0.098331235 0.2138155 -0.028019618 0.29805765 0.248914 0.35847834
0.13280304 0.18798237 0.1439257 0.033289254 0.06385934 -0.021485515 -0.026024105 0.061727084
0.31664655 0.10583363 0.14688314 0.15535104 0.119384706 -0.0015686424 0.102744155 0.19075453

lstm.bias_hh_l0 f4 [160]
00000000: 5360 04bd d97c ac3d 8f9a a63e 1dd7 7e3e
00000010: e00a 273e 8b07 453e 38ae 083e 5120 883e
00000020: e0e2 a5bc 7bc9 f5bd 8042 533e 1232 903e
00000030: 6ed8 103d c890 fe3d 1fd1 1bbd 607e d5bc
00000040: 0555 583e bce4 9c3d 95b3 32bd eeed bf3c
00000050: 8a32 893d 57c8 3a3e d169 5bbc b6d8 283e
00000060: ec53 4e3e a895 313e 6720 9aba 4b86 eebd
00000070: 272d 683e 1433 303c a776 b9bd 3d49 623e
00000080: a0c1 7f3e 91aa ba3d 9b4c f63d 7614 0a3e
00000090: e627 203d b82b 743e 0970 073e b7b3 083d
000000a0: 9444 0bbe 358f c03d 6177 08be 9770 353d
000000b0: 732e 8f3d 7a84 033e 7eff 0b3d 805a 2c3e
000000c0: be6c 37be ffc3 f7bd 89d8 98bd fa12 8cbb
000000d0: d609 22be f4cd 963d 8475 903c 7953 0d3d
000000e0: e7b4 a83d a6c8 50bc 0bcd 71bd a231 f63a
000000f0: 530b 763d a7e6 813d aaa4 143c c92c 0b3e
00000100: 8fd5 95bd f7a8 333e 04a7 e73c 1298 4bbe
00000110: 7e11 f23d 4dd2 8f3b fc0f cbbd 149d 973d
00000120: 51e9 a2bd 64d7 e73d 1328 513d ad7d bebd
00000130: 8782 b93d 2999 2d3d c91e f43d 6a00 0d3e
00000140: 1b0c 0ebd c08c b5bd 2514 ae3d 0ae6 20be
00000150: c506 e53d 7a21 ddbc 6b64 17bd 31ad 5fbd
00000160: 0fd7 eb3d 2f31 823d 8c69 a63d 23e1 883d
00000170: bcf1 9bbc a304 d8bd 4a99 0ebd a3cf 053c
00000180: e8d6 ee3d 0bb2 1b3e be19 9c3c 0a7c 81bc
00000190: a048 c13d cab0 b5bd 5ed2 503d 4e48 09bd
000001a0: 872c 79bd 72b1 8cbd 0605 063e e490 7bbd
000001b0: 5095 34bd 027f 973d e3d2 bdbc 038c 84bd
000001c0: 1d13 cdbd 3f44 e9bd b66d f7bc 6fb6 873d
000001d0: 6beb c9bd e05c a5bd 143f f6bd cc78 e5bc
000001e0: 2d11 623c 4bf2 27bc d3f2 2b3e c246 e73c
000001f0: b884 f73d d3d4 833d 09ce 1a3e 2fc2 923e
00000200: ed8f 793e 0ba0 243d 2729 38bb a1df 313e
00000210: 1b06 fc3d e260 1e3e fbda 9ebd 4da4 2bbd
00000220: c349 b23d 0aec c7bc f483 bb3d cc12 883a
00000230: 182a 333e 7676 c83e 2fd7 d33d 654e b73e
00000240: 5524 1abc 8344 063e 181d 48bd 9963 b6bd
00000250: caa9 fb3d 9ccf 453e 9971 493d 111f 42bc
00000260: d13a a23e 3e89 573e ac4c 523d 9107 73bd
00000270: 0719 493e 7328 993d 71d7 153d 9f30 0a3e
-0.032318424 0.0842225 0.32539794 0.24886747 0.16312742 0.19241159 0.13347709 0.26587155
-0.020249784 -0.1200132 0.20630836 0.281632 0.035362653 0.124299586 -0.03804123 -0.026061237
0.21126182 0.07660815 -0.043628294 0.023428883 0.06699093 0.18240486 -0.013391928 0.16488919
0.20149201 0.17342246 -0.0011758924 -0.11646708 0.22673474 0.0107543655 -0.09055834 0.2209825
0.24976206 0.09114564 0.1202633 0.13484368 0.03910055 0.23844802 0.13226332 0.033374514
-0.13600379 0.094023146 -0.1332679 0.044296827 0.06991281 0.12843505 0.034179203 0.16831398
-0.17912576 -0.1209793 -0.07463176 -0.004274723 -0.15824065 0.07363501 0.01763416 0.034503434
0.082376294 -0.012743151 -0.059033435 0.0018783102 0.060069393 0.063428216 0.009072462 0.13591303
-0.07316124 0.17544924 0.028277881 -0.19882229 0.118197426 0.0043890835 -0.09915158 0.07403007
-0.07954658 0.113203794 0.05106361 -0.093013145 0.09058099 0.042382393 0.11919934 0.13769689
-0.034679513 -0.088647366 0.08499936 -0.15712753 0.11182932 -0.026993502 -0.036961 -0.054608528
0.115156285 0.06357037 0.081256 0.066835664 -0.019036166 -0.105477594 -0.034814157 0.00816718
0.11662084 0.15204637 0.019055244 -0.015806217 0.0943768 -0.088716105 0.05098187 -0.03351622
-0.06083348 -0.068697825 0.13087854 -0.061417475 -0.044087708 0.07397272 -0.023171848 -0.064720176
-0.10013411 -0.1138997 -0.030203681 0.06626593 -0.098593555 -0.08074355 -0.1202375 -0.028011702
0.01379804 -0.010250638 0.16791849 0.028231982 0.12085861 0.064370774 0.15117659 0.28663775
0.2437131 0.04019169 -0.00281007 0.17370464 0.12305852 0.15466645 -0.07756611 -0.041904736
0.08705475 -0.024404544 0.091560274 0.0010381578 0.17496526 0.3915288 0.103437774 0.35801998
-0.009408076 0.13112073 -0.04885587 -0.089057155 0.12288244 0.19317478 0.0491806 -0.011848227
0.31685498 0.21048447 0.05134265 -0.059333388 0.19638453 0.07478418 0.036582414 0.1349511

lstm.weight_ih_l1 f4 [160, 40]
00000000: 626e abbe e498 433d b961 04bf 5b81 90be
00000010: 7df6 af3d 2b38 2cbc d612 13bf 282c 39bf
00000020: 0e85 3ebc 518e e03d 055f 7c3e 6862 2bbe
00000030: 647e f2be 1706 393e 562a 9d3d aa92 283e
00000040: f7cd b8be e1b0 0b3e 262b a0be 8b17 893d
00000050: ca33 0cbe 06de dcbe 74d8 9bbe c92b b13e
00000060: af49 fbbc 6495 3f3e b994 d6be b4e9 dc3d
00000070: 78f4 993e cd70 883e 2ab8 303e 92ad 443f
00000080: 8992 b43e 5f2b 863e 9d09 f23d d1c3 62be
00000090: 2c21 443c d735 5abd b643 1f3e c02b 8a3e
000000a0: 304a b4bd a5ad b33d e9b3 713e 1215 bc3d
000000b0: bcc3 123c e372 f4bd 1f20 7b3e 4e71 9e3e
000000c0: 576e 673d 1f36 ae3e 4277 303d c193 53be
000000d0: 6265 ee3e 956b a8be 0598 f93d 7c9a 1bbd
000000e0: 2203 343f 14c4 b9be 9573 963e 7e58 21be
000000f0: deda 9f3e 686a 813e 2706 4fbe 6ae8 21bd
00000100: 74f1 b3bc 3c09 653d 1cc4 16be 9ea0 ecbc
00000110: c9b0 2dbe 7572 d8be edee d2be 1e7b 16bd
00000120: 1eef d2be e8ee 3b3e ea67 b4bc 17d2 813e
00000130: 83f7 7bbc 7e42 56bc 8de0 353d fab3 05be
00000140: dd0a d73d b46f 943d c40e 5e3e 6b4d 85bc
00000150: 1e97 02bf afbc 0e3e f8aa b0bc 859f c53e
00000160: 0b9b 10be 4b10 f53e fc9c 5d3e 77c2 5c3d
00000170: c4ee 0b3e a4ec 4dbd ad2b eb3e b0a1 08bf
00000180: 28e7 e93e d6f4 05be cdcf 4a3e b574 b5bd
00000190: 93cb 683e c919 a33e 131d efbe 2340 39bd
000001a0: 3be3 4bbf 6762 8e3e c8c3 c7bd 361c 323e
000001b0: 3608 ab3d 7cf6 d3bd d02e 59be c4ed bb3e
000001c0: 8d56 eb3d c93d a3bd 6271 b03e d6b7 f83e
000001d0: 5110 91bd 0724 1a3e fcb0 cd3e cca4 e5bd
000001e0: d234 8b3e 5502 cdbd 19d4 1dbe eaa9 e0bd
000001f0: 0e8f 81be 7af4 183e a83d 12bf 2ee0 d5bd
00000200: cc99 e1be bf97 60be 28ab d5be d8cf cabd
00000210: 5fce 183d 5062 4bbd 1dd1 5d3e 259c ea3e
00000220: 93b9 003f 642b 313d 1dfd c0bd 6ac4 863e
00000230: 15cf 79bd 6000 5fbf 0bcb 503e 8403 d0be
00000240: 5cdf 9e3e 4c34 43bc cf0b 0dbf d11f 69be
00000250: 5b21 ef3e a416 723f cf3f 0c3f 7b75 cbbe
00000260: ffe5 c43e 5dae c9bc 4514 8fbe 82fa c5bd
00000270: 2b19 94bd e245 0e3d 6e0c aa3d cbea 6cbe
00000280: d8bf e33d 78f5 1e3e aa5e 59be ebdd fa3d
00000290: 1bb7 2d3d d2d5 31be 3c31 9bbe a2c3 6e3e
000002a0: 93ae 97be 4173 d73e 14ac 2dbe a25a afbe
000002b0: 41d2 273e 34d6 afbe d427 b43e 8cdc 2fbe
000002c0: 1324 b8be 105a 24bf 82d2 233e fe4f 9a3e
000002d0: acf3 6abd a289 ce3e f3f2 f5be d7a9 be3e
000002e0: 1c76 133e 04e4 ec3e 40f4 c8be f59d 663d
000002f0: b397 17be 9726 2fbf 56fb 0dbf e3bc 9e3e
00000300: 7568 6a3d 1e07 103e e90b 8b3e 4801 ce3e
00000310: a05f 96be 9bb6 d7bd fe51 56be 332b b8be
00000320: 4fc0 90be a206 d2be 0744 5b3e 7d04 4bbc
00000330: fcd5 0a3f aa5e 8b3e 7c86 ba3d 248c a9bd
00000340: 294d fd3e cb21 b83c d78c 143e 2c04 53be
00000350: 5d06 d7be a610 b13d a6d1 ff3e 8e47 f8bd
00000360: d223 75bd fa27 e5bd 4e72 a33d 2d61 66be
00000370: af42 3a3d bd7b db3b beb6 91be 8699 403e
00000380: f39a c53c 7f06 9abe 3cd7 36be 1f67 563e
00000390: a78a 233e addc afbb 7fed 043e 8a71 803e
000003a0: 8410 223d c5dc 2e3e e02e afbd 3703 bbbd
000003b0: 3d16 3d3d f360 c03d c49c b03e 1e32 143e
000003c0: 9648 2abe 8327 aa3d 78a7 87bd 9118 e13e
000003d0: fa46 91bd 1e14 8dbe d315 87be b673 36be
000003e0: ecc4 35be b5d5 7ebe a827 133f 42b9 073d
000003f0: 48e3 3c3e 5fe2 37bd 8d69 bf3d 578d 433f
-0.33482653 0.04775323 -0.5171161 -0.2822369 0.08591936 -0.010511438 -0.57450616 -0.72333
-0.011628402 0.10964645 0.24645622 -0.16736758 -0.47362053 0.1806873 0.076740906 0.16462198
-0.3609464 0.13641693 -0.3128292 0.066939436 -0.13691631 -0.4313814 -0.30438578 0.34603718
-0.030674784 0.18709332 -0.4191034 0.10786763 0.30069327 0.2664856 0.17257753 0.7682735
0.35268047 0.26204965 0.1181824 -0.2214501 0.011970799 -0.053274002 0.15553173 0.26986504
-0.08803213 0.087733544 0.23603787 0.09183706 0.0089577995 -0.119359754 0.24523972 0.3094582
0.056501713 0.34025666 0.043082483 -0.20661832 0.46561724 -0.3289458 0.121871985 -0.037989125
0.7031728 -0.36282408 0.29385057 -0.15756413 0.3122167 0.25276494 -0.2021719 -0.039528288
-0.02196572 0.05591701 -0.14723247 -0.028885182 -0.1696197 -0.42274824 -0.4119791 -0.036738507
-0.41198057 0.18352854 -0.022022206 0.25355598 -0.015378836 -0.013077376 0.0444036 -0.13056937
0.10500119 0.07247868 0.2168532 -0.016272267 -0.51011837 0.13939165 -0.0215659 0.38598266
-0.14121644 0.47863993 0.21641916 0.053896394 0.136653 -0.050274506 0.4593176 -0.53371716
0.4568417 -0.13081679 0.19805832 -0.08860151 0.22733907 0.3185561 -0.4670187 -0.04522718
-0.796436 0.2780945 -0.09754139 0.17393574 0.083511755 -0.103497475 -0.21209264 0.36704838
0.114911176 -0.07970769 0.34461504 0.48577756 -0.0708319 0.15052806 0.4017409 -0.11213073
0.27188736 -0.100102104 -0.1541294 -0.109699085 -0.25304455 0.1493701 -0.5712533 -0.104431495
-0.4406265 -0.21932887 -0.41732144 -0.09902924 0.037306186 -0.049654305 0.21661802 0.45822254
0.50283164 0.04325427 -0.094232775 0.26321727 -0.060988504 -0.8710995 0.20389955 -0.40627682
0.31029785 -0.011914324 -0.55096143 -0.22766043 0.46705136 0.94565797 0.54784864 -0.39738068
0.38456723 -0.024619276 -0.27945152 -0.09666921 -0.07231363 0.034734614 0.08303152 -0.23136441
0.11120576 0.15523326 -0.21227518 0.12249359 0.04241095 -0.17366722 -0.30311 0.23316815
-0.29625377 0.4208012 -0.16960174 -0.34248835 0.16388799 -0.34343112 0.35186636 -0.17173976
-0.35965022 -0.64199924 0.15998271 0.30139154 -0.05736129 0.4033938 -0.48036918 0.37238953
0.14400524 0.46267712 -0.39248848 0.056302983 -0.14803962 -0.6841826 -0.55461633 0.31003484
0.057228524 0.14065215 0.27157524 0.40235353 -0.2936983 -0.10532876 -0.20929715 -0.35970458
-0.2827172 -0.41020685 0.21412669 -0.012391207 0.54232764 0.2722066 0.09107682 -0.08278683
0.4947293 0.022477051 0.14506851 -0.2060706 -0.41997042 0.086457536 0.49964637 -0.12123023
-0.059848614 -0.111892655 0.07980786 -0.22498007 0.04547375 0.0066981004 -0.28459734 0.18808565
0.024121737 -0.3008308 -0.17855543 0.20937775 0.1597086 -0.005366883 0.12981223 0.25086623
0.03956653 0.17076404 -0.085538626 -0.091314726 0.046163786 0.093934916 0.34494603 0.14472243
-0.16629252 0.083083175 -0.06623739 0.43964055 -0.07093616 -0.2755441 -0.26383838 -0.17817578
-0.17750901 -0.2488621 0.57482386 0.03313566 0.18446076 -0.04489362 0.09346304 0.7638754

lstm.weight_hh_l1 f4 [160, 40]
00000000: 7e93 24be 7e8e bebe 033f c3bc 5ff2 00bf
00000010: 1c3b 3e3e 8274 8cbb 5d38 8b3d 4ec6 37bd
00000020: 364a 793d 5437 1abe 0084 16be f737 26bf
00000030: 8950 26bd c131 fe3e 7d55 e1bd e005 9bbe
00000040: 5cc9 6ebe 877d a93d c8b6 99be 7955 273f
00000050: e05b 68be 45b8 93bd e507 dabc 4fea 233d
00000060: 3252 c8be 872b 0f3e 8799 03be fcee bb3e
00000070: fc0f f13d b49e a93d 126e 703e 33d9 17be
00000080: 8215 a6be c1c2 19bd 655b 8abd 4a08 dc3d
00000090: 8737 b73e 36f1 6bbe ecf2 ddbd d7f4 95bd
000000a0: 4679 dbbe 0fec 943d 4f81 8dbe 96f2 b5be
000000b0: d1bb 27bf 853b d4bd f26a 0bbd 0be4 833e
000000c0: a3db 873e b996 82bd 02a5 1e3f c8c0 b03e
000000d0: bc94 863d b3a5 9e3e eaa3 9abe 74f0 87be
000000e0: 9e26 0dbe a36c 19be 2b6e 2d3e 760d e4bc
000000f0: c26a 23be a247 d83d 3ebd c1be bdff 4b3e
00000100: f9e1 c03d db1a 883e 18e6 5c3d af6b 5b3e
00000110: ccd7 88bd 9537 b5be fbf8 8e3e bcc8 d7bd
00000120: 118e a03e 0bcb 5b3d 1335 f5bd 618f 1f3e
00000130: c2d2 62be 1c85 51be 9e6a 383e 62ea 2d3d
00000140: 5653 b23e cd58 d4be e4a5 bebd d819 883b
00000150: 09e8 bcbd 5c27 6e3e 5268 a2bd 1433 4cbd
00000160: 332d c73d 224f 653e 8009 6bbe b864 933e
00000170: caf5 b1bd 7e0a cebe c4a2 733d 1276 0abe
00000180: 75cc ad3d 1a9e 6dbd 45eb bc3e 725c 3f3e
00000190: d86c 983e 55be 41bd 0821 5cbe 4202 4a3e
000001a0: b9bf ec3d 5df9 e23d abc5 813e 4d2e 48bd
000001b0: da01 eebd a562 1cbe 0215 be3d b1e1 3fbe
000001c0: e97f 0e3e 32ee 8d3e ffaf 88bd 70d6 2cbe
000001d0: 8c0b d6be 8744 7a3e 796c 5b3d 78d9 f53d
000001e0: 4f29 a5bc b14b c6be d769 40bb 2247 8d3d
000001f0: a29d 023e da2f 8fbd c442 303e 2bdb 94be
00000200: 15c8 923d c3a5 52bd 1b27 91be d252 a8bd
00000210: 4d4b 27be 655e edbe 6eec 9c3e 2011 35be
00000220: 5b27 c3bd d95e 1a3f 2127 0dbf 8ef6 fa3e
00000230: e327 853d 9553 87be b7a5 3bbd 113e 0dbf
00000240: 7229 50be f9fc 093e 1ea8 e3bd c3b6 e1bd
00000250: d624 a1bd 8536 27be 21ee 8c3e d48d 463e
00000260: c902 663c a4d7 ec3e 487d 1d3e 3d0b ae3d
00000270: 2f4e 2a3d a043 c33e 5b15 193e 1a5d dfbd
00000280: 2770 8a3e 7275 193d c66d aebe d229 c83e
00000290: f1c6 0ebe ec27 4c3c 0140 6dbd 95f8 0ebe
000002a0: b6a6 1bbd 88c4 3b3d 2713 163e 34fe b4bd
000002b0: 0222 0dbf 6a6d 593e 831a a8bd 77d4 82be
000002c0: de4f 2a3e 04a7 86bd 36f2 1fbd f67f b6bd
000002d0: 9380 9d3d fb28 e03d e4c1 5fbd 71f0 b73e
000002e0: 8b37 d63d 2338 07bf 0163 06be 1291 413e
000002f0: 5361 133e f01d d3be 1a92 22bf d8b6 cebe
00000300: a04d 08be 47c9 3a3e 915d 3abf 9331 dd3e
00000310: a143 02bf e258 123e 5a6f a43d bef1 083f
00000320: 8169 8c3d 756f eebc eaec 80bd ac50 97be
00000330: 5644 05be e8a9 d03b ac4d b93b eeed a0bc
00000340: 1e4a 563e f862 bcbe ecdd 8e3e 5463 d9be
00000350: 8cdc 72be e884 b13e 9bcc 153d 3333 93be
00000360: b33d cdbe 8da5 0bbe 4b71 1fbe 9073 5e3c
00000370: 6d11 97be cfed 563c d0dc 993e 991f 2e3d
00000380: 7bb2 6bbe e600 8e3e b942 8fbe 5522 a7bc
00000390: 2135 8b3e 1356 86be 8efb aebc 57d9 68be
000003a0: 8246 e1be da53 013e c035 b03e 5900 643e
000003b0: b722 483d a25f edbe 4d98 4dbe 5b3c fa3c
000003c0: 383b f73e 8df9 afbe 9e5c c13e f575 9fbe
000003d0: 27ac 1fbe 67d5 4b3d 72d9 d63e 0188 7fbe
000003e0: 6cc4 8e3d c424 393c 5dca a13d c087 06be
000003f0: 8b22 ab3e d683 e33e cbd9 b23e 8af1 683c
-0.16071889 -0.37218088 -0.023833757 -0.5036983 0.18577236 -0.0042863498 0.0679786 -0.044866852
0.06086179 -0.15060169 -0.14698792 -0.64929146 -0.040604148 0.49647334 -0.11002634 -0.3027792
-0.23319 0.082758956 -0.30022264 0.65364796 -0.22691298 -0.07212881 -0.026615093 0.040018376
-0.3912521 0.13981448 -0.12851535 0.36705768 0.11770627 0.08282223 0.23479488 -0.14828949
-0.32438284 -0.037539247 -0.067557134 0.107437685 0.35784552 -0.23041233 -0.10837349 -0.0732209
-0.42865962 0.07271587 -0.27637717 -0.3553664 -0.6552096 -0.10362915 -0.034037538 0.2575992
0.26534757 -0.06376404 0.6197053 0.3452208 0.065713376 0.30985793 -0.30203182 -0.2655064
-0.13784263 -0.14982848 0.16936557 -0.02783845 -0.15958694 0.10560538 -0.37839693 0.19921775
0.09418101 0.2658299 0.053930372 0.21427797 -0.06681785 -0.35393968 0.27924332 -0.10536334
0.31358388 0.053660434 -0.11973014 0.15582038 -0.2215071 -0.20460933 0.18009421 0.042459853
0.34829205 -0.41474 -0.09308985 0.0041534714 -0.09223945 0.23257202 -0.07930054 -0.0498534
0.09725418 0.22393468 -0.22952843 0.2878778 -0.08689459 -0.4024238 0.059481397 -0.13521603
0.08486263 -0.058012106 0.36898246 0.18687609 0.2977054 -0.047300655 -0.21496975 0.19727424
0.11560006 0.110827185 0.2534612 -0.04887228 -0.11621447 -0.15272005 0.09281351 -0.18738438
0.13915981 0.2772079 -0.066741936 -0.16878676 -0.41805685 0.24440204 0.053570244 0.120043695
-0.020161299 -0.38729623 -0.002935996 0.06898333 0.12755445 -0.06991549 0.17212969 -0.29073462
0.07167069 -0.051427614 -0.28350148 -0.08218922 -0.16337319 -0.4636108 0.30649132 -0.17682314
-0.09528991 0.60300976 -0.5513783 0.4901623 0.065017484 -0.26430956 -0.045812335 -0.5517283
-0.2032831 0.13475408 -0.1111605 -0.11021187 -0.07868354 -0.16329391 0.27525428 0.1939004
0.01403875 0.4625827 0.15379822 0.08498237 0.041578468 0.3813753 0.14949553 -0.109064296
0.2703869 0.03746552 -0.34068125 0.39094406 -0.13943078 0.01246069 -0.057922367 -0.13962014
-0.038000785 0.045841724 0.14655744 -0.08837548 -0.55130017 0.21233144 -0.08208182 -0.25552723
0.1663203 -0.065748245 -0.03904935 -0.08911125 0.07690539 0.109453164 -0.054628268 0.3592563
0.10459813 -0.5282003 -0.13123704 0.18902996 0.14392595 -0.41233778 -0.63504183 -0.40373874
-0.13310862 0.18240844 -0.7279902 0.43201885 -0.50884444 0.14291719 0.08029051 0.5349387
0.06856061 -0.029105881 -0.06295188 -0.29553735 -0.1301435 0.0063679107 0.005655011 -0.019644704
0.20926711 -0.36794257 0.27903688 -0.42458594 -0.23716944 0.34671712 0.03657208 -0.2875
-0.40086135 -0.13637371 -0.15570562 0.013577357 -0.29505482 0.013118221 0.3005128 0.042510603
-0.23017304 0.2773506 -0.27980593 -0.020402113 0.27188972 -0.26237544 -0.021360185 -0.22739159
-0.43999106 0.12629643 0.34416008 0.22265758 0.04886123 -0.46362025 -0.2007763 0.030546358
0.48287368 -0.3437008 0.37765974 -0.31144682 -0.15593015 0.049764063 0.41962773 -0.24954225
0.06971058 0.0113002695 0.07899926 -0.13137722 0.33424792 0.4443652 0.34931788 0.014217744

lstm.bias_ih_l1 f4 [160]
00000000: 95c0 f03a 6aa1 b13e 320b 8f3e 32b2 38be
00000010: b265 9b3e 4140 c53e d7f6 1d3d 10d3 523e
00000020: 3654 5d3e 8ef1 ce3d 68b6 8a3e ace8 f93c
00000030: dd92 ee3d 1cf1 bf3d 2935 843b 3de2 c63e
00000040: 2b91 e93d b49e 023e 3fca 6a3d f54c 413e
00000050: c7b4 7c3e a861 843e 99e1 a63d 27fa 1c3c
00000060: 5287 753e 6e8e e13d 2e08 833c 601e e33d
00000070: 84cb 093e e8ec ec3d 693c a33e 4fe8 a63e
00000080: 232c 2b3e 5c00 7f3d c4f3 773e 11cc a03e
00000090: dd87 913e 53bb 203e 71e4 5b3d a7e2 543d
000000a0: c1f0 a63d fbdc 783e dc22 42bd f08c 0ebe
000000b0: 352a bdbd dd5d 853c fe42 9e3e 947f ac3d
000000c0: 9e2a 5e3c 15e5 233d 6ee4 003e 576f 99bd
000000d0: bb8e b7bd 380f fdbd 6080 eabd 59ea 4bbd
000000e0: 8105 1cbe 3c5a 0f3e 441a 243e 9561 6e3e
000000f0: d27b 6abd 0f81 3f3e 80fc a13c 3342 b73d
00000100: 8fdd 823d 69d2 49bd 4120 553c d71a 4c3e
00000110: 47ed 2d3e c9b8 b93d c7af 443e 2b88 f53d
00000120: 8c3c dabd 3a54 19bd 5857 dc3d 01ab 043d
00000130: ee62 febc f45b 6a3d 8e73 d13c 83bf 97bd
00000140: 3174 04bd ab3a 57bd 3d4c d33d e1d4 e3bd
00000150: cb21 80bc 4c6e 3e3d 54fc 9b3d 7123 143e
00000160: 0b5b f63d 9824 4cbc 9ed5 c13b 8e0e 4b3e
00000170: 79a7 c73b c26b 14be a649 08bd bd45 ebbd
00000180: 12df b43d 7095 cd3d e16d 933d f2ce a53d
00000190: 5baf dbbc 8191 e1bd d5c8 b23d b840 8fbd
000001a0: 600c 023d a058 a23d e458 fc3d 09f1 d13d
000001b0: f48d a73d e33e 39bd 57ac f03b bc28 3bbd
000001c0: 0884 20bd 2698 59bd 29ab 00be ba45 e9bd
000001d0: 51d7 14bd 15b2 d3bd 86a5 aa3c a055 ca3c
000001e0: 6e3d 083e 7834 d63e d995 c83d 0256 96bd
000001f0: f6b3 9f3e a9b7 023e beaf 953b f128 983e
00000200: 0161 b03e d5b9 6c3e 3857 5c3e bcd6 92bc
00000210: bd2d cf3d 2484 9f3d d7ca a3bd 4d39 bc3e
00000220: 304e ce3d 7079 a03e 38b0 f13d ad6c 5a3e
00000230: c9a5 743e 2a43 ac3e 0267 9f3e 2640 a23d
00000240: 3a02 bb3d 862c 7a3e 6e3e 303e 102c 7a3d
00000250: 98f3 7c3e 78b4 e53b 4eb6 3c3e 05e3 4d3d
00000260: ae24 f53d 4cd2 113e c89a 6a3d cd89 2c3e
00000270: b804 10bc f080 793e dfac 503e 81b9 b83d
0.0018367941 0.34693462 0.2793823 -0.18036726 0.30351025 0.38525584 0.038565483 0.20588326
0.21614155 0.10104667 0.2709229 0.030506454 0.11649106 0.0937216 0.0040346575 0.3884448
0.11404642 0.12755853 0.057321783 0.18877013 0.24678336 0.25855756 0.08148498 0.009581125
0.23977402 0.110134944 0.015995111 0.11089778 0.13456541 0.11568624 0.31882027 0.32599112
0.16716056 0.062256202 0.24214083 0.3140569 0.28423968 0.15696459 0.053684656 0.051973965
0.08151389 0.24303047 -0.047396526 -0.13920951 -0.09236566 0.016280109 0.30910486 0.08422771
0.013559965 0.04001339 0.12587139 -0.074919395 -0.089627706 -0.12356418 -0.11450267 -0.04978404
-0.15236475 0.13999265 0.16025645 0.23279412 -0.05724699 0.18701576 0.019773722 0.089481734
0.06389915 -0.04927293 0.013008178 0.19932114 0.16985045 0.09068448 0.19207679 0.119888626
-0.1065608 -0.03743384 0.10758847 0.032389645 -0.031053033 0.0572166 0.025567796 -0.07409575
-0.03233737 -0.052546185 0.10317276 -0.11124588 -0.015641114 0.046491906 0.07616487 0.14466645
0.12029084 -0.0124598965 0.0059153577 0.19829771 0.0060929623 -0.14494231 -0.03327336 -0.11487911
0.0883161 0.100382686 0.07198692 0.08096112 -0.026817014 -0.11014081 0.08729712 -0.06994766
0.031750083 0.0792706 0.12321642 0.10251052 0.08181372 -0.04522599 0.0073447633 -0.045693144
-0.039188415 -0.053123616 -0.12565292 -0.113902524 -0.036338154 -0.10336701 0.02083088 0.024699032
0.13304684 0.41836905 0.09794206 -0.073406234 0.31191987 0.12765373 0.0045680692 0.29718736
0.34449008 0.23117764 0.21517646 -0.017924659 0.10116146 0.07788876 -0.07997673 0.36762467
0.10073507 0.3134265 0.11801189 0.21330519 0.23891367 0.33644992 0.31133276 0.079223916
0.09131284 0.24431047 0.17211315 0.061077178 0.24702299 0.007010039 0.18428919 0.05026533
0.11969887 0.14240378 0.057276517 0.16849442 -0.008790188 0.24365592 0.20378445 0.09019757

lstm.bias_hh_l1 f4 [160]
00000000: 5254 633e 48a1 b13e 72b0 f73d 1956 5e3c
00000010: 58b9 7c3e 18ab 1a3e 7ca5 c33d 61e8 543e
00000020: 6422 9e3e ec22 d9bc b363 063e cfe2 263e
00000030: c2b7 8a3d 23de 103e 74ff 33bd dda5 af3e
00000040: 26b2 953e b287 553e 2a8e 9b3e 3156 f13d
00000050: d981 cc3e b6af 9c3e d6a2 a03e aacb 4d3b
00000060: 804c 453e 8920 0f3c 9bd1 203e e0ae a73e
00000070: d34f 213e 7ee7 173d 3cf6 b73e 3d89 343e
00000080: 7575 fc3d 6ea5 673e af06 973e 0885 1a3e
00000090: e8c3 943d 235e bf3d bf02 fe3d fd7f b2bc
000000a0: dfad 4fbd 8dac 1e3e 6780 1e3e dd6b aabd
000000b0: 2aea dd3c c4ee 473e 39b4 6f3e 6544 143e
000000c0: fa78 2e3e effc 743a 9aaf d23d c389 103e
000000d0: b55c 0c3e 2ba2 c73d 1c0b d3bd 99b6 1bbe
000000e0: a875 29be cea5 563c bed3 343e 3413 fb3d
000000f0: 89bc f43d eb6b bd3d c236 303e fc9b 333e
00000100: 72d1 9a3c e538 b03d 3cca 373d a68d 513e
00000110: 487b 53bd d2d7 243e 51a4 7a3d 648c 093d
00000120: e5be 3c3e 5156 7b3c 4ecc eb3d 08d5 003e
00000130: 842a af3d 7764 013e 6aa9 793b 6128 3cbe
00000140: ff6a 8b3d f798 e7bd 8e06 dfbd 949a e4bd
00000150: a4b2 9dbd 8b3f fbbd 598b 273e 8d07 06be
00000160: 95e5 f23c b93a 21be 0249 6a3d 2091 343d
00000170: 53ce 253d d6dc fc3d d3be 5d3d 5a96 f8bd
00000180: 2faa 0c3d 4c92 4bbe 8877 f33d 05dc ea3c
00000190: 69b1 96bd 79fa 09be 6558 043e 8d91 033d
000001a0: 870e c7bd 7bd2 01be d7de f8bd b218 34be
000001b0: 33f1 bc3b 398c 8cbd d40a f6bc 6ca2 9f3c
000001c0: 6699 9b3d 2250 97bd 70a5 d83c 2f7d 283e
000001d0: 7278 34be a138 963d 1616 d63d 1477 60bd
000001e0: 1a25 303e d90e af3e 3d0e 383c a150 db3d
000001f0: 887e 8e3e 9ee4 8f3e 5e7b 7a3d 84a1 0e3e
00000200: 177e a63e c6c8 193e db33 e93d a46e 3d3e
00000210: 2d54 183e ba46 a43d 2f7c 603e e7a2 f63e
00000220: c212 9d3d d0fe a23e 04b1 9c3e 6195 7c3e
00000230: 3b31 8b3e 4506 be3d ff39 983d 70a3 cf3d
00000240: ea3e 123d b774 743e 137b e63c 52bb 023e
00000250: 03f8 a63d 0de1 2b3e f606 4f3e 0999 5c3e
00000260: e3fd 9b3d ace9 3a3e 7750 ec3d 6e6f a53c
00000270: 6936 843e 052e 193e 28f7 1a3e ae26 993c
0.22200134 0.3469336 0.12094201 0.013570332 0.24680078 0.1510433 0.09553048 0.2079177
0.30885613 -0.02650591 0.1312397 0.16297458 0.0677333 0.14147238 -0.04394479 0.3430623
0.2923748 0.20852545 0.303819 0.11784018 0.39942816 0.30602807 0.31374234 0.003140191
0.19267464 0.008735784 0.15704958 0.32750607 0.15753107 0.037086003 0.3593005 0.17630477
0.12327091 0.226217 0.29497287 0.1508981 0.07263929 0.09344127 0.124028675 -0.021789545
-0.050702926 0.1549551 0.15478669 -0.083213545 0.027089197 0.19524676 0.23408593 0.14479215
0.17038336 0.00093455514 0.102873996 0.14115052 0.1370724 0.09747728 -0.10304853 -0.15206374
-0.16548789 0.013101054 0.17658898 0.12259522 0.11950023 0.09249099 0.17208388 0.17539972
0.0188987 0.08604602 0.0448706 0.20464191 -0.051631242 0.16097954 0.06119186 0.033581153
0.18432195 0.015340404 0.115135774 0.12581265 0.08553031 0.1263598 0.0038095363 -0.18374778
0.06807517 -0.113084726 -0.10889922 -0.11162296 -0.077000886 -0.12267979 0.1636175 -0.13088818
0.029650489 -0.15745057 0.057198532 0.044083714 0.04047997 0.123468086 0.054137062 -0.12138052
0.034341987 -0.19880027 0.11888033 0.028669367 -0.07358057 -0.13474454 0.12924345 0.03212123
-0.09719568 -0.12677948 -0.12151878 -0.17587546 0.005766058 -0.06862683 -0.03003446 0.019486628
0.07597618 -0.07388331 0.026446074 0.16454004 -0.17624071 0.0733502 0.10453431 -0.05480106
0.17201653 0.34191015 0.011233863 0.10708738 0.2783091 0.2810411 0.06115281 0.13928801
0.32518074 0.15017995 0.11386844 0.18499237 0.1487586 0.080213025 0.21922372 0.4817116
0.076695934 0.31835032 0.30603802 0.24666359 0.27185997 0.092785396 0.07432937 0.10138595
0.03570453 0.23872648 0.028134858 0.1276677 0.08152773 0.16785069 0.20217499 0.21542753
0.076167844 0.18253201 0.11538785 0.020194735 0.25822762 0.14958961 0.15133345 0.018695202

lstm.weight_ih_l2 f4 [160, 40]
00000000: c933 9f3e 789d e3be fac1 ed3b 0e59 acbe
00000010: 47eb 14be df60 0fbe 6546 843d d21d a5be
00000020: 0a27 e8be b0ff 47be c48e 363d ffd1 9abe
00000030: 1358 203e f894 5fbc ce69 59be d7e5 d03d
00000040: d983 acbe a8b2 9cbe 45bb 28bd 49ea 9b3e
00000050: 55ce c4bd 6c26 9e3e 5945 ff3e fc41 383e
00000060: dbcd 12bf ee3e 203e 7e4f 693e 3624 d6bc
00000070: 3d5f 5abe e599 f1be e9f6 8d3e 7803 993e
00000080: 8372 e0be b7d9 13bd 0a00 a43e e983 08bf
00000090: 686d ca3e ede1 4fbe dfcc 803e b865 6c3e
000000a0: 12ab d9bd 24ae 24be 9b0b 703e 8d0f 873e
000000b0: 1a44 01be 247f 1fbf 5b27 c8bd c757 f8be
000000c0: daf9 36bf 5497 7abe 07cf 10bf 04a1 cd3d
000000d0: 0399 383d 0d5b 0ebf 478e 9dbf 7bca 07bf
000000e0: cdd8 b7be 1c09 ff3d 78e5 673d 4559 e6bd
000000f0: 5055 babe 2f29 883e 037c a53e 47de e13d
00000100: b21a 123d 7a2d 8e3e 9bb6 06be 2f0b b7bd
00000110: f2dc 333e fea0 0d3e 1424 d83d 54a1 a23d
00000120: be13 03bf 5d84 13be 646c 3abe d7ac b3be
00000130: 15c9 513c c7c2 1abe 55f4 f13d e773 bf3c
00000140: d8fe 163e be16 acbe 80ae b8bd 4e40 f73d
00000150: 67c2 b73e 5da3 943e 22cd 9f3e 074a 66be
00000160: 2c85 1a3e b052 8cbd 7889 193c b697 a1be
00000170: 25c2 773d 0f7c 5cbd d845 8dbf e98f fbbe
00000180: 8b15 17bd 36f0 cc3e 2bc8 56be a783 823d
00000190: 5861 d5bc 68db ab3e 1731 af3e 5022 4dbe
000001a0: 1c98 24bd 7812 69be e5dc f3bd 3d2d 25be
000001b0: 3086 883d 651e b2be d938 aebe 9f33 7dbd
000001c0: cfc6 c7bd f9ca 4ebe f7fe 843b 5cec 0d3c
000001d0: 0ff3 44be 526b 61be 5cbb 5d3e 3fdc bd3e
000001e0: 9d86 da3c 570f 853e 8378 d4be 6d16 8abe
000001f0: 50b0 ab3e d2bc 24be 75a7 8e3d 17af 903d
00000200: 2a6b 663c 79c9 81be b0c6 40be e89a d2bd
00000210: 6e95 b03d 8efe a0be 049c b9bc 0e58 44be
00000220: 3fa5 283d e4d9 e43e 6543 0e3e 31cb 9cbe
00000230: 12f2 e53e 8e55 bebc 6dba 10be 6b4e b8bd
00000240: d431 393e bb13 1d3e 3ee7 f2bd 25b5 92be
00000250: 81d2 073e 1a98 62bd 51d5 95bc 9a12 963d
00000260: 47da 8b3d 42d4 61be 62e9 77be 6f1b 1d3e
00000270: 4ed4 353e 57d6 a33e 26a7 5fbe c328 81be
00000280: fce5 0f3e 32ce 07bd cff8 83be a334 423e
00000290: be47 07bf 68eb 38be 4cc7 6a3e d5e0 313d
000002a0: 77ff 9f3e c98e a5be 2d8e 983e 09e0 a53e
000002b0: feb0 28be 3800 3b3e 607f 953e f2c0 833c
000002c0: 85aa 65be 4e44 a63e bfc3 c33e eaf0 023e
000002d0: e2f3 973d a1ac 783e 81e5 acbc 2948 13be
000002e0: d980 91bd 198f 2e3e cc4a 883e 2cec 9c3d
000002f0: b512 eabe c467 47be 3f1d 9fbd bacd 75bd
00000300: 2ad1 c1bd b08e 943e 582c 883e acea c83d
00000310: 3e2c ac3e 0275 c33c 1cb6 dd3e 07d3 463e
00000320: b68c d5be 3ec1 913d 3e6f c6be 36bd 23be
00000330: 19de 6ebf cacb c0be e350 74be 6bbf 6c3c
00000340: f42c 1bbf c7d8 5abd 0f6f f63e 96e5 383e
00000350: 0eec b23d 9350 7e3d c049 9c3e 39dc c3be
00000360: 4701 cb3d 5ec2 d6be fb32 803e 46f8 ee3e
00000370: 47f7 9ebe 942c 5cbe 0f29 62be b560 87be
00000380: 6953 d0be b142 4dbe 7dd1 ea3c 17c7 37be
00000390: 22a6 4fbe 6c3b b5bd 4968 d03d bd26 713e
000003a0: 7565 083e d940 b3bc 078a 4d3e 93fd 313d
000003b0: 7231 cd3e cb4d babe 4cfe ee3d ab42 cfbe
000003c0: 7200 8e3e f406 07be 2cf5 8f3b 00aa 633d
000003d0: e696 c2bd bd21 44be b777 e63e fe1d 14bf
000003e0: 9a8d b53c 3ded d9bd 24e6 ed3c 397e e1be
000003f0: adf5 e03d 8e52 c83e 10bf 7cbd 4ddb 52be
0.31094196 -0.44456077 0.00725579 -0.33661693 -0.14542876 -0.14001797 0.06458739 -0.32249314
-0.45342284 -0.19531131 0.044569746 -0.3023834 0.15658598 -0.013646357 -0.21231768 0.102000885
-0.33694342 -0.30605054 -0.04119422 0.30452183 -0.09609667 0.3088869 0.49857596 0.17993921
-0.5734536 0.15649006 0.2278423 -0.026140314 -0.21325393 -0.47187725 0.2772744 0.2988546
-0.43837366 -0.0360963 0.3203128 -0.5332628 0.39536595 -0.20301028 0.25156304 0.23085678
-0.10628332 -0.16082054 0.23441927 0.26379052 -0.12623635 -0.62303376 -0.097731315 -0.4850447
-0.71474993 -0.2447179 -0.565659 0.10040477 0.0450678 -0.5560768 -1.2309045 -0.53043336
-0.35907593 0.12452909 0.056615323 -0.112474956 -0.36393213 0.2659392 0.32321176 0.11028724
0.03566999 0.2776907 -0.13155596 -0.0893768 0.17564753 0.13830945 0.10553756 0.07940927
-0.51202 -0.14405961 -0.1820541 -0.35092804 0.012804289 -0.15113364 0.11814181 0.023370696
0.14745653 -0.336111 -0.09017658 0.12072812 0.35890505 0.29030886 0.3121119 -0.22489177
0.15089864 -0.06851709 0.009371154 -0.3156106 0.060487885 -0.05382925 -1.103694 -0.49133232
-0.03688578 0.40027016 -0.20974796 0.06372767 -0.026047394 0.3356583 0.3421714 -0.2003262
-0.040184125 -0.22760952 -0.11907367 -0.16130538 0.06666219 -0.34788814 -0.34027746 -0.061816808
-0.097547166 -0.20194615 0.0040587145 0.0086623095 -0.19233344 -0.22013596 0.21653503 0.37082097
0.026675517 0.25988266 -0.41498193 -0.26970235 0.33532953 -0.16087654 0.06965534 0.07064646
0.014063636 -0.25349024 -0.18825793 -0.10283452 0.086222515 -0.3144421 -0.022657402 -0.19174215
0.041173216 0.44697487 0.13892896 -0.30623773 0.44911247 -0.023234155 -0.14133616 -0.08999332
0.18085414 0.15339558 -0.11860512 -0.28653827 0.13263895 -0.055320837 -0.018290194 0.07327767
0.068287425 -0.22053626 -0.24210122 0.15342496 0.17756769 0.31999466 -0.21841106 -0.2522641
0.14052576 -0.033155628 -0.25775763 0.18965392 -0.52843845 -0.1805855 0.22927588 0.043427307
0.31249592 -0.323355 0.29795972 0.32397488 -0.16473767 0.18261802 0.29198742 0.016083214
-0.2242833 0.32473987 0.3823528 0.12787214 0.07419564 0.24284603 -0.02110553 -0.14382996
-0.07104654 0.17046775 0.26619565 0.07662234 -0.45717397 -0.19473177 -0.0776925 -0.06001065
-0.09463723 0.29015112 0.26596332 0.09810385 0.33627504 0.023859505 0.43303 0.19416438
-0.41708916 0.07116936 -0.38756746 -0.15990147 -0.93307644 -0.3765548 -0.23858981 0.0144499345
-0.6061547 -0.05342939 0.48131606 0.1805633 0.0873643 0.06208856 0.30525017 -0.38253954
0.09912353 -0.41945165 0.25038895 0.46673793 -0.31048033 -0.2150138 -0.22085975 -0.2644097
-0.40688637 -0.20044972 0.028664345 -0.1794704 -0.20278218 -0.088492244 0.10176141 0.23549934
0.13319953 -0.021881508 0.20072185 0.043454718 0.40076786 -0.36387476 0.11669597 -0.4048055
0.27734715 -0.13186246 0.0043932404 0.055582047 -0.09501438 -0.19153495 0.4501321 -0.57858264
0.022162247 -0.10640953 0.029040404 -0.44041613 0.10984359 0.39125484 -0.06170565 -0.20591469
