models/LSTM_for_best_best_model.pth (torch, 677936 bytes, 24 tensors)

lstm.weight_ih_l0 f4 [256, 34]
0	0xbd08b8f8	-0.033379525
1	0x3e1dcd7f	0.15410422
2	0x3e3c2732	0.18374327
3	0x3e03235d	0.12806459
4	0xbcd736f8	-0.026271328
5	0x3db3382b	0.087509476
6	0x3d4c3b0b	0.049860995
7	0x3e2b4658	0.16726053
8	0x3e56ec81	0.20988657
9	0x3e45ab83	0.19303708
10	0x3e13a296	0.1441749
11	0x3d19f44b	0.03758649
12	0xbc643184	-0.013927821
13	0x3e69aba3	0.2281938
14	0x3e80c351	0.25149015
15	0x3dcd6450	0.10028899
16	0xbc1d7033	-0.00960927
17	0x3e82535b	0.2545422
18	0x3e1ef115	0.15521653
19	0x3e1647ff	0.14675902
20	0xbdf6668b	-0.12031277
21	0xbd6041a2	-0.054750092
22	0xbcbe2c67	-0.023214532
23	0x3e6852a6	0.22687778
24	0x3de49cc9	0.11162717
25	0x3d946695	0.072461285
26	0x3d9949e2	0.07484795
27	0xbb719108	-0.0036860127
28	0x3e6e9cbd	0.23301978
29	0x3e0ff1fc	0.14057153
30	0x3d9fdf55	0.07806269
31	0x3cfc23fb	0.030778876
32	0x3df36117	0.11883753
33	0x3e563226	0.20917568
34	0xbd178abb	-0.036997538
35	0x3e4fa431	0.20277478
36	0x3e13a94f	0.14420055
37	0x3e427f9d	0.18993993
38	0xbd5e47c8	-0.054267675
39	0x3e79de3f	0.24401186
40	0xbd71b5f5	-0.05901142
41	0x3e6e5366	0.23274001
42	0x3dbf5388	0.09342104
43	0x3eab0b4d	0.3340706
44	0x3dd69dfb	0.10479351
45	0x3d30d552	0.043172188
46	0x3e1312ca	0.14362636
47	0x3c23a478	0.009987943
48	0x3e49cb28	0.19706404
49	0x3d1fe813	0.039039683
50	0x3ced5f62	0.028976146
51	0x3dda5051	0.106598504
52	0xbe0f1545	-0.13972957
53	0x3df4fd3e	0.119623646
54	0xbe05315e	-0.13007113
55	0xbe201603	-0.15633397
56	0x3d5d61ed	0.054048467
57	0x3d450ca5	0.048107762
58	0x3e439035	0.1909798
59	0x3e419bdc	0.18907112
60	0x3e162c97	0.14665447
61	0x3de137f6	0.10997002
62	0x3d06db3a	0.032923914
63	0x3db563cd	0.08856926
64	0xbdb7ddba	-0.08977838
65	0x3da75cb4	0.081719786
66	0x3e16b05f	0.14715718
67	0xbc559aac	-0.013037365
68	0xbd8bfcc7	-0.06835323
69	0x3dba413f	0.09094476
70	0x3d93860c	0.07203302
71	0x3e558e59	0.20855083
72	0xbdf87112	-0.121309415
73	0x3e6233c7	0.22090064
74	0xbc42b6b4	-0.01188438
75	0x3dcd1d6c	0.100153774
76	0x3e2ff32e	0.1718261
77	0x3e63bfd1	0.22241141
78	0x3e150595	0.1455291
79	0x3e01bcfe	0.12669751
80	0x3cf7df01	0.030257704
81	0x3e6155c2	0.2200537
82	0x3e14e2b4	0.14539605
83	0x3df81846	0.12114005
84	0xbd999202	-0.07498552
85	0x3d3ad76a	0.04561559
86	0x3e38e43f	0.18055819
87	0x3ccc50fe	0.024940964
88	0x3e7c4c9d	0.246386
89	0xbdf5e57c	-0.12006661
90	0x3e14e0fd	0.14538951
91	0x3d8da83b	0.06916853
92	0x3e05fb5e	0.1308417
93	0x3c5738c0	0.013136089
94	0x3e0c27cc	0.13687056
95	0x3d9323bb	0.071845494
96	0x3d2f1564	0.04274501
97	0x3df52c82	0.1197138
98	0x3cfa4848	0.030552045
99	0x3d1ce4da	0.038304187
100	0x3d3a4a03	0.04548074
101	0xbd4a40fc	-0.04937838
102	0x3dbb5758	0.09147519
103	0xbd07bae6	-0.033137225
104	0x3db58123	0.088625215
105	0x3e60f813	0.21969633
106	0x3d0d7b0d	0.03454118
107	0x3d8ac8a1	0.06776548
108	0x3ccbae1d	0.024863297
109	0x3d514089	0.051086936
110	0xbc0e7e14	-0.008697052
111	0x3bd2f4c9	0.006437872
112	0x3e31a53d	0.1734819
113	0x3d46358e	0.048390917
114	0x3ca198e2	0.01972622
115	0x3e1f4719	0.15554465
116	0x3e689d90	0.22716355
117	0x3dd2d203	0.10293963
118	0xbe3251c2	-0.17414
119	0xbcdfcead	-0.02732023
120	0x3df3e3c9	0.11908681
121	0x3d6f1de0	0.0583781
122	0xbc99add0	-0.018759638
123	0x3bb51059	0.0055256304
124	0x3e6750b2	0.22589377
125	0x3db3828f	0.087651365
126	0x3da613f4	0.081092745
127	0x3e1e1705	0.15438469
128	0x3e39b9f0	0.18137336
129	0x3e68b3d0	0.22724843
130	0x3db87478	0.0900659
131	0x3e22417f	0.15845297
132	0xbd57cd7e	-0.052686207
133	0xbb83ffd1	-0.0040282984
134	0x3df7f2c7	0.12106853
135	0x3e2ccba2	0.16874555
136	0x3d16a0b6	0.03677436
137	0xbdc1bfd9	-0.0946042
138	0x3d98bdc9	0.07458074
139	0x3d6a5032	0.057205386
140	0xbdde0923	-0.108415864
141	0xbd09f03a	-0.033676364
142	0xbe2381bb	-0.15967457
143	0xbdb3e6d4	-0.08784261
144	0xbe187018	-0.1488651
145	0x3dbeba69	0.09312899
146	0xbce35a73	-0.02775309
147	0xbd80a10f	-0.062807195
148	0x3d0364b3	0.032078456
149	0x3cffbaf0	0.031217068
150	0x3c3736c7	0.0111824935
151	0x3d34676f	0.044043954
152	0x3c905b16	0.017621558
153	0xbd5dad03	-0.054120075
154	0xbe0e6638	-0.13906181
155	0xbd6881fc	-0.056764588
156	0xbe35d6b0	-0.17757678
157	0xbcea7e29	-0.028624611
158	0xbd889093	-0.066682
159	0xbc6097ba	-0.013708049
160	0x3d48b246	0.04899814
161	0x3d98d288	0.07462031
162	0xbe17e9e7	-0.1483532
163	0xbdb9a602	-0.090648666
164	0xbd001e9c	-0.03127919
165	0xbc25f3fb	-0.01012897
166	0xbd3d8138	-0.04626581
167	0x3db71d45	0.089411296
168	0xbd8360fc	-0.06414983
169	0xbd225d2a	-0.03963963
170	0x3d4e1e5e	0.05032193
171	0x3e5d8602	0.21633151
172	0x3c42e66b	0.011895756
173	0x3e806c12	0.2508245
174	0x3da16409	0.07880408
175	0x3e22659e	0.15859076
176	0xbca78a62	-0.020451728
177	0xbd01f9de	-0.031732433
178	0xbbd1d916	-0.0064040525
179	0x3dd0cda8	0.10195476
180	0x3e4bc56f	0.19899534
181	0x3e5af9b7	0.21384321
182	0x3dddf626	0.10837965
183	0x3e013060	0.1261611
184	0x3e07cb84	0.13261229
185	0x3dfae9e6	0.12251644
186	0x3d5569c8	0.052102834
187	0x3e1855fe	0.14876553
188	0x3e966e0d	0.29380837
189	0x3e3e8f1a	0.18609276
190	0x3dae7cfe	0.08519934
191	0x3e80576c	0.25066698
192	0x3d6aad22	0.05729402
193	0x3d8869fb	0.06660839
194	0x3e2966f7	0.16543184
195	0x3d17c96f	0.037057336
196	0x3e100ad5	0.14066632
197	0xbcd1a0d7	-0.02558939
198	0x3e4e10a5	0.20123537
199	0x3e10f51a	0.14155999
200	0x3b9a3160	0.004705593
201	0x3e8104a9	0.25198868
202	0x3d6cd5ef	0.05782121
203	0x3d4cbf60	0.049987197
204	0x3d61d74e	0.05513697
205	0x3dfe2434	0.12409249
206	0x3c59e650	0.01329954
207	0x3df1a65a	0.11799307
208	0x3d69d2ca	0.05708579
209	0x3c0dfaec	0.0086657815
210	0xbcc1b86d	-0.023647511
211	0xbbe91507	-0.0071131024
212	0xbd8f6bde	-0.07002996
213	0x3df80c73	0.121117495
214	0xbbb976b5	-0.005659903
215	0xbd5c0c68	-0.05372277
216	0x3d245190	0.040116847
217	0x3dd15e48	0.10223061
218	0x3d16c138	0.03680536
219	0x3d6a80d4	0.057251766
220	0x3db15f3b	0.08660742
221	0x3d64fecb	0.055907052
222	0xbdd6cad3	-0.104879044
223	0xbda1d1be	-0.07901333
224	0x3dfee028	0.12445098
225	0xbd1420e4	-0.03616418
226	0x3c0791d7	0.008274517
227	0x3bf8675d	0.0075806812
228	0xbd1c4732	-0.038153835
229	0xbd2ffaf3	-0.042963933
230	0xbd797cbd	-0.060909975
231	0xbc65f426	-0.01403526
232	0xbbb6e99a	-0.0055820467
233	0x3db7712f	0.08957135
234	0x3e021060	0.12701559
235	0x3c8260e5	0.015915344
236	0xbd317a3c	-0.043329462
237	0x3d808752	0.0627581
238	0x3d97cad4	0.07411733
239	0x3dba8dee	0.09109102
240	0x3d445697	0.04793414
241	0x3e2a8385	0.16651733
242	0x3d01a370	0.031650007
243	0x3d77f549	0.060536657
244	0x3e284fe0	0.1643672
245	0x3ee468a9	0.446111
246	0x3e0545aa	0.13014856
247	0x3e2e0eaf	0.16997789
248	0x3e30ad70	0.17253661
249	0x3dd43d98	0.103633106
250	0x3cd36bc9	0.025808232
251	0x3e8914ba	0.26773626
252	0x3dda8f20	0.1067183
253	0x3df5cce3	0.1200197
254	0x3e78251c	0.24232906
255	0x3dc7729a	0.097386554

lstm.weight_hh_l0 f4 [256, 64]
0	0xbe10fb71	-0.14158417
1	0x3dc4e6c4	0.096143275
2	0xbc11d5b2	-0.008901047
3	0x3e1d19e7	0.15341912
4	0x3d549818	0.05190286
5	0xbd40da09	-0.047082935
6	0x3d16157e	0.03664159
7	0x3dcc1d98	0.09966582
8	0xbd45074b	-0.04810266
9	0x3ce7e454	0.028307118
10	0xbdb2d47e	-0.08731936
11	0xbb8d8c76	-0.0043197228
12	0x3cbb58bd	0.022869462
13	0x3e516790	0.20449662
14	0x3daf53d4	0.08560911
15	0xbcd34c6d	-0.025793279
16	0x3d3853dc	0.04500185
17	0xbca99401	-0.020700457
18	0xbe0105ae	-0.12599823
19	0xbd9e24b6	-0.07721846
20	0x3d76aeb6	0.06022521
21	0x3b877e0c	0.004134899
22	0xbd0ac950	-0.033883393
23	0xbdaac84a	-0.08338983
24	0x3d887766	0.066633984
25	0xbda31ccd	-0.07964478
26	0xbda2fb57	-0.079580955
27	0xbca01af8	-0.01954411
28	0xbe012a47	-0.12613784
29	0xbe1e1b3a	-0.15440074
30	0x3df7a55d	0.120920874
31	0xbcc90349	-0.0245377
32	0x3d6f6abf	0.05845141
33	0xbe003313	-0.12519483
34	0x3ea5811c	0.32325065
35	0xbcd86022	-0.026413027
36	0x3e511a29	0.20420136
37	0x3d9eaea9	0.077481575
38	0xba53d3a3	-0.00080805476
39	0x3d5d11dc	0.05397211
40	0xbd7b5b3b	-0.0613663
41	0x3e0d35aa	0.13790002
42	0xbe05b836	-0.13058552
43	0xbc9a900b	-0.018867513
44	0xbd80ee8b	-0.062954985
45	0xbde7618b	-0.11297902
46	0xbd0e543b	-0.034748297
47	0x3e1606d2	0.14651039
48	0xbe255a0c	-0.16147631
49	0xbda02e81	-0.0782137
50	0x3bbd73fc	0.0057816487
51	0x3e23c349	0.15992464
52	0x3e08dfa1	0.13366558
53	0xbe0c1ebb	-0.13683598
54	0x3dbf9137	0.093538694
55	0xbe11d459	-0.1424116
56	0xbe1afe40	-0.15136051
57	0xbc3c4de3	-0.011493179
58	0xbdd98ba8	-0.106223404
59	0x3d6ced77	0.05784365
60	0x3df877b1	0.12132204
61	0xbd6b77d1	-0.057487313
62	0x3ca6f10a	0.020378608
63	0xbde44722	-0.1114638
64	0x3e029cbc	0.12755102
65	0x3e736765	0.2376991
66	0x3e108513	0.14113264
67	0x3dd07801	0.10179139
68	0x3dc284ee	0.094980106
69	0xbdf32913	-0.11873069
70	0x3d7f19fb	0.062280636
71	0xbe04fd62	-0.12987283
72	0xbda0d9c5	-0.07854036
73	0xbd40dc93	-0.047085356
74	0xbe429e0b	-0.19005601
75	0x3c2a3975	0.010389675
76	0x3da9603e	0.0827031
77	0xbc8ff637	-0.01757346
78	0xbbecc37a	-0.007225451
79	0x3e20a194	0.15686637
80	0x3dc9d7e7	0.09855633
81	0x3d80741c	0.06272146
82	0xbcdfb691	-0.027308734
83	0xbdfada41	-0.1224866
84	0xbbb70c0b	-0.0055861524
85	0xbc08a147	-0.008339233
86	0x3da903c0	0.082526684
87	0xbd8000d1	-0.06250156
88	0x3d5f87c4	0.054572836
89	0xbdcb72bc	-0.09933993
90	0xbdeefead	-0.11669669
91	0x3df431d4	0.119235665
92	0x3c2b1203	0.010441306
93	0xbcc02b9a	-0.02345829
94	0x3d3c0dec	0.045911714
95	0x3c99b1ef	0.018761603
96	0xbdc4e8d3	-0.0961472
97	0xbc9fd044	-0.019508488
98	0xbc16a9b7	-0.009195737
99	0x3df4eecb	0.11959609
100	0x3daa9f64	0.083311826
101	0xbc8a034e	-0.016847279
102	0x3d586f2e	0.052840404
103	0x3e517339	0.2045411
104	0x3d6f593c	0.05843471
105	0x3bec075b	0.0072030253
106	0x3c94e8fb	0.0181775
107	0xbda3e457	-0.08002537
108	0xbe012c1b	-0.12614481
109	0x3cc7ef8c	0.024406217
110	0xbc0bbfd0	-0.008529618
111	0x3e2b287a	0.1671466
112	0xbe381ffc	-0.17980951
113	0xbd8f2257	-0.06988972
114	0x3d2fcf01	0.042922024
115	0x3d808473	0.06275263
116	0x3d83e090	0.06439316
117	0x3cbb38fa	0.022854317
118	0x3c3705db	0.01117083
119	0xbd2e3f6c	-0.042540953
120	0xbd89e87e	-0.067337975
121	0xbd1e02b9	-0.038576815
122	0x3d8b0263	0.067875646
123	0xbe0b6df9	-0.1361617
124	0xbc0c2fbc	-0.008556303
125	0x3e3ae923	0.18252997
126	0xbb6184d0	-0.0034411438
127	0xbdf39fac	-0.11895689
128	0xbb7220dc	-0.0036945855
129	0xbd79450c	-0.060856864
130	0x3dac7e26	0.084224984
131	0x3c9c88f3	0.019108271
132	0x3df267d0	0.11836207
133	0xbe8785a0	-0.26469135
134	0x3dafba35	0.08580438
135	0x3e313157	0.17303978
136	0x3d85597b	0.06511208
137	0x3df7d025	0.12100247
138	0xbe460ca6	-0.19340762
139	0xbe204e33	-0.1565483
140	0xbe74a9e1	-0.23892929
141	0x3e16dd34	0.1473282
142	0x3dc34416	0.09534471
143	0xbd019b72	-0.031642385
144	0xbd98e17e	-0.07464884
145	0x3b307b9f	0.0026929153
146	0x3de7128e	0.11282836
147	0xbd268b93	-0.040660452
148	0x3e80890a	0.25104553
149	0x3b5c4c15	0.0033614684
150	0x3e10673a	0.14101878
151	0x39dd423f	0.00042201762
152	0xbc729bdb	-0.014807667
153	0xbd26346f	-0.04057735
154	0x3d30e608	0.043188125
155	0x3e3048fc	0.17215341
156	0xbd14e28d	-0.03634887
157	0x3dd17fd6	0.10229461
158	0xbe17181e	-0.14755294
159	0xbcac9834	-0.02106867
160	0x3cf5dd58	0.030012771
161	0xbe27cefa	-0.16387549
162	0xbc8edf92	-0.017440591
163	0x3e03ae71	0.12859513
164	0x3e41889a	0.18899766
165	0x3e02c046	0.12768659
166	0xbd9feb3f	-0.078085415
167	0xbdbc1eb9	-0.091855474
168	0x3d457f54	0.048217133
169	0x3d69af07	0.057051685
170	0x3dd1f24b	0.10251292
171	0xbd2f8fd2	-0.042861767
172	0xbdc039e0	-0.09386039
173	0xbd78a2fa	-0.0607023
174	0xbdb62233	-0.08893242
175	0x3cf06b79	0.029348122
176	0xbe29ea87	-0.16593371
177	0xbd541c4f	-0.05178481
178	0x3d4d7656	0.050161682
179	0x3da2b272	0.07944192
180	0xbd9a1e93	-0.07525363
181	0x3d840b37	0.064474516
182	0xbde3e6cc	-0.111280054
183	0x3d93d3d3	0.07218137
184	0xbde0f9cf	-0.10985147
185	0x3e5b4b61	0.21415474
186	0x3d5d5803	0.054039013
187	0x3b4e8465	0.0031512019
188	0xbb643e16	-0.0034827045
189	0xbd74c39b	-0.059756856
190	0xbd3c9431	-0.046039764
191	0xbe0ab824	-0.13546807
192	0x3e102d6e	0.1407983
193	0x3d6ec926	0.0582973
194	0x3e2c93df	0.16853283
195	0x3e020f36	0.12701115
196	0x3dbdd1c1	0.09268523
197	0x3e2a4180	0.16626549
198	0x3e08378d	0.13302441
199	0xbe4ab0e4	-0.19794041
200	0xbb95f0a7	-0.004575807
201	0x3e96b3a5	0.29433933
202	0xbe1d2567	-0.15346299
203	0xbe077ab0	-0.13230395
204	0xba3c88b7	-0.0007192003
205	0xbd950f26	-0.0727828
206	0x3ca75ea0	0.020430863
207	0x3e75d025	0.24005182
208	0x3d20af43	0.039229643
209	0x3e209615	0.15682252
210	0x3d567174	0.05235429
211	0xbcfe5350	-0.031045586
212	0xbe07c862	-0.13260034
213	0x3d14be18	0.0363141
214	0x3e33a069	0.1754166
215	0xbdd90a3e	-0.10597657
216	0xbe1895c2	-0.14900878
217	0xbd454eb6	-0.048170768
218	0xbcef7773	-0.029231763
219	0xbdfcdeb1	-0.123471625
220	0x3db39bc2	0.08769943
221	0x3d8c92aa	0.068639114
222	0xbcf1a469	-0.029497342
223	0xbe42a4be	-0.19008157
224	0xbe1eba2f	-0.15500711
225	0xbd7c0259	-0.061525676
226	0xbde32803	-0.11091616
227	0x3e9e5013	0.30920467
228	0xbdfd779f	-0.123763315
229	0x3e9b0bb4	0.30282366
230	0x3b96c7cc	0.0046014544
231	0x3d53cefb	0.051711064
232	0xbe2d3d44	-0.16917902
233	0xbd03be4d	-0.032163907
234	0x3e81632e	0.2527098
235	0xbc5f847f	-0.013642429
236	0x3dc13aa1	0.09435011
237	0x3e992e1a	0.29917985
238	0xbe63cc18	-0.22245824
239	0x3dccef2e	0.100065574
240	0xbd7ba7bd	-0.061439265
241	0x3d9baa60	0.07600856
242	0x3c825bb7	0.015912874
243	0x3decef51	0.115690835
244	0x3e44e20d	0.19226857
245	0xbeb3d612	-0.3512426
246	0xbb0ffb34	-0.0021969797
247	0xbe9f7307	-0.31142446
248	0xbc4e4846	-0.0125904735
249	0x3cd017da	0.025401998
250	0xbd50fb8e	-0.05102115
251	0xbc21e1b3	-0.009880471
252	0x3e28708a	0.1644918
253	0x3e09946b	0.13435523
254	0xbda3273e	-0.07966469
255	0x3d6a13c4	0.057147756

lstm.bias_ih_l0 f4 [256]
0	0x3e4d36d1	0.20040442
1	0x3e14ab33	0.14518432
2	0x3d92c4d1	0.07166446
3	0xbc29dd14	-0.010367651
4	0xbcf3bcd3	-0.029753124
5	0x3e03ae0b	0.12859361
6	0xbddf31b3	-0.10898151
7	0x3d0e32e4	0.0347165
8	0xbcd6947c	-0.02619385
9	0x3e205cad	0.15660353
10	0xbd7fb7dc	-0.0624312
11	0x3ce0d170	0.027443618
12	0x3dcb14d1	0.0991608
13	0x3e34f66d	0.17672129
14	0x3e01e880	0.12686348
15	0x3bb20ef3	0.005433911
16	0xbc895c76	-0.016767722
17	0x3d87aeb5	0.066251196
18	0x3e59d955	0.21274312
19	0x3d36dbd3	0.044643234
20	0x3e4ac55d	0.1980185
21	0xbdadbf0e	-0.084837064
22	0x3d1ec96e	0.038766317
23	0x3cfd85c9	0.030947583
24	0x3d2a6e7c	0.041609272
25	0x3dd60214	0.10449615
26	0xbdfc91ef	-0.12332522
27	0x3dfe54ad	0.124184944
28	0x3cfab925	0.030605862
29	0x3dcae62e	0.099071845
30	0x3dbe4a76	0.09291546
31	0x3c4f6c0e	0.01266004
32	0x3e2eaf9d	0.17059179
33	0x3d8be0d8	0.06829995
34	0x3c2d5c96	0.010581156
35	0x3dbcba19	0.09215183
36	0xbc6e714d	-0.01455338
37	0x3c604da4	0.013690386
38	0x3d57f1bc	0.05272077
39	0xbcf72f24	-0.030173846
40	0x3d658df0	0.056043565
41	0xbd9730f7	-0.07382386
42	0x3cdb5fa8	0.02677901
43	0x3dbda2cb	0.09259566
44	0x3da834c4	0.08213189
45	0x3e12f085	0.14349563
46	0xbd896e8d	-0.06710539
47	0xbc720836	-0.014772465
48	0x3e4533b7	0.19258009
49	0x3dbd846f	0.09253775
50	0x3e5d9a6d	0.2164094
51	0xbda48e00	-0.08034897
52	0x3e090e3f	0.1338434
53	0x3e51d2ea	0.20490614
54	0x3e2b458b	0.16725747
55	0xbc9cd8cf	-0.019146351
56	0x3d18d970	0.03731674
57	0x3d47479a	0.04865227
58	0x3ddf5ae3	0.10906007
59	0x3e00193a	0.12509623
60	0x3dcae16b	0.09906276
61	0x3cd11479	0.025522457
62	0x3dedd38b	0.11612614
63	0x3cf3cfd7	0.029762192
64	0x3d31652c	0.043309376
65	0x3e0cd642	0.13753608
66	0x3dc5ea0b	0.09663781
67	0xbd180b01	-0.03711987
68	0xbd3dc8bb	-0.04633401
69	0x3c9437c6	0.018093001
70	0xbd584d27	-0.052807953
71	0x3d321c7a	0.04348419
72	0xbd4b6155	-0.04965337
73	0x3dfa5697	0.12223547
74	0x3d98cea3	0.07461288
75	0x3d81de8f	0.06341278
76	0x3dfce485	0.12348274
77	0x3dec628d	0.115422346
78	0x3d836f0c	0.06417665
79	0x3df01c34	0.11724129
80	0x3dcc871d	0.09986708
81	0xbd029bd3	-0.031886887
82	0x3d009680	0.031393528
83	0x3df8204b	0.121155344
84	0x3de27790	0.11057961
85	0x3dde9756	0.10868709
86	0xbcf2d77f	-0.029643772
87	0xbd83c9c6	-0.064349696
88	0xbd41734b	-0.047229093
89	0x3d676ac0	0.05649829
90	0x3d1ab5aa	0.037770905
91	0x3d883799	0.066512294
92	0x3e148c39	0.14506616
93	0xbc41b78f	-0.011823549
94	0x3dead0e4	0.11465624
95	0x3e1ddb46	0.15415677
96	0x3d29b310	0.041430533
97	0x3d99daa8	0.075124085
98	0x3ce9dbb8	0.028547153
99	0x3da70bf7	0.08156579
100	0xbd3ed2f6	-0.046587907
101	0x3e44e479	0.1922778
102	0xbd0d1c60	-0.03445089
103	0x39779d95	0.0002361446
104	0x3e054fa9	0.13018669
105	0xbda7a784	-0.08186248
106	0x3e10ef1f	0.14153717
107	0x3d0767d1	0.03305799
108	0x3da35eb6	0.07977049
109	0xbb58d319	-0.0033084808
110	0x3dc38dda	0.095485404
111	0xbd294d20	-0.041333318
112	0x3dec3b1d	0.115347125
113	0xbd07d7c9	-0.033164773
114	0xbcc5fc60	-0.024168193
115	0x3c8d2ae5	0.017232368
116	0xbc932c94	-0.017965592
117	0xbc2967d3	-0.010339695
118	0x3e31c6ee	0.17361042
119	0xbd5e0af7	-0.054209676
120	0x3d2ac175	0.0416884
121	0xbd8c011e	-0.068361506
122	0x3da11530	0.07865369
123	0xb910fa71	-0.00013826207
124	0x3dcb5b80	0.099295616
125	0x3e196460	0.14979696
126	0x3d72d50e	0.059285216
127	0xbdc9f3d3	-0.09860959
128	0xbccd7ea3	-0.0250848
129	0xbe1b67d4	-0.15176326
130	0x3df5b684	0.11997703
131	0xbc95cf14	-0.01828722
132	0xbbd45dfb	-0.00648093
133	0xbdb25d16	-0.08709161
134	0x3e0d0bf3	0.1377409
135	0x3d85b6c1	0.06528998
136	0xbd4db456	-0.05022081
137	0xbd3a0aa5	-0.045420308
138	0xbd90b83f	-0.07066392
139	0xbde4c700	-0.11170769
140	0x3d0755ea	0.03304092
141	0xbe0506ef	-0.12990926
142	0x3cdc79e2	0.026913587
143	0xbc640366	-0.013916826
144	0x3d90d004	0.07070926
145	0xbd96d753	-0.073652886
146	0x3c8aa607	0.016924871
147	0x3e03106f	0.12799238
148	0xbdc93b22	-0.09825732
149	0x3d8cdfbf	0.06878614
150	0x3dcabf4f	0.098997705
151	0xbdb460e1	-0.08807541
152	0x3d40e14c	0.04708986
153	0x3d774a33	0.060373496
154	0xbda2996f	-0.079394214
155	0x3da32003	0.0796509
156	0x3c1d9a8b	0.009619365
157	0x3d5880b1	0.052857105
158	0xbdc12107	-0.094301276
159	0xbd1145d5	-0.035466988
160	0x3d9d928e	0.07693969
161	0x3cf329d4	0.029683031
162	0xbd83458a	-0.06409748
163	0x3d7003e2	0.058597453
164	0xbc560304	-0.013062242
165	0x3d5255b7	0.051351275
166	0x3e059287	0.13044177
167	0x3cd86472	0.026415084
168	0xbde6517e	-0.11246012
169	0x3daa4560	0.083140135
170	0x3d7a3096	0.06108149
171	0xbb7a6cab	-0.0038211744
172	0x3d483e3c	0.048887476
173	0xbdffe159	-0.124941535
174	0xbde8a1ae	-0.11358963
175	0xbd7ede29	-0.062223587
176	0xbdaff5cd	-0.08591805
177	0x3cc8be29	0.024504738
178	0xbb9408e2	-0.0045176605
179	0xbc5819ec	-0.013189774
180	0xbc9a1623	-0.018809384
181	0x3d1e5799	0.03865776
182	0xbcbc9945	-0.023022303
183	0x3dd73c3d	0.105095364
184	0xbde8ab86	-0.113608405
185	0x3d22ff81	0.03979445
186	0xbd169ca5	-0.03677048
187	0xbd526c71	-0.05137295
188	0x3dced171	0.100985415
189	0xbd4b141e	-0.049579732
190	0xbc3ef279	-0.01165449
191	0xbdb83dea	-0.08996184
192	0x3e56d694	0.20980293
193	0x3b06a8e1	0.0020547437
194	0x3d6e6e27	0.05821052
195	0x3deb3808	0.114852965
196	0x3de0ef2a	0.10983117
197	0x3dcdb33c	0.10043952
198	0xbe06b68d	-0.13155575
199	0x3e5eae3d	0.21746154
200	0x3c72be8b	0.014815937
201	0x3de7f005	0.11325077
202	0xbc8d0ce3	-0.017218059
203	0xbd2095cc	-0.039205357
204	0xbd328a56	-0.04358896
205	0x3d698e4b	0.057020467
206	0x3e1f6be4	0.15568501
207	0x3e167f54	0.1469701
208	0x3c0f4a84	0.008745793
209	0xbd513060	-0.051071525
210	0x3ddb0a8a	0.106953695
211	0x3e0054db	0.1253237
212	0x3e16085e	0.1465163
213	0x3d174417	0.03693017
214	0x3d0e7421	0.034778718
215	0x3d8c635c	0.06854889
216	0x3db32ad0	0.087484
217	0xbcd4f5cb	-0.02599611
218	0x3c7503aa	0.014954487
219	0x3e36cc9b	0.17851488
220	0x3dfb29cb	0.12263831
221	0x3c711d37	0.014716438
222	0x3e1e59f3	0.15464
223	0x3e3068c6	0.17227468
224	0x3df995b4	0.12186757
225	0x3df95e9f	0.12176251
226	0x3d61d233	0.055132102
227	0xbd7b3f84	-0.06133987
228	0x3d9f266e	0.07771002
229	0x3dda91c7	0.10672336
230	0x3e12f229	0.1435019
231	0x3cdb2b09	0.02675392
232	0xbdb9a3d2	-0.09064449
233	0xbcdb7963	-0.02679128
234	0x3d8f20a4	0.069886476
235	0x3c65e579	0.014031761
236	0x3df9e1d6	0.12201278
237	0xbd539354	-0.051654175
238	0x3e16151d	0.14656492
239	0x3e454366	0.19263992
240	0x3ce74fb2	0.028236244
241	0x3e192455	0.14955266
242	0xbd24cd76	-0.040235005
243	0x3d6f217f	0.058381554
244	0x3dc3d1d0	0.09561503
245	0x3dd0ac24	0.10189083
246	0x3d12bd4b	0.035825055
247	0x3d7cfa8e	0.061762385
248	0xbcc72ace	-0.024312403
249	0x3c51924e	0.012791229
250	0x3db2c09e	0.08728145
251	0x3d09c272	0.033632703
252	0x3c1172fe	0.008877514
253	0x3e06bc37	0.13157736
254	0x3ce77b13	0.028256929
255	0x3babca6d	0.005242637

lstm.bias_hh_l0 f4 [256]
0	0x3e038ad6	0.1284593
1	0xbd418c6d	-0.04725306
2	0x3d7ae8d7	0.06125721
3	0x3a2c48d7	0.0006572133
4	0x3d96f0c4	0.07370141
5	0x3c067273	0.008205998
6	0x3d96d013	0.07363906
7	0x3dca66ea	0.098829105
8	0x3bd3ca2b	0.0064633093
9	0x3d9b8710	0.075941205
10	0xbcb60d83	-0.02222324
11	0x3c7cfe76	0.015441528
12	0x3e47da0a	0.19516769
13	0x3d7db37f	0.06193876
14	0xbbce41bc	-0.0062944572
15	0x3dfd1240	0.123569965
16	0xbd8c430d	-0.068487264
17	0xbc581ff5	-0.013191213
18	0x3e1dc03e	0.15405366
19	0x3e24874c	0.16067237
20	0x3db36ac2	0.08760597
21	0xbc7faa6d	-0.0156045975
22	0x3de81085	0.11331276
23	0x3d527bb1	0.051387493
24	0x3d84b39f	0.064795725
25	0x3e4809f9	0.19535054
26	0x3d8e6af5	0.06953994
27	0x3d16c52d	0.036809135
28	0x3e573708	0.21017087
29	0x3e213c5b	0.1574568
30	0x3e19c0e8	0.15014994
31	0x3d7e89d5	0.062143166
32	0x3e1864ff	0.14882277
33	0x3dc99f23	0.09844806
34	0xbd1c13f8	-0.03810498
35	0xbd570b13	-0.052500796
36	0x3e2854f6	0.1643866
37	0x3e72df3d	0.23717971
38	0x3e095827	0.13412534
39	0xbdb491a5	-0.08816842
40	0xbde4f8a2	-0.111802354
41	0xbda644ce	-0.08118592
42	0x3d6d92b1	0.058001224
43	0xbc6bcae3	-0.014391634
44	0x3e1eda3d	0.15512939
45	0xbd97f9ae	-0.074206695
46	0xbbcfdff0	-0.006343834
47	0x3d27f617	0.041006174
48	0x3d8cc379	0.06873221
49	0x3dcc7748	0.099836886
50	0x3d805790	0.06266701
51	0x3cf0d687	0.02939917
52	0xbc4b28d5	-0.012399872
53	0x3de1fbac	0.11034331
54	0xba99155e	-0.0011679342
55	0x3e1e33f0	0.154495
56	0xbdb3e290	-0.08783448
57	0x3e19862b	0.14992587
58	0xbce3aa1d	-0.027791077
59	0xbd06d439	-0.032917235
60	0x3e2c68ee	0.16836902
61	0x3e227eef	0.15868734
62	0xbc0e1087	-0.008670933
63	0x3da45e81	0.08025838
64	0x3dc88452	0.09790863
65	0xbd7bd11f	-0.06147873
66	0x3cdfb26e	0.027306762
67	0x3dd829a0	0.10554814
68	0x3dc924ca	0.0982147
69	0xbd90635e	-0.07050203
70	0x3c7afd6b	0.015319209
71	0x3d9f4b0a	0.077779844
72	0x3e06cd81	0.13164331
73	0x3dee7abc	0.116445035
74	0xbd455258	-0.048174232
75	0x3dabf3e8	0.08396131
76	0x3d9d1ba6	0.07671289
77	0xbd1bb616	-0.038015448
78	0x3b6a9630	0.0035795085
79	0xbcd08b77	-0.025457127
80	0x3ac7ca37	0.001524276
81	0xbc1883b1	-0.009308741
82	0xbcc839fc	-0.024441712
83	0xbce801eb	-0.028321227
84	0x3d0caaf0	0.034342706
85	0x3c70bf74	0.0146940835
86	0x3e09a4d8	0.13441789
87	0xbc4ad497	-0.012379787
88	0x3d69554c	0.05696611
89	0xbce09d46	-0.027418744
90	0xbde262b6	-0.11053984
91	0x3dbbbe50	0.091671586
92	0x3db37eb7	0.08764403
93	0x3d9d11db	0.07669421
94	0xbd0f024e	-0.034914307
95	0x3d8b626a	0.0680588
96	0x3d51684c	0.051124856
97	0x3db6692a	0.08906777
98	0x3e061fbf	0.13098048
99	0x3d668a8e	0.05628448
100	0xbca469a9	-0.020069914
101	0x3d9ca333	0.07648315
102	0x3d869ead	0.06573234
103	0xbd478f5b	-0.0487207
104	0x3dd8b8bb	0.105821095
105	0xbdd9d37c	-0.106360406
106	0x3df81026	0.12112455
107	0x3d2fa05a	0.042877533
108	0xbd2c4007	-0.04205325
109	0xbcbd6c03	-0.023122793
110	0x3e0a95e0	0.13533735
111	0x3d9068a3	0.07051208
112	0xbcd36eb5	-0.025809625
113	0x3e1f06c6	0.15529928
114	0x3dcd7344	0.10031751
115	0x3ba29ddf	0.0049626674
116	0x3dca21e8	0.09869748
117	0x3e4921ce	0.19641802
118	0xbd50584b	-0.050865453
119	0x3dd7ec3c	0.10543105
120	0x3cbfdf5a	0.023421932
121	0x3df55677	0.119793825
122	0x3df098a2	0.117478624
123	0xbb3dbddc	-0.0028952276
124	0x3cb25f6c	0.021774016
125	0x3db9cec0	0.090726376
126	0xbc0e7bff	-0.008696555
127	0x3db49c91	0.08818925
128	0xbd8701e0	-0.065921545
129	0x3db2bb55	0.08727137
130	0x3ddceebc	0.107877225
131	0x3d533154	0.051560715
132	0x3e2579db	0.16159765
133	0xbd3c8d84	-0.046033397
134	0x3cb0658d	0.021532798
135	0x3dbf4d63	0.09340932
136	0xbddb1158	-0.106966674
137	0x3dc00774	0.093764216
138	0xbda3b37d	-0.07993219
139	0xbd5801bf	-0.05273604
140	0xbdd0801a	-0.101806834
141	0x3c941481	0.018076183
142	0xbdee6ed4	-0.116422325
143	0xbdd462cd	-0.10370407
144	0x3dc63d80	0.09679699
145	0xbd8ced84	-0.0688124
146	0x3df124b1	0.117745765
147	0x3de3a21d	0.11114905
148	0x3cca8fb3	0.024726724
149	0x3df9f04d	0.12204037
150	0x3d5ae252	0.053438492
151	0xbdabbe19	-0.083858676
152	0xbd932b8b	-0.071860395
153	0x3cddc276	0.027070265
154	0xbd9a0457	-0.07520359
155	0xbd19d5b0	-0.037557304
156	0xbd3518af	-0.044212993
157	0x3d8bba43	0.06822636
158	0xbe0e0649	-0.13869585
159	0x3d9c3cf5	0.07628814
160	0xbd9481f3	-0.07251348
161	0xbd972721	-0.0738051
162	0xbdb886fb	-0.090101205
163	0xbd249863	-0.04018439
164	0xbd993013	-0.074798726
165	0x3dd10a78	0.10207075
166	0xbde07de0	-0.10961509
167	0x3d92a3af	0.071601264
168	0xbdad9704	-0.084760696
169	0x3dcead9a	0.100917056
170	0xbd18fde0	-0.03735149
171	0x3cf293b0	0.029611439
172	0x3dff0a48	0.12453133
173	0xbd761e88	-0.06008771
174	0xbd949a10	-0.072559476
175	0x3d7c8fe2	0.061660655
176	0x3cd59db6	0.026076179
177	0x3e00d4c5	0.12581165
178	0x3da313f2	0.07962789
179	0x3c8d47b2	0.017246101
180	0x3dd46fb2	0.10372867
181	0xbb216c87	-0.0024631338
182	0x3de3014d	0.110842325
183	0x3c860c79	0.01636337
184	0x3d1d8141	0.038453344
185	0x3dad6c7f	0.084679596
186	0xbd8b16b0	-0.06791437
187	0xbd9d3bae	-0.076773986
188	0x3c695c32	0.0142431725
189	0x3d9935d4	0.0748097
190	0xbde4ee4f	-0.11178266
191	0xbd1ab70d	-0.037772227
192	0x3e39ade7	0.18132745
193	0x3dea0ae3	0.11427858
194	0x3e01f750	0.12691998
195	0x3e05c47b	0.13063233
196	0xbdb1348e	-0.08652602
197	0x3e34e1c2	0.17664245
198	0xbc04b430	-0.008099601
199	0x3e222051	0.1583264
200	0xbc916ac5	-0.017751107
201	0xbcf16b9f	-0.029470263
202	0xbcd853e4	-0.02640719
203	0x3d0b355b	0.03398643
204	0xbc24221f	-0.010017901
205	0x3d9609c1	0.07326079
206	0x3d35e912	0.044411726
207	0x3dd944d0	0.10608828
208	0x3de628b1	0.1123823
209	0x3da67ad5	0.08128897
210	0x3d016f9a	0.031600572
211	0x3ac5ce04	0.0015091305
212	0x3e48c050	0.19604611
213	0xbdb47086	-0.08810525
214	0x3df0fa19	0.11766452
215	0x3e0919f4	0.13388807
216	0x3dbaec54	0.09127107
217	0xbd03781f	-0.03209698
218	0x3d2a4867	0.041572955
219	0x3e4afe2d	0.19823523
220	0x3e6dd081	0.23224069
221	0x3e198ee6	0.14995918
222	0x3e329966	0.1744133
223	0x3e32ac3a	0.17448512
224	0x3da67355	0.081274666
225	0xbd0ab068	-0.03385964
226	0x3cd7df5e	0.026351627
227	0x3e23357b	0.1593837
228	0xbd4d9b4d	-0.050196934
229	0x3dd06de3	0.10177209
230	0xbd9f7be2	-0.07787301
231	0xbdaedf2d	-0.08538661
232	0xbc67233c	-0.014107522
233	0x3ddee609	0.108837195
234	0x3e1c51cd	0.1526558
235	0xbcba8ead	-0.022773111
236	0x3d0d9221	0.034563188
237	0xbd4f08b8	-0.050545424
238	0xbda8979f	-0.082320444
239	0x3d4f4e27	0.05061164
240	0x3dc478a1	0.09593321
241	0x3cf282b1	0.029603334
242	0x3e434b2a	0.19071642
243	0xbdba90e9	-0.09109671
244	0xbb439871	-0.00298455
245	0x3dc1f228	0.09470016
246	0x3d5cd049	0.053909574
247	0x3e20f85d	0.15719743
248	0x3dfcf9e6	0.12352352
249	0x3e0214ec	0.12703294
250	0x3db01d15	0.08599297
251	0xbd5242b0	-0.05133313
252	0x3c1c91c2	0.009556236
253	0x3da3a584	0.07990554
254	0xbc19a45d	-0.009377566
255	0xbd90a118	-0.07061976

lstm.weight_ih_l1 f4 [256, 64]
0	0x3e12b2bd	0.14325996
1	0xbce3c751	-0.027805002
2	0x3b93b616	0.0045077903
3	0x3da73f75	0.081664
4	0xbda697a8	-0.08134395
5	0xbc3efb7c	-0.011656638
6	0xbb7b358a	-0.0038331472
7	0x3c1c0cdd	0.009524551
8	0xbe7154d2	-0.23567513
9	0xbd0fdf32	-0.035124965
10	0xbd00d19e	-0.031449907
11	0xbe05b103	-0.13055806
12	0xbe36d40a	-0.17854324
13	0x3c8e7468	0.017389491
14	0xbdba767d	-0.09104631
15	0x3e35491d	0.17703672
16	0x3e302793	0.17202596
17	0x3da51574	0.080607325
18	0xbdfe3fe6	-0.124145314
19	0xba8588c0	-0.0010187849
20	0xbe039f9d	-0.12853856
21	0x3e0e59c5	0.13901432
22	0xbbde1fd3	-0.006778696
23	0x3d79a626	0.060949467
24	0xbd380c3d	-0.044933546
25	0x3cd211f6	0.02564333
26	0xbe126fe2	-0.14300492
27	0x3e42dbf3	0.19029216
28	0xbdbbf7da	-0.09178133
29	0xbde207b9	-0.11036629
30	0x3c7375c6	0.014859622
31	0x3c131725	0.008977686
32	0x3d54b393	0.051929068
33	0xbe1f1f88	-0.15539372
34	0x3d93c582	0.07215406
35	0x3dc535ff	0.096294396
36	0x3c94b921	0.018154683
37	0x3e4378a7	0.19088994
38	0x3cefacc9	0.029257195
39	0x3e38adde	0.18035075
40	0xbdfe4d6e	-0.12417112
41	0x3dfe841d	0.12427542
42	0x3e2a05d2	0.16603783
43	0x3df67e5c	0.1203582
44	0x3d37d2b0	0.04487866
45	0x3e16f53f	0.14741991
46	0x3d973607	0.07383352
47	0x3dd0a05e	0.101868376
48	0xbe1ea439	-0.15492333
49	0x3e159a6c	0.14609689
50	0xbd72f024	-0.059311047
51	0xbd82b3a1	-0.06381918
52	0xbd87f66e	-0.066387996
53	0xbd4df792	-0.05028493
54	0xbd12828b	-0.035769027
55	0xbdf3c211	-0.119022496
56	0x3d6a76bb	0.057242136
57	0x3da69545	0.0813394
58	0x3ccf0eb5	0.025275568
59	0xbe0ee431	-0.13954236
60	0x3e4089b7	0.18802534
61	0x3dd06a64	0.101765424
62	0xbe0c3b52	-0.13694504
63	0xbdcea7cb	-0.10090598
64	0xbe1730b1	-0.14764668
65	0x3d649709	0.0558081
66	0x3deffd4c	0.117182344
67	0x3cfcd923	0.030865258
68	0x3c8723cb	0.01649656
69	0x3ce0b62f	0.027430622
70	0x3e591868	0.21200716
71	0x3c53ec65	0.012934779
72	0xbe501943	-0.20322137
73	0x3e953b59	0.2914684
74	0xbe4bc2d1	-0.19898535
75	0xbd28303d	-0.04106163
76	0xbdc0200d	-0.09381113
77	0xbd51a6d0	-0.051184475
78	0xbd67e6c3	-0.056616556
79	0x3dcdafb4	0.10043278
80	0x3d7e6064	0.062103644
81	0xbd564360	-0.052310348
82	0xbdc6daea	-0.09709723
83	0x3e13183a	0.1436471
84	0xbd0b33e5	-0.033985037
85	0x3e5ddb75	0.21665747
86	0x3e136065	0.1439224
87	0xbe108857	-0.1411451
88	0x3e1ed631	0.15511395
89	0x3e3f905e	0.18707415
90	0xbd81c108	-0.06335646
91	0xbd8c8463	-0.06861188
92	0x3d737d2f	0.059445556
93	0x3c8b9136	0.017037015
94	0xbd36c6f5	-0.044623334
95	0x3c8e257d	0.01735186
96	0x3d336f11	0.043807093
97	0xbe1d4184	-0.15357023
98	0x3d9d18e4	0.07670763
99	0x3da250e9	0.07925589
100	0x3e12d337	0.14338385
101	0xbda4a675	-0.08039562
102	0xbe55401d	-0.20825239
103	0x3a5f500b	0.0008518702
104	0xbda2ee0e	-0.079555616
105	0x3dab57d2	0.0836636
106	0x3b8a7b81	0.0042261486
107	0x3e0abe69	0.13549198
108	0xbb217317	-0.002463525
109	0x3e4e7338	0.2016114
110	0xbe11b331	-0.14228512
111	0x3d3c7c75	0.04601713
112	0xbe2c3ccc	-0.16820067
113	0x3e1807d7	0.1484674
114	0x3df817f2	0.12113942
115	0x3db12f19	0.08651561
116	0x3d0b993c	0.034081683
117	0xbe55ea1d	-0.20890088
118	0xbd0b142d	-0.033954788
119	0xbe6bec64	-0.23039395
120	0xbd9df5c5	-0.077128924
121	0x3e401919	0.18759574
122	0x3c9de1cb	0.019272706
123	0xbe0698e1	-0.13144256
124	0xbd43a175	-0.0477614
125	0x3d06501d	0.032791246
126	0xbdb7419e	-0.08948062
127	0xbda23f7a	-0.079222634
128	0x3dc9b17f	0.09848308
129	0xbd193844	-0.037407175
130	0x3db247b4	0.087050825
131	0xbe4a2b66	-0.19743118
132	0x3dff8efe	0.124784455
133	0xbdab93b7	-0.08377784
134	0xbc822c02	-0.015890125
135	0x3cf5991c	0.029980235
136	0xbc73408a	-0.01484693
137	0xbd9726fc	-0.073804826
138	0x3d64d89c	0.055870637
139	0x3c1f5184	0.009724025
140	0xbb512b8f	-0.0031916832
141	0xbe184afc	-0.14872354
142	0x3d7b9797	0.061423864
143	0x3d9edd3f	0.07757043
144	0x3e17cbb6	0.14823803
145	0xbc9e2b91	-0.019307883
146	0xbd9255fa	-0.07145305
147	0xbdd003cb	-0.101569735
148	0x3c926576	0.017870646
149	0x3e14b2e0	0.1452136
150	0x3c1eacfe	0.009684799
151	0x3adc8a8b	0.0016825957
152	0x3dd58a46	0.10426764
153	0xbdeae94a	-0.114702776
154	0x3d12a20d	0.035799075
155	0x3d71cd0e	0.059033446
156	0x3db72bcf	0.08943903
157	0xbd332924	-0.043740407
158	0xbe3d0ca3	-0.18461852
159	0xbd288732	-0.041144557
160	0x3e10b229	0.14130463
161	0x3d2259de	0.039636485
162	0xbdfaca56	-0.12245624
163	0x3e002c1c	0.12516826
164	0x3deac7f2	0.11463918
165	0xbd49a7ba	-0.049232222
166	0xbdb52f78	-0.088469446
167	0x3de1fd9a	0.11034699
168	0xbd409c39	-0.047023986
169	0x3e2bbec7	0.16771995
170	0x3d26a627	0.0406858
171	0x3cf5e09f	0.030014334
172	0x3c317d17	0.010833046
173	0x3e83b637	0.25724956
174	0x3c66c1b1	0.014084266
175	0x3d15e308	0.036593467
176	0xbe73a640	-0.23793888
177	0x3ca0ec5a	0.019643951
178	0xbd3ab07d	-0.04557847
179	0x3d1d0744	0.038337007
180	0xbe062514	-0.13100082
181	0xbca094f4	-0.019602276
182	0xbca22b47	-0.019796027
183	0xbd97e928	-0.07417518
184	0x3bbe53c8	0.0058083273
185	0x3e166ca2	0.14689878
186	0xbc94864b	-0.018130442
187	0x3d2f2c60	0.04276693
188	0x3d99cdb8	0.07509941
189	0xbcf92fcf	-0.030418305
190	0xbde9625e	-0.11395715
191	0xbc191801	-0.009344102
192	0x3ddb992d	0.10722575
193	0x3d731f79	0.059356187
194	0x3e532ee5	0.20623358
195	0x3a9f05f2	0.0012132509
196	0x3e239c13	0.15977506
197	0x3d086d44	0.03330733
198	0x3c82f219	0.015984582
199	0x3c81330d	0.015771413
200	0xbe9063fc	-0.28201282
201	0xbc907b8e	-0.01763704
202	0xbdec9c1e	-0.115532145
203	0xbdb45167	-0.08804589
204	0xbd7b3aca	-0.061335362
205	0x3d900f4c	0.07034168
206	0x3d8582ab	0.065190636
207	0x3cf4b902	0.029873375
208	0x3d950692	0.07276644
209	0x3df777fe	0.120834336
210	0xbe0343e8	-0.12818873
211	0xbdb029d8	-0.08601731
212	0xbe5ef817	-0.21774326
213	0xbc64ab2a	-0.013956824
214	0xbe0b6049	-0.13610949
215	0x3d684a1a	0.056711294
216	0x3e43d6ce	0.1912491
217	0xbd965247	-0.07339912
218	0xbc1a118b	-0.009403597
219	0x3dc4a3b2	0.09601535
220	0x3e250aec	0.16117448
221	0xbe51ab83	-0.20475583
222	0xbd457c9c	-0.04821454
223	0xbe283afa	-0.16428748
224	0x3e6aaa8b	0.2291662
225	0xbdc4bb4f	-0.09606039
226	0x3e0359f8	0.12827289
227	0x3d8b156b	0.067911945
228	0x3c58a714	0.013223428
229	0x3cc9fcb8	0.024656639
230	0xbb94a3fb	-0.0045361496
231	0x3c4df94b	0.012571643
232	0xbdf479d3	-0.119372986
233	0xbc8f7541	-0.017511966
234	0xbe36c504	-0.17848593
235	0x3e16507c	0.1467914
236	0xbe124d79	-0.14287366
237	0x3df61d92	0.12017359
238	0xbda7da00	-0.08195877
239	0xbca193fb	-0.019723883
240	0x3c5f006b	0.0136109395
241	0x3bc1e9e2	0.0059177736
242	0x3ce09010	0.027412444
243	0x3d52ecfb	0.051495533
244	0x3cd8b2c9	0.026452439
245	0x3d5f45fc	0.0545101
246	0x3df8b706	0.12144284
247	0xbe19fdfe	-0.15038297
248	0x3cea02cc	0.028565787
249	0x3e169955	0.14706929
250	0xbe264086	-0.16235551
251	0xbd85c9e6	-0.0653265
252	0x3c95b54f	0.018274931
253	0xbd78b6e2	-0.060721286
254	0xbc5f9f77	-0.013648859
255	0xbd074e69	-0.033033762

lstm.weight_hh_l1 f4 [256, 64]
0	0x3dba5d4d	0.09099827
1	0xbe3857bd	-0.1800222
2	0x3e1706a9	0.14748634
3	0x3e06de6c	0.13170785
4	0x3db6d306	0.08926968
5	0xbd261197	-0.04054412
6	0xbd431900	-0.047631264
7	0xbd3b8103	-0.045777332
8	0x3dcea389	0.100897856
9	0xbd70f4ac	-0.058827087
10	0xbc5c3719	-0.013440871
11	0x3de634e6	0.11240558
12	0xbe3cd927	-0.18442212
13	0xbd6a272a	-0.057166256
14	0x3ddca00b	0.10772713
15	0xbcd64a87	-0.026158584
16	0x3cdf8f22	0.02728993
17	0x3ce5f7e4	0.028072305
18	0x3dc7eb9d	0.097617365
19	0xbe01555c	-0.12630218
20	0xbd3e25c5	-0.04642274
21	0x3d5dd765	0.054160494
22	0xbe0ff26d	-0.14057322
23	0xbe248227	-0.16065274
24	0x3cc15e15	0.023604432
25	0xbe156a60	-0.1459136
26	0x3ca54e39	0.020178901
27	0x3d8b17fc	0.06791684
28	0x3d99df4d	0.07513294
29	0xbcb72098	-0.02235441
30	0xbe4c0640	-0.19924259
31	0x3e019de5	0.12657888
32	0xbd75b3c6	-0.0599859
33	0xbddb4bfc	-0.10707852
34	0xbde9933c	-0.11405036
35	0x3c866049	0.016403334
36	0x3e09975a	0.13436642
37	0xbc45e74f	-0.012079074
38	0xbe0f55bb	-0.13997547
39	0xbe217350	-0.15766644
40	0x3e7bb2e6	0.24579963
41	0xbda5b86f	-0.080918185
42	0xbd82d470	-0.063881755
43	0x3d9cd025	0.07656888
44	0xbe097bc3	-0.13426118
45	0xbd4e1a54	-0.050318077
46	0x3dbc77e6	0.09202556
47	0x3da48744	0.08033612
48	0x3d451f45	0.048125524
49	0x3da6d275	0.0814561
50	0x3e2df94c	0.1698963
51	0xbc304658	-0.010758959
52	0xbe275d6a	-0.16344228
53	0x3cb446e6	0.022006463
54	0x3d8afd3a	0.067865804
55	0xbc9a510c	-0.018837474
56	0xbe10d5ae	-0.14144012
57	0x3e31335d	0.1730475
58	0xbe25b2e4	-0.16181523
59	0xbe0a67fe	-0.13516232
60	0x3d4c0c2b	0.04981629
61	0xbdae585f	-0.08512949
62	0xbd62a2ff	-0.055331226
63	0x3df2292d	0.1182426
64	0x3ddd61d8	0.10809678
65	0xbd4233df	-0.04741275
66	0x3d6a993a	0.057275034
67	0x3bb95b26	0.0056566177
68	0x3e02e0a8	0.12781012
69	0xbda6f940	-0.081530094
70	0xbd310760	-0.043219924
71	0x3dad871c	0.08473036
72	0x3e8e1a7b	0.27754578
73	0x3e53a7e1	0.2066951
74	0x3e15e1a8	0.14636862
75	0xbdbe7def	-0.09301364
76	0xbe612107	-0.21985255
77	0xbd8a91d9	-0.067660995
78	0xbe2efd8c	-0.17088908
79	0x3dd9916d	0.10623441
80	0x3d369012	0.04457099
81	0x3e045d65	0.12926252
82	0x3e2ab3e5	0.16670187
83	0x3d462090	0.048370898
84	0x3d97200f	0.073791616
85	0xbdf27213	-0.11838164
86	0x3e085259	0.13312663
87	0xbdf94c0e	-0.121727094
88	0x3e099bc4	0.13438326
89	0x3d3fd5b8	0.046834677
90	0x3e458abb	0.19291203
91	0xbd207579	-0.03917453
92	0x3bfb36f2	0.007666462
93	0x3d75d016	0.0600129
94	0xbdb15cdb	-0.08660289
95	0x3e42e5d9	0.19032992
96	0xbe8132a0	-0.25233936
97	0x3cee3ae3	0.029080814
98	0x3d98087c	0.07423493
99	0xbe1eaccf	-0.15495609
100	0xbdabf835	-0.08396951
101	0x3d963c12	0.07335676
102	0xbce39dd4	-0.02778522
103	0xbdd0d4fc	-0.101968735
104	0x3e7e1925	0.2481428
105	0xbc5638c1	-0.013075055
106	0x3e171bd1	0.14756705
107	0x3e5e40c9	0.21704401
108	0xbd0a06ac	-0.03369777
109	0x3e33a089	0.17541708
110	0xbdabcf36	-0.08389132
111	0x3d57b4f7	0.052662816
112	0x3d0cc41f	0.034366723
113	0x3e16e0d8	0.14734209
114	0x3d18acd2	0.03727419
115	0x3c98d782	0.01865745
116	0xbe0ee5e8	-0.1395489
117	0x3e00a7de	0.12564036
118	0x3e63c88f	0.22244476
119	0xbd3f9c60	-0.04677999
120	0xbd998efe	-0.07497977
121	0xbe29d1cf	-0.16583942
122	0x3af8df19	0.0018987387
123	0xbe433294	-0.19062263
124	0x3d2e5c67	0.04256859
125	0x3e0e65c0	0.13906002
126	0xbdb62e96	-0.08895604
127	0x3dd2d2b7	0.10294097
128	0x3e431d81	0.19054224
129	0xbbba56b3	-0.005686605
130	0x3da01c95	0.078179516
131	0x3e3cb3bb	0.18427937
132	0x3e063350	0.13105512
133	0xbdd8c0ae	-0.10583626
134	0x3e08bbaa	0.13352838
135	0xbe4759ce	-0.19467852
136	0x3d800ea1	0.0625279
137	0x3d9f2e7d	0.07772539
138	0xbc9b0ac0	-0.018926024
139	0xbdf6bd03	-0.1204777
140	0xbdd84e4d	-0.1056181
141	0xbda85ff0	-0.082214236
142	0xbd8f8400	-0.07007599
143	0xbd135b7c	-0.03597592
144	0x3e3396aa	0.17537943
145	0x3d264f23	0.040602814
146	0x3dcb683b	0.0993199
147	0xbd531728	-0.051535755
148	0xbce0b30b	-0.027429124
149	0xbe35e703	-0.17763905
150	0xbe277b0c	-0.16355532
151	0xbd906e4a	-0.07052286
152	0x3d68b9c8	0.0568178
153	0xbe064957	-0.13113914
154	0x3dcb3376	0.09921925
155	0x3d15754e	0.036488824
156	0x3c51c9d0	0.0128044635
157	0xbd7a25a5	-0.061071057
158	0xbd68e682	-0.056860454
159	0xba66263c	-0.0008779501
160	0xbe15a371	-0.14613129
161	0xbd251199	-0.040299986
162	0xbcb7cd37	-0.022436721
163	0xbe1a68d3	-0.1507905
164	0xbd00fe90	-0.03149277
165	0x3db9b8f9	0.09068484
166	0xbe027bf0	-0.12742591
167	0x3db35e1c	0.08758184
168	0x3d380048	0.044922143
169	0x3e285eed	0.16442461
170	0x3e23815d	0.15967317
171	0xbd020ab7	-0.0317485
172	0xbda7aa3c	-0.081867665
173	0xbd07abf8	-0.033122987
174	0x3cd78f10	0.026313335
175	0xbaadab54	-0.0013249912
176	0xbc2f24d6	-0.010689935
177	0x3e21cd0d	0.15800877
178	0x3d62159a	0.055196382
179	0xbe72cfb0	-0.23712039
180	0xbdd080d9	-0.10180826
181	0x3d5397c2	0.0516584
182	0x3e643727	0.22286664
183	0xbd19fc0d	-0.03759389
184	0xbd85b2dc	-0.06528255
185	0x3c562bf2	0.013072001
186	0xbe15ee05	-0.14641578
187	0x3c29c164	0.010361049
188	0xbe47dcbd	-0.19517799
189	0xbd69d4f2	-0.057087846
190	0xbe0b349d	-0.13594289
191	0xbd3c6d53	-0.046002697
192	0x3e5d3279	0.21601285
193	0x3c750167	0.014953948
194	0x3ba7f06b	0.0051250956
195	0x3da3fb4b	0.08006915
196	0x3e11d67c	0.14241976
197	0x3aa47efb	0.001255005
198	0xbe246804	-0.16055304
199	0xbdf456e9	-0.11930639
200	0x3d081e0c	0.03323178
201	0x3c4745da	0.01216265
202	0x3dcac0c1	0.09900046
203	0xbe763014	-0.24041778
204	0xbca3d74b	-0.02000012
205	0xbd224bc4	-0.039623037
206	0xbe489c49	-0.19590868
207	0x3e599385	0.2124768
208	0x3c9e4eac	0.019324623
209	0x3de8e5f9	0.11371989
210	0x3e62ad7c	0.22136492
211	0xba72e589	-0.0009265771
212	0x3e5ef74f	0.21774028
213	0xbcbffdde	-0.023436483
214	0xbe84dd54	-0.2595011
215	0x3c73f26b	0.01488934
216	0xbda167dd	-0.078811385
217	0x3e0799ba	0.13242236
218	0x3da5f81c	0.08103964
219	0xbc2af0a4	-0.01043335
220	0xbdf3e5f7	-0.11909097
221	0x3d99329b	0.07480355
222	0xbd850f2f	-0.06497037
223	0x3d69d6a8	0.057089478
224	0xbcfcef35	-0.030875782
225	0x3d7e8e48	0.06214741
226	0xbd782adb	-0.060587745
227	0xbe57b13d	-0.21063705
228	0x3e388fc5	0.18023594
229	0x3d84fccc	0.0649353
230	0xbd1bf5a8	-0.038076073
231	0xbe4d37fd	-0.20040889
232	0x3e326db6	0.17424664
233	0x3de6f21e	0.11276649
234	0x3d17fc3b	0.03710578
235	0x3e3c1782	0.18368343
236	0x3dc6b7fc	0.09703061
237	0x3e18e005	0.14929207
238	0xbe2c145d	-0.16804643
239	0x3e39ab0c	0.18131655
240	0x3dad5a2f	0.08464467
241	0xbe15b58b	-0.14620034
242	0x3e65555f	0.22395848
243	0x3d4d9b0e	0.0501967
244	0x3dac172d	0.08402858
245	0x3e121556	0.14265952
246	0x3d032913	0.032021593
247	0xbe1a3d33	-0.15062408
248	0x3d619150	0.05507022
249	0xbe150269	-0.145517
250	0xbd07305a	-0.033005096
251	0xbb2ce04d	-0.002637881
252	0xbcd53192	-0.026024614
253	0xbe0edb65	-0.1395088
254	0x3ca4d37c	0.020120375
255	0x3e2bca3d	0.16776367

lstm.bias_ih_l1 f4 [256]
0	0x3df84af8	0.12123674
1	0x3e34170d	0.17586918
2	0xbbb6e155	-0.005581061
3	0x3e641431	0.22273327
4	0x3e120a26	0.14261684
5	0x3e35272b	0.17690723
6	0x3dc75997	0.09733885
7	0xbd0f5e00	-0.035001755
8	0x3e2124ce	0.15736696
9	0x3d84d817	0.06486528
10	0x3e05db3a	0.1307191
11	0x3e132edb	0.14373343
12	0x3d44ff19	0.048094843
13	0x3d9b0184	0.075686485
14	0x3dea2764	0.114332944
15	0x3d98f46e	0.07468496
16	0x3db17549	0.086649485
17	0x3dc78fdf	0.09744238
18	0x3de95c7a	0.11394592
19	0x3e0a9236	0.13532338
20	0xbb485fbb	-0.0030574638
21	0x3b75840c	0.003746274
22	0x3e3f8c3e	0.18705842
23	0x3c6d7a42	0.014494481
24	0x3e3563ce	0.17713854
25	0xbd21227f	-0.03933954
26	0x3dac6289	0.084172316
27	0xbc7ee7c6	-0.015558189
28	0x3dbeba19	0.09312839
29	0xbbb96ffb	-0.005659101
30	0x3d851452	0.064980164
31	0xbc3266b5	-0.010888745
32	0xbd0d13cc	-0.034442708
33	0x3d62491e	0.05524551
34	0xbcac67ab	-0.021045526
35	0xbca4554b	-0.020060202
36	0x3d5ca5ab	0.05386893
37	0x3e0a18b1	0.13485982
38	0x3e34f80c	0.17672747
39	0xb9ec84a7	-0.0004511226
40	0xbc19b96c	-0.009382587
41	0xbbfeb093	-0.007772514
42	0x3e0797b5	0.13241465
43	0x3e60ac7b	0.21940796
44	0x3d6f3186	0.05839684
45	0x3e34d14b	0.17657964
46	0x3e00a8b3	0.12564354
47	0x3d262c75	0.04056974
48	0x3e2d30ed	0.16913195
49	0x3e5d1ed1	0.21593787
50	0xbd1d54e2	-0.03841103
51	0x3e01c622	0.12673238
52	0x3e5d87d3	0.21633844
53	0x3e4e2c43	0.20134072
54	0x3e0c6715	0.13711198
55	0x3e3915f3	0.18074779
56	0x3df8dd22	0.12151553
57	0x3e49d93d	0.19711776
58	0xbd08acea	-0.03336803
59	0x3e34f572	0.17671755
60	0x3e914452	0.28372437
61	0xbcf01dc4	-0.029311068
62	0x3d53add4	0.051679447
63	0xbc999650	-0.018748432
64	0x3debe775	0.11518756
65	0x3d37b8a1	0.04485381
66	0xbb992ad7	-0.0046742964
67	0x3bd5de61	0.006526754
68	0xbd5b75b6	-0.053579055
69	0x3df9f5da	0.122050956
70	0x3dd686bd	0.10474918
71	0x3dac2072	0.08404626
72	0x3d90c051	0.070679314
73	0x3c9dcb3b	0.019261947
74	0xbd8adae5	-0.06780032
75	0x3d000459	0.031254146
76	0x3caff584	0.021479376
77	0x3dc22f9c	0.09481737
78	0xbd1f25e4	-0.038854495
79	0xbd9bf2f4	-0.07614699
80	0x3d4c7254	0.04991372
81	0xbc9f51c1	-0.019448163
82	0xbd2a4878	-0.041573018
83	0xbb4d1f31	-0.003129911
84	0xbd940813	-0.072281025
85	0x3a809f2a	0.000981306
86	0x3e43891e	0.19095275
87	0x3cd46573	0.025927281
88	0xbd311d90	-0.043241084
89	0x3defee22	0.11715342
90	0x3e447855	0.19186528
91	0x3dd048ba	0.101701215
92	0xbcfa220f	-0.030533819
93	0x3da2c25f	0.079472296
94	0xbdc7c64d	-0.0975462
95	0xbd29d6e8	-0.041464716
96	0x3cdef7c6	0.027217757
97	0x3dba1d65	0.09087638
98	0xbc24f138	-0.010067277
99	0x3e1795ce	0.1480324
100	0x3e474f3a	0.19463816
101	0x3dbf22da	0.09332819
102	0x3d85f0bb	0.06540056
103	0xbdc9898d	-0.09840689
104	0xbd085af3	-0.03328986
105	0x3d3ae8cb	0.045632165
106	0x3def469b	0.11683389
107	0x3d7e2a0a	0.06205181
108	0x3d96ba4b	0.07359751
109	0xbd214bee	-0.039379053
110	0x3ddf0769	0.10890085
111	0x3bd3d2c0	0.0064643323
112	0x3d9d9ac4	0.07695535
113	0x3dcad5f4	0.099040896
114	0x3db57ff4	0.08862296
115	0x3b91f2cb	0.004453992
116	0xbc9be7a9	-0.019031363
117	0x3dd66fab	0.10470518
118	0x3e0280c6	0.12744436
119	0x3d667361	0.056262378
120	0x3d1013b7	0.03517505
121	0xbd65a964	-0.056069747
122	0x3d52dd9e	0.051480882
123	0x3e34416f	0.17603086
124	0x3e2986ab	0.16555278
125	0x3e019b56	0.12656912
126	0xbd5d37a4	-0.05400814
127	0x3c6cdb5b	0.014456595
128	0x3da8ee56	0.08248584
129	0x3dada32b	0.084783874
130	0x3d997490	0.07492936
131	0xbb43dc11	-0.0029885808
132	0xbdc5ad17	-0.09652155
133	0xbcaf56cb	-0.02140369
134	0xbdfe19fe	-0.12407301
135	0x3df107f5	0.11769096
136	0x3e072bf4	0.1320036
137	0x3d947c44	0.07250264
138	0xbd05ead2	-0.032694645
139	0x3cb35f8a	0.021896143
140	0xbd0981a1	-0.03357089
141	0x3b15293d	0.0022760176
142	0xbe06fdcb	-0.13182752
143	0x3e000ed2	0.12505654
144	0x3cb0c5d9	0.021578716
145	0x3d4854b2	0.048908897
146	0xbdb6833b	-0.08911749
147	0xbe013782	-0.12618831
148	0x3dc32eda	0.095304206
149	0x3d45f1bd	0.048326243
150	0xbc2cf588	-0.010556586
151	0x3d856703	0.065137886
152	0xbdc97d18	-0.09838313
153	0x3d810e4f	0.06301557
154	0xbc5cf75d	-0.01348671
155	0x3d1f1e0c	0.038847014
156	0xbd92f67d	-0.0717592
157	0x3dcfc3c9	0.10144765
158	0xbdcd3f4e	-0.1002184
159	0x3d4380fa	0.047730424
160	0xbd556d68	-0.05210629
161	0xbdfbb733	-0.12290802
162	0x3d55bbf0	0.052181184
163	0xbbbafadd	-0.0057061748
164	0x3ca9bfcc	0.020721339
165	0xbdf6b4b7	-0.12046187
166	0x3d0e8f59	0.034804676
167	0xbdfe00b3	-0.12402477
168	0x3c431e8c	0.011909138
169	0x3d7eb8fe	0.06218814
170	0x3c34594d	0.011007619
171	0xbc589220	-0.013218433
172	0xbdbf28c2	-0.09333946
173	0x3dd41a85	0.10356621
174	0x3d12e99b	0.035867315
175	0x3dfbd24a	0.12295969
176	0xbdd3f02a	-0.10348542
177	0xbc62013c	-0.01379424
178	0x3d91904d	0.07107601
179	0xbd9490df	-0.072541945
180	0xbd90777c	-0.0705404
181	0xbded96e0	-0.11601043
182	0x3d43e7ad	0.047828365
183	0x3bbe8eb0	0.0058153495
184	0x3c600b3f	0.013674556
185	0x3d9c3f4d	0.07629261
186	0xbda012b6	-0.07816069
187	0xbda989e0	-0.08278251
188	0x3c53daeb	0.012930612
189	0x3cb33770	0.02187702
190	0xbdeb729c	-0.114964694
191	0x3b6d6048	0.0036220718
192	0x3dc1ca08	0.094623625
193	0x3dc61089	0.096711226
194	0xbc166830	-0.009180114
195	0x3d03be0a	0.032163657
196	0x3d8d829e	0.06909679
197	0x3dc8dc94	0.09807697
198	0x3e3f963b	0.18709652
199	0x39946844	0.00028306444
200	0xbd3a6eb7	-0.045515742
201	0x3bc31eb9	0.00595459
202	0xbd48b8ae	-0.04900425
203	0xbcbba1bc	-0.02290427
204	0xbd3fd565	-0.04683437
205	0x3d02ffd5	0.03198226
206	0x3e0f7cc5	0.1401244
207	0x3d7b3c0a	0.061336555
208	0xbb3e68ca	-0.0029054158
209	0x3e38b080	0.1803608
210	0x3e764fe6	0.24053916
211	0x3e0cf620	0.13765764
212	0x3cd07295	0.025445262
213	0x3e26047a	0.16212645
214	0x3dd7cfac	0.10537657
215	0x3e1573fa	0.14595023
216	0xbc7f259c	-0.015572932
217	0xbc3dc953	-0.011583644
218	0x3e4e7a7d	0.20163913
219	0x3e21e6c0	0.1581068
220	0x3ccafd28	0.024778917
221	0xbd857037	-0.06515544
222	0x3e0a5407	0.13508616
223	0x3c257958	0.010099731
224	0x3be28752	0.006913104
225	0x3db81879	0.08989043
226	0xbd8d1f51	-0.06890739
227	0xbcaad36b	-0.020852765
228	0x3d538403	0.051639568
229	0x3c122a03	0.008921149
230	0x3df62600	0.12018967
231	0x3cbbd876	0.022930365
232	0xba45ba0b	-0.0007542676
233	0x3e4c190e	0.19931433
234	0x3e80fef7	0.25194523
235	0x3ce38e33	0.027777767
236	0x3e428711	0.18996836
237	0x3e3b529f	0.18293236
238	0x3dbd9156	0.09256236
239	0x3dd40a73	0.103535555
240	0x3d300a27	0.042978432
241	0x3db1b62a	0.08677323
242	0x3d7bae87	0.06144574
243	0x3dd4335e	0.1036136
244	0x3e074996	0.13211665
245	0x3dac50c8	0.08413845
246	0x3d995821	0.074875124
247	0x3e31ef33	0.17376404
248	0x3d102f90	0.03520161
249	0x3df64462	0.12024762
250	0xbd90cf13	-0.07070746
251	0x3e5991ee	0.21247074
252	0x3e7773f2	0.24165323
253	0x3ccd56ce	0.025065806
254	0x3dec483d	0.11537216
255	0x3dbb3ae4	0.09142092
