models/LSTM_for_best_best_model_16.pth (torch, 707017 bytes, 46 tensors)

lstm.weight_ih_l0 f4 [160, 34]
00000000: cbc7 933d 0469 a23e cbc0 a13e e041 ad3e
00000010: 4140 1fbd 1944 833e 47e5 06be b979 b93d
00000020: 74ee 9d3e 61d1 373f 2392 803e e6f0 f73d
00000030: d19a 7cbd 112a b33e efab 9e3e 29e6 f93d
00000040: 0d1f 5b3e 24cb df3e a5ce cd3c 9e9b 97bd
00000050: e3fa 1f3e 71dc 65bd f436 4d3d 5bc6 b33e
00000060: 4ae3 1a3e f445 203e 6420 183e 8a36 903d
00000070: dda3 4d3e 76aa 7e3e 3e06 1e3d b408 583c
00000080: 66c9 843d f77e 3a3e 15c6 c1bc d371 fabc
00000090: 89ed 513e 8774 e5bc 2db8 93bd 9f78 ac3d
000000a0: a8e8 bb3c 1169 793e 59f7 333d ebcc 823e
000000b0: 4909 453e ba37 a3ba 5e48 8c3e 5fdc af3d
000000c0: 156a 443e e714 07be 7236 843e 4678 583e
000000d0: 84c3 0abe 59ff 2bbd 5ec9 45be 349a 58bd
000000e0: 5194 ab3d 1da9 3ebd 35f4 653e fbea 143e
000000f0: ae0d 2b3e 77d6 7d3d b8fa 4cbd f3b0 283d
00000100: 3944 38be 5c66 b93d 0076 033e 5f0f 04bc
00000110: 8247 bd3d f0b5 213e 61ab ac3e e71c cb3e
00000120: e41e e23c b54b e13e cfeb 433e 18d0 df3e
00000130: e686 ae3d 4a5f 0c3f 581c a63e 3633 c73e
00000140: 7365 cc3d abce 023f 213b 903e c496 bf3e
00000150: 72d7 953d 184d d73d 6733 5d3e d100 543e
00000160: fe63 973e 0c7e 76bd 6f25 a83e 9018 883e
00000170: a4a1 813e 70cd 4d3e 36e6 bc3e adf7 933e
00000180: d1ff bd3e 2a82 b13e 3f88 883e 1937 1b3e
00000190: 215e d83e b54f e33c 8726 163e 2ecf e6bd
000001a0: 4cba 533c cdea f23d ee4c e2bb dd8b 493e
000001b0: 290a 603d 0b12 273e d74b 9b3d 1584 813e
000001c0: e135 093e a309 1e3e 1cb2 633b e048 a83e
000001d0: 934a b13e 1b29 ba3d 77d2 0dbe e698 15bd
000001e0: f71c b73e 86be 2d3e 7451 26bc 6cd2 8b3d
000001f0: 6d43 5d3e d62d 773c 8de2 8f3d d2ac e13d
00000200: 1dc6 653e 4f21 483e a8b4 553d f9c9 e83d
00000210: fc66 2abe 0499 cdbd d8f3 c63d c407 1d3e
00000220: 093b 463e 7a08 e53d c358 a23e ecc5 d73e
00000230: 6505 0cbc 3863 3c3d 8ffe 17bd 9384 ce3d
00000240: eda1 7abe bb7f 993d b074 983d 4e79 003e
00000250: 5eef ca3e 4501 fb3d 8285 753d 804b 8d3e
00000260: e337 c8bd e224 be3c 38dd e23c 4073 273e
00000270: 02b8 83bd eedc 48bc a7e8 b53c 8691 503e
00000280: 974d 263e 2684 9d3e 74bc 353d b8a0 6f3d
00000290: 29ee 0dbd fabf 4c3e ae53 393e 9a51 693e
000002a0: 1d48 9cbe dede c73d 6290 13bb 4456 1f3e
000002b0: 7aef d6bc 30ca 643e fba9 003e 9bb8 853c
000002c0: 11f6 06be b770 a5be 1f6b ab3d 3153 efbd
000002d0: 3c0b 453e a6c2 eb3d 2cd7 183e 34af c1bd
000002e0: 9c5c 3a3d 4174 3a3d 5569 243e db43 fb3c
000002f0: c1b7 743e 6378 3c3e 2f33 113e fcf2 c53e
00000300: f321 22bd 80c8 80bd 2c0c 8c3d bd7d d8bd
00000310: b1e9 113d e82a 1cbe 1132 8e3e a98b f23d
00000320: ffee aabd 7113 253e 18fb da3d e2ee a33c
00000330: 3280 113e fc3c 5c3e 3ab9 0a3d f2da e73d
00000340: 4738 f73d a661 7bbd 6d53 cc3d d38b be3d
00000350: 582c 0abd faad bdbd 6732 813e a65b 633e
00000360: 097c 643c 717d 9f3d 8f84 2e3e 7bbc ce3e
00000370: 1873 1cbe db0c 4dbd da24 adbd c235 7d3e
00000380: 7822 523e 7a5d 45be 09f6 8f3e a86a 083e
00000390: 90e1 c03d c627 723d 6efc fa3d 3d74 003d
000003a0: 2689 ae3e ace1 743e d6c1 373e 07d9 b93d
000003b0: 1e0b fe3d 42cd 7f3e 4018 34bd 3690 e7bc
000003c0: ac62 a73c 5905 cfbd 4f86 7bbd 4333 46bd
000003d0: 6660 bf3d b918 5a3e c618 1b3e 4327 4fbb
000003e0: 3b15 253e 282e f33d d6a3 4bbe fc05 d13e
000003f0: 2e9f b63d f366 753d 69a6 b73e f955 6a3e
0.07215842 0.31720746 0.31592402 0.3383932 -0.038879637 0.25637892 -0.131734 0.0905642
0.30845988 0.7180386 0.25111493 0.121064946 -0.061671082 0.34993032 0.3099055 0.12202103
0.21398564 0.43709671 0.02512295 -0.074027285 0.1562305 -0.056118432 0.050101236 0.3511227
0.15125766 0.15651685 0.14856106 0.070416525 0.2008204 0.24869713 0.03858017 0.013185669
0.06483726 0.18212496 -0.023654023 -0.030571854 0.20500769 -0.028009666 -0.07212863 0.08421444
0.022938088 0.24356486 0.04393706 0.25546965 0.19241823 -0.0012452521 0.27398962 0.08586954
0.19181092 -0.13191567 0.25822788 0.2113963 -0.13551146 -0.041991565 -0.19315097 -0.052881435
0.083778985 -0.046547998 0.22456439 0.14542763 0.16704437 0.061972108 -0.05004379 0.041184377
-0.17994775 0.090527266 0.12837982 -0.008060305 0.09242155 0.1579206 0.33724502 0.39670488
0.02760262 0.44003072 0.19132923 0.4371345 0.085218236 0.548329 0.324435 0.38906258
0.099802874 0.510966 0.28170112 0.37419713 0.073164836 0.10512751 0.2160164 0.20703436
0.29568475 -0.0601788 0.3284106 0.2658124 0.25318635 0.200979 0.36894387 0.288999
0.37109235 0.3466962 0.26666448 0.15157737 0.42259315 0.027747968 0.14663135 -0.11269985
0.012922835 0.11861191 -0.0069061434 0.1968226 0.05469719 0.16315477 0.07582825 0.25296083
0.1339946 0.15433364 0.0034743613 0.328681 0.34627208 0.090898715 -0.13849817 -0.03652277
0.35764286 0.1696721 -0.010151256 0.06827244 0.21607752 0.015086612 0.07025633 0.11019291
0.22438855 0.19543956 0.05217424 0.11366648 -0.16640848 -0.10038951 0.09714478 0.15334994
0.19358458 0.111832574 0.31708345 0.4214319 -0.008546208 0.04599306 -0.037108 0.1008388
-0.24475832 0.07495066 0.074441314 0.12546274 0.39635748 0.122561015 0.059941776 0.27596664
-0.097762845 0.023210946 0.027693376 0.16352558 -0.06431581 -0.012259705 0.022205664 0.20368013
0.16240536 0.30764884 0.044369176 0.058502883 -0.034650955 0.19995108 0.18098328 0.22785035
-0.30523768 0.097593054 -0.0022516479 0.15560251 -0.026237238 0.22342753 0.12564842 0.016323378
-0.13179804 -0.32312557 0.08370041 -0.116857894 0.19242567 0.115117356 0.14925832 -0.094572455
0.045498475 0.045521025 0.16055806 0.030672004 0.23898222 0.18405299 0.14179681 0.38661945
-0.039583158 -0.06288242 0.06838259 -0.10570858 0.035623256 -0.15250742 0.27772573 0.11843044
-0.08346366 0.16120698 0.106924236 0.02001137 0.14209059 0.21507639 0.033868052 0.113210574
0.12071281 -0.06137242 0.0997685 0.09304013 -0.033733696 -0.09261699 0.25233766 0.2220293
0.013945588 0.07787598 0.17042755 0.40378174 -0.1527828 -0.050061088 -0.084542945 0.24727538
0.20520961 -0.1927394 0.28117397 0.13321936 0.09418023 0.059119962 0.122551784 0.031360853
0.3408901 0.23914212 0.17945036 0.09074598 0.12404464 0.24980643 -0.04396844 -0.028267007
0.020432793 -0.10108442 -0.061407384 -0.04838873 0.093445584 0.21298493 0.15146169 -0.0031609095
0.1612138 0.11874038 -0.19886717 0.40824878 0.0891708 0.059912633 0.35869148 0.22884358

lstm.weight_hh_l0 f4 [160, 40]
00000000: d5db a33d 661e 3e3e 6352 26bc cc5f e7bd
00000010: b2c8 083e 536d 823e 096a 473d a4e5 dfbe
00000020: 9494 74bd abf5 82be 86a0 74be bb66 1ebe
00000030: fef0 b33d 584f 21be 7b01 aa3d c7fd 8f3e
00000040: ae8f 8a3e 9b9c 963e 1871 203e 3105 e9bd
00000050: a699 c33d 48e5 86be 8576 233e a860 033e
00000060: 6114 ddbd 3eab e93d d0e5 10bd 22b6 d3bc
00000070: 4632 993d 5329 b23e 194f 14bc 5f64 86be
00000080: 574d 933e eee3 923e 5f86 4f3e 224d 34bc
00000090: e91f 00be bdfb 72bc bcc4 8fba 973a 6bbd
000000a0: 798a ee3d aee7 2b3e 4634 f1bd 66a8 49bd
000000b0: 3494 5ebe a5ff 13be ce84 4ebd 707c b73e
000000c0: e617 7abd 84d3 9bbd 70eb 02bd 7201 483c
000000d0: bd9c 44be 1ea1 993d 5572 493e c8f8 d4be
000000e0: 5eec 663e e717 70be 3b21 033e a246 f63c
000000f0: 7c6f 143e e4ce e43d 16eb de3d 5748 0e3d
00000100: 4edb 17be 3466 8ebd 54cf 33bd 5ef6 b7bd
00000110: cb2c 873d 76ff 25bc a5d5 103a df8b 2cbe
00000120: d987 2e3e 8269 65be 9038 3d3e 7a9e 7cbd
00000130: da95 2cbb 8656 623e 5b68 353e fc45 3bbe
00000140: 3d2b 1fbe 79e4 363e 1e05 8fbe 4459 693e
00000150: a090 debd f134 ab3e db2b 06be 4080 4bbe
00000160: 37f6 8bbe 1842 3d3e eb80 833e b60b bd3d
00000170: e3c9 e9be c009 b33e f11a c23e 87d0 993c
00000180: a30b 3b3d 62c7 b5be ce0e fcbd 90fd 0dbd
00000190: c048 12bc b290 93be a3e0 b5bc b726 2a3e
000001a0: 7b59 453e 1bf9 74be 7889 9fbe d0cc dfbc
000001b0: bd6a d03d f603 8f3e 7184 4b3d 5a72 8bbe
000001c0: 5a73 1dbd 6488 5c3e b25a 863e 4f79 0e3e
000001d0: 7f3c c23d 1f5e 31bd a613 7c3e 413e 8fbd
000001e0: bd4c 8abe 2f2f c6be 1da9 af3e 34f9 82bc
000001f0: 18c3 283e d1cf 6b3b 9b2d 783d f70f b13d
00000200: 1fbb 243e 4157 abbe f943 53be 4469 abbd
00000210: 3fa1 be3d 51fc 16be 9bd2 0a3e 3948 6ebe
00000220: 9a75 033d e4c4 353e e685 883c bd62 b6be
00000230: 99f5 253e 29b3 84bc 25cd a33d ab92 44be
00000240: 69fd 3dbd 484d 9dbe 792b aa3e 6ab3 d3bd
00000250: 31b3 063e a557 093e 8cdc ba3e 4302 253d
00000260: 0a22 913e a688 87bc 8296 dd3d 1eeb 9a3e
00000270: 9cc5 663e ffe2 93be 6432 94bd 94ec 4fbe
00000280: 07e1 f03d 659d 263e 9da5 863d 3939 0cbd
00000290: bd66 cd3d cba7 303f 869c 623e 7d54 b63d
000002a0: fd2d 8fba be8d cd3e 5299 cdbc f22d 5abe
000002b0: 3369 c3bc 284f da3e b6ee 913e fb6a 2abe
000002c0: 5546 6f3e 805d 34be 2073 38bb ecd5 343e
000002d0: a69c 58bc 7ba9 0ebe e586 5abe b901 2abe
000002e0: 3666 6cbe e09d 013e d2e3 02bc a6f1 ca3d
000002f0: 3358 fe3e d24a 17be 1ada f1be f819 f4bd
00000300: 336b 2b3e 3dc0 cbbd e8e1 313d 3061 58be
00000310: da08 233e a930 48be d9d5 24bc 6c29 75bc
00000320: 103e e7be 6a58 b23e f1de 4c3e 93f7 f3be
00000330: 5caa 7abc e6a2 213e 68d6 80bd 9183 0c3d
00000340: 06cd af3a aad2 8b3e 63fe 27be 6127 c5be
00000350: c60a d93d d265 7c3e c37c 84bd 5d43 663d
00000360: dc09 4c3e ab60 4abe 51be 3c3f 32ad e13d
00000370: ac65 bc3d 4adc a93e 029b 48bf 17f2 e13d
00000380: f614 9e3e d6fa 093e 8e31 bdbe 507d 1abe
00000390: fa91 7b3e 1ce9 0ebe 5917 b4be 6a90 be3e
000003a0: b3b0 823e d0bc a73a ff27 d33e b5c7 6fbd
000003b0: e8c0 89be 55f4 febe 6bad a7bd 3f43 36be
000003c0: 453b 223f 36ac 1a3e 807f 69be ca80 013f
000003d0: 7362 28be 58ad 79bd 7973 aa3e 6e95 c7bc
000003e0: 3523 6cbd 282f 893d 220b e8bd d02d 9b3e
000003f0: a63d 0bbe 84c5 e4be 8edd 9bbe 01be 123e
0.08000914 0.18566284 -0.010151478 -0.11297569 0.13357809 0.25474033 0.048685107 -0.4372989
-0.059712008 -0.25578055 -0.2388936 -0.15468876 0.087862 -0.15752923 0.083010636 0.28123304
0.27062744 0.29416355 0.15668142 -0.11377943 0.095507905 -0.26346803 0.1596318 0.1282984
-0.107949026 0.11409615 -0.035375416 -0.025843684 0.07480292 0.34797153 -0.0090520615 -0.26248452
0.28769943 0.28689522 0.20266102 -0.011004718 -0.12512173 -0.014830527 -0.0010968666 -0.057428923
0.11647505 0.16787598 -0.117775485 -0.049232863 -0.21736223 -0.1445299 -0.05041962 0.35837126
-0.061057948 -0.07608703 -0.031962812 0.012207376 -0.19200416 0.07501434 0.1967252 -0.41596055
0.22551104 -0.23446618 0.12805645 0.030062977 0.14495653 0.11172274 0.10884683 0.034736957
-0.14829752 -0.069530874 -0.043898895 -0.08982538 0.066003405 -0.010131707 0.00055249996 -0.16850232
0.1704401 -0.2240353 0.18478608 -0.061674573 -0.0026334436 0.22103319 0.1771559 -0.18288416
-0.15543838 0.17860593 -0.27933592 0.22787958 -0.10867429 0.3343883 -0.13102667 -0.19873142
-0.27336285 0.18482244 0.25684294 0.09230749 -0.4566184 0.34968376 0.3791118 0.018776191
0.045665395 -0.3550368 -0.12307511 -0.034665644 -0.008928478 -0.2882133 -0.022201842 0.16616331
0.19272415 -0.23923151 -0.31159568 -0.027319342 0.10176609 0.2793271 0.049686853 -0.2723568
-0.038440086 0.21536404 0.2624107 0.13913463 0.09484195 -0.04330265 0.2461687 -0.06994296
-0.27011672 -0.38707873 0.3430871 -0.01598797 0.16480672 0.0035982023 0.060590368 0.08645623
0.16087006 -0.33465007 -0.20631398 -0.08369687 0.09308099 -0.14744689 0.13556902 -0.23269738
0.032094575 0.17750889 0.01666541 -0.35622206 0.1620697 -0.016198711 0.079981126 -0.19196574
-0.04638425 -0.30723023 0.33236292 -0.10336955 0.13154294 0.1341234 0.3649639 0.04028536
0.28346282 -0.016544651 0.10819723 0.30257505 0.2253632 -0.28884122 -0.07236174 -0.20305091
0.117616706 0.16270979 0.06574557 -0.03423426 0.100293614 0.6900603 0.22130021 0.089028336
-0.001092374 0.40147203 -0.025097523 -0.21306589 -0.023853874 0.42638516 0.28502434 -0.16642372
0.23366673 -0.17613792 -0.0028144792 0.1765973 -0.013220942 -0.13931839 -0.2134052 -0.1660222
-0.23085865 0.12657881 -0.007988887 0.09909372 0.49676666 -0.14774635 -0.4723671 -0.11919016
0.16740112 -0.09948776 0.04342833 -0.21130824 0.15921345 -0.19549812 -0.010060751 -0.014963489
-0.45164537 0.3483308 0.2000692 -0.47649822 -0.015299406 0.15784797 -0.06290895 0.03430516
0.0013412542 0.2730916 -0.16405635 -0.38506606 0.10597758 0.24648216 -0.06469109 0.056216586
0.19925636 -0.19763438 0.737279 0.110193625 0.0919908 0.3317588 -0.78361523 0.11032503
0.30875367 0.13474593 -0.3695187 -0.15086865 0.24567404 -0.13956112 -0.35174063 0.37219554
0.25525436 0.0012797359 0.41241452 -0.058540065 -0.26904988 -0.49795786 -0.08187374 -0.1779909
0.6337169 0.15104756 -0.22802544 0.5058714 -0.16443805 -0.06095633 0.33291224 -0.024363246
-0.057650764 0.066984475 -0.113302484 0.3030839 -0.13597736 -0.44681942 -0.3044247 0.14330293

lstm.bias_ih_l0 f4 [160]
00000000: 1cc8 3c3d 3180 b1bc 6527 b53e 6dad f83d
00000010: 071c 343d 5379 573e d5f2 253d 379c 073e
00000020: 0dc6 3dbc 03f4 74bc 9c49 9c3c 1b58 fe3d
00000030: 6835 ff3d e3eb 2c3e d305 fb3d eec5 a93e
00000040: 90ab 2b3e 24f9 d03d 64aa 8e3d cbce 203e
00000050: 9826 91bc 53d0 263e 8e97 f43d ccd5 bc3e
00000060: 58c3 1f3d 7fde 273e b538 923d 38c5 c6bd
00000070: 8483 353d bba8 483c 4003 143e 4187 253e
00000080: 53f6 543e 93e6 d93d 5d58 0b3e 9791 b03d
00000090: 567a 8c3d f655 2e3e d5a7 363e 6ebe 8f3e
000000a0: d2c4 40bd 89d7 d43d 1241 dcbd c929 86bd
000000b0: 5311 173d 1cc9 e3bd 0134 ac3d 3b59 233e
000000c0: 0e70 4b3e 3a76 0b3e 026f 23bd 192b cebc
000000d0: d206 223e 3356 cdbd 85ff 99bd 6c5c 883d
000000e0: 3478 643d 1278 a63d e554 0a3e b0be 173e
000000f0: 27e6 97bd 11ee dcbd 2b05 9ebd e8cb 143e
00000100: 642d 823d 9944 c53c 170b 6abc 4642 903c
00000110: 79fb dd3d 661b 8b3c 1899 dbbc 6f3f 523d
00000120: 8d5f 373e 2088 50bd be26 c83d a342 1abe
00000130: 3914 293e 75f1 fbbd 435f c8bd ad04 3dbc
00000140: 68a2 f5bd f59c 89bd 8cb6 8cbd 0004 c6bd
00000150: 9dd6 11bd 729b 4d3c 1c4a 31be b5b6 17be
00000160: e1e0 95bd 8bd9 3c3d bc73 a23d f4c5 20be
00000170: f052 b1bd 963c c4bb 5339 72bc 61d6 8dbd
00000180: 56d6 b9bb 8715 e23d d888 0f3e 8552 bdbd
00000190: 3fdb bbbc baf2 883d 4ff2 2fbd b059 e13c
000001a0: 810a fa3d c06f 03bd db5f cabd eeb2 c03b
000001b0: 09ea 16bc b0f8 a2bd df0d acbd 6eb3 34ba
000001c0: 473f d53d 6c3f 8b3d 3113 8cbc 93a3 eb3c
000001d0: c04a fabd 5651 edbd 76f9 d43d ef66 d4bd
000001e0: c432 3f3e a0ba 573e eecb 373e 5bdb 113e
000001f0: e858 893d 6fc3 a13d 4207 463d 2947 7abd
00000200: 716d 473e 690f 893e 767a d5bc 4f7f 4e3c
00000210: af7d a9bd f44f a3bc 0d2a 8f3d b5c2 443e
00000220: 4a9b 443e 7126 ad3d 6049 013e 37f2 483e
00000230: cf9d a3bd cb3e f23d db63 853e 7e94 8a3e
00000240: 61ec 453e 44d1 a43d 1d00 923e 10cc bd3d
00000250: f857 623d ad66 133d 84c3 563d 71ad a1b9
00000260: 3347 803e 245b 283e f625 1c3e 752b 8f3d
00000270: 7070 c93d 7f75 5fbc 0c8d 973c 0b0d 463e
0.046089277 -0.021667572 0.35381618 0.12142453 0.04397204 0.21042375 0.040514786 0.13243185
-0.0115828635 -0.014950755 0.019078068 0.124191485 0.12461358 0.16886859 0.1225697 0.3315882
0.16764665 0.1020377 0.06966093 0.15703885 -0.017718598 0.16290407 0.11942969 0.36881864
0.039004654 0.1639347 0.07139722 -0.09705585 0.044314876 0.01224726 0.14454365 0.16164877
0.2079709 0.10639682 0.13607927 0.08621519 0.06859271 0.17024979 0.1783746 0.28074974
-0.047062702 0.103926726 -0.10754599 -0.06550939 0.036881756 -0.11122343 0.084083565 0.15952007
0.19866964 0.13619319 -0.039900787 -0.025167035 0.15822914 -0.10026207 -0.075194396 0.06658253
0.055778697 0.0812837 0.13508947 0.14818835 -0.07416945 -0.10787595 -0.077158295 0.14530909
0.06356314 0.024080561 -0.014284871 0.017609727 0.1083898 0.016980838 -0.0268064 0.051330026
0.17907543 -0.05091107 0.097730145 -0.15064482 0.1651162 -0.12301914 -0.09783795 -0.011536759
-0.11993867 -0.0671939 -0.068707556 -0.09668732 -0.03560506 0.012549268 -0.17313427 -0.14815791
-0.07318283 0.046105903 0.07932231 -0.15700513 -0.08658397 -0.0059886677 -0.014784175 -0.06925655
-0.005671303 0.11039262 0.14017045 -0.09244255 -0.022931693 0.066869214 -0.042955693 0.027508587
0.12209035 -0.032088995 -0.09881564 0.005880705 -0.009211072 -0.079575896 -0.08401083 -0.0006893192
0.1041246 0.06799206 -0.017098995 0.028764522 -0.12221289 -0.11587779 0.103991434 -0.103711955
0.1867171 0.21067286 0.17948887 0.14243834 0.06706411 0.07898604 0.048346765 -0.06110302
0.19475342 0.2676957 -0.02605937 0.012603595 -0.08275925 -0.019935586 0.069904424 0.192149
0.19199863 0.08454598 0.12625647 0.19623648 -0.07989084 0.11828383 0.26052746 0.27066416
0.19328453 0.08047727 0.2851571 0.092674375 0.055259675 0.03598659 0.052432552 -0.00030837537
0.2505432 0.16441017 0.15248856 0.06990711 0.09835899 -0.013638853 0.018499874 0.19340913

lstm.bias_hh_l0 f4 [160]
00000000: 56a5 0abd 2654 9d3d 63a2 a93e 6694 643e
00000010: a993 513e 0b77 403e f19f 733d fe92 3f3e
00000020: 43a0 babc daa2 f3bb 02b3 3e3e a72e 2a3e
00000030: c358 cd3a e928 493e 1990 10bd c2d5 b13d
00000040: 17f6 363e 4a65 393e 26bd 8dbc cc7c 283d
00000050: a696 403c 0225 0fbb 437d 36bc 2798 a13e
00000060: 02c6 343e 98d7 933d 4ce3 153e 12b9 69bd
00000070: 1975 763e c725 c6bb 3e67 843c 30bc 0b3e
00000080: 7932 bc3d 0428 063e 5ca6 5c3e 5f0f cc3c
00000090: 02f1 3b3d 47bd 453e 42c5 ad3d 3e95 ad3d
000000a0: c57a c3bd 79e9 d03d c91b f7bd b338 4f3d
000000b0: 437f 843d c423 f93d 8d95 2ebd 0754 ee3d
000000c0: c6b6 d3bd aa2b d5bd d653 e13b 5cff 46bd
000000d0: 9b8a 0fbe 3839 7a3d 2b2a 3f3d 6d15 bf3d
000000e0: fd41 2a3c c0ff 903d a0bd a2bd 6c87 393d
000000f0: 4e0d 513d d4a1 f4bc a3b9 b73d f36d 193e
00000100: a52a 4abc 3a24 523e 875c 583d 3d3f 9fbd
00000110: 0ce6 e93d b6a5 953c f7ba b9bd ca6a 953d
00000120: 2442 333d 3b34 253e aba6 173d 424c b1bd
00000130: 6350 203e aa58 773b 40dd ed3d 071d 6c3e
00000140: e8d9 943b 7ebc 8ebd 5101 c53d 7858 10be
00000150: ffd3 aa3d beed 4cbc 3234 aabc 49d9 01bd
00000160: 6929 f63d dbcd fa3d 30ce 8e3d a2ae 5c3d
00000170: 7188 38bd 35f6 04be c03c e83b 51f3 b2bb
00000180: f1f0 e53d 8a26 f53d 199d 063d 95d8 19bd
00000190: 838b 993d 274c cebd 38b4 16bb 6664 79bd
000001a0: f199 abbd ebb2 b0bd a2d6 fe3d 8e3a 17bd
000001b0: 3cbc 073a 1740 883d 8de6 a4bc ab92 48bd
000001c0: 80bf 4cbd 2f2b a0bd 7425 2d3c 1c9f 5b3d
000001d0: bc45 93bd d5d4 90bd f4c6 84bd c059 9d3b
000001e0: 0294 6cbd 2a63 973c 1583 543e a95c 25bb
000001f0: 0ca8 a43d 6201 e73d b71a 083d 26fd 513e
00000200: a761 7e3e 2fe6 113e 7aae cebc 38bd 563e
00000210: a49b 8a3d 5387 0d3e a562 cdbc 69ec 203d
00000220: ae66 de3d 9197 96bd beb4 f43d c481 87bc
00000230: 7717 fc3d 57d4 583e 1da1 eb3d 6f58 8a3e
00000240: d032 513d a574 c13c ca30 bd3d a613 f3bc
00000250: 600c ea3d 8f54 803e 0fb3 023e f451 97bd
00000260: 6b62 803e 1cc1 893e 953d 693d 6d41 14be
00000270: 2a92 333e 6570 803d d738 43bd 3ee8 0c3e
-0.033849083 0.07682066 0.33131704 0.22322235 0.20466484 0.18795411 0.059478704 0.18708417
-0.022781497 -0.007435185 0.18622974 0.16619359 0.0015666712 0.19644512 -0.035293672 0.08683349
0.17867313 0.18105045 -0.017302107 0.04113464 0.011754667 -0.0021842127 -0.011138263 0.31561396
0.17653659 0.072188556 0.14637488 -0.057061262 0.24068107 -0.006046984 0.016162511 0.13646007
0.091893144 0.13101202 0.21547836 0.024909673 0.04588414 0.19310485 0.084848896 0.08475731
-0.09544901 0.102007814 -0.120658465 0.050591182 0.06469586 0.12165025 -0.04262309 0.11637121
-0.10337596 -0.10408719 0.006876449 -0.048583373 -0.14017718 0.061089724 0.046671074 0.093302585
0.010391709 0.070800304 -0.07946324 0.045295164 0.05103808 -0.029862322 0.08970954 0.14983349
-0.012339269 0.20521632 0.052822616 -0.077757336 0.11420831 0.018267494 -0.09068864 0.07295759
0.04376425 0.16133206 0.03702418 -0.08657123 0.15655665 0.0037742057 0.11614466 0.23057948
0.004542578 -0.06969546 0.09619392 -0.14096248 0.08341216 -0.012507854 -0.020776842 -0.03170136
0.12019617 0.12246295 0.06972921 0.05387748 -0.045051996 -0.12984546 0.00708732 -0.0054611345
0.112275966 0.11970241 0.032864664 -0.037560064 0.07497313 -0.10073119 -0.0022995602 -0.060886763
-0.08378971 -0.08627876 0.12443282 -0.036921076 0.00051778904 0.06652849 -0.020129466 -0.048968
-0.049987316 -0.078207366 0.010568012 0.053618535 -0.07191035 -0.070718445 -0.0648326 0.004801959
-0.05775834 0.018479902 0.20753129 -0.0025232232 0.08039865 0.112795606 0.033228602 0.20506725
0.24841939 0.14247964 -0.025229681 0.20970619 0.06767967 0.13821153 -0.025071451 0.03928796
0.10859428 -0.07353128 0.11948536 -0.01654137 0.12309163 0.21174751 0.11505339 0.27020594
0.05107385 0.02361519 0.092378214 -0.029672455 0.114281416 0.25064513 0.12763618 -0.07388678
0.25075087 0.26905143 0.056943495 -0.14478083 0.17536226 0.062714376 -0.04766163 0.13760468

lstm.weight_ih_l1 f4 [160, 40]
00000000: 4f3a f13b 330f 2e3e dd52 9d3d 94bf 6cbe
00000010: ea7b e03d f281 573e 32fb 5d3f ffe6 dfbe
00000020: 66d3 503b 0e46 493e 51c4 7b3e f5c7 8bbe
00000030: e391 25be 2d62 013e ab35 763e 18a3 983e
00000040: a1b6 4bbf cb06 2f3e 5a56 51be 1408 ed3c
00000050: 1715 193d 44d4 d03e 075d 18bf 05fb 513e
00000060: 7358 3b3e 6374 063e 1ca7 2b3e e7c8 06bd
00000070: b578 153e 828e 323e 57bd 50be 128d e63e
00000080: 1cfc 6e3e 7120 1e3e b623 9b3d a520 843d
00000090: 6aad 2f3e e879 f5be e749 eabc 8cfe 0f3d
000000a0: 389a e03d eec3 bcbd 29dc 55be 411f e83e
000000b0: 7c51 e93d e3ca 863e c0a6 983e 4527 0d3f
000000c0: d1a0 903d 7c41 9bbe 360f ca3e b013 62bd
000000d0: c68d c5be 2957 953e 2302 243f 8e1f 3dbe
000000e0: 4dbf 873e d2be 81bd 2ab8 143f 64d0 98be
000000f0: 925f 393d 3dc4 873d 2840 8d3e abb7 793e
00000100: c625 c23e eddf 46bd 4516 30be e0f0 0c3f
00000110: 5d4f 213e 98af 24be b676 cdbd dc7f 22bc
00000120: ab9d c7bd 9d10 5bbd 9d69 4dbe eb9e c13e
00000130: d377 9dbd 8a8f 8cbe 95dc d43e 5654 863e
00000140: 0772 8cbd c1c8 6dbe 7675 bfbd bf6c bb3b
00000150: dec0 7cbd 940a c13e 3c11 7fbe 8ccf f23d
00000160: 25d7 b23d bd9e 503e 7fee c3bd be34 82bd
00000170: d268 1b3c d8db d63d 7ce5 063e 14b0 f33e
00000180: 5eff 2c3d 1378 91be 8854 b33e 2614 82bd
00000190: 61e1 613e b339 0a3e 1f36 0ebf 54cb 83bc
000001a0: 35ca eebe 5859 833d 1bf3 f5bd 8246 e7bd
000001b0: 47b6 4a3d 2c91 af3e cba0 37be 40da 913e
000001c0: 1fe4 e4bc 604a 54bc 640b 82be d92a f93d
000001d0: 7b15 323e 9016 5cbe d67c 753e 350d e7bd
000001e0: 2898 c7bd eb43 a53e 3995 58be 5e8b debd
000001f0: 052d 9b3e 19db b83d 1d84 593e 5063 a63e
00000200: afba 8fbe 0132 a93d 09c3 18bd 9325 1dbc
00000210: cd32 4c3e 3eab 6b3e c8dc 863e 18b6 f03d
00000220: 4d34 903d b6a6 c83d c9be 8d3e 8ab6 19be
00000230: 2b92 283e 0115 423e dad6 a73e ca82 da3d
00000240: 91e4 7cbe 2340 18bc be5b db3d 779f 7d3c
00000250: 2be6 593e dbb2 703d dfa0 fb3d 4289 5dbe
00000260: b83a aabd 3f1b 8b3d 6087 02bf 4bf2 623e
00000270: 431e 6e3e f2ae 0dbe f77c b03e 6d39 923e
00000280: e332 2d3e 3749 c03d de42 c8bd 8ce5 1d3e
00000290: 3882 b0bd 3527 40be b186 d63e 941c a13e
000002a0: d897 bbbe 2d29 9fbd 2fa0 c23d 0398 07be
000002b0: 0746 053d f64d f4bd c527 163f 0396 7b3e
000002c0: e62e a1be 11c5 28be 6931 17bc 44a5 8fbe
000002d0: 4c7c 82be 4309 00be c306 ab3e a496 473e
000002e0: 4ed5 32bf c169 8fbd 18d0 eebd bac0 073d
000002f0: 40c8 bd3e 72f8 9abe 0c3d 2abe e5d2 53be
00000300: 4f60 efbd a300 dc3d 852b 13be 512c 153e
00000310: 34e0 f23d 9524 563e 15b3 c63e 084a 993d
00000320: d384 163d 0350 adbe ffdc 8a3e a506 cfbd
00000330: 16c8 4a3e 1970 e63d 13f7 8d3d f7e4 bfbd
00000340: f500 813e 8091 8ebb e6bf 023b cbe5 e4be
00000350: cd3b 493d f2d4 ed3d 7b14 f43e 4a4f cd3e
00000360: a534 c53d c32e 47be 6903 6b3e c703 b83d
00000370: eaaa d33d 061a 643e 9b94 90be 1e9c 5ebd
00000380: 4ce4 b63e 8b85 3abe 638b 84bd 4f9e e7bd
00000390: d3d8 1f3d 59cf e73d c819 24bf cdb9 683e
000003a0: e636 83bd 765e 15be 9c66 423d 4c90 2b3e
000003b0: 520a 41bd a008 1bbe c961 943d 811d ce3d
000003c0: cdc9 d13a cfce de3c 0bb7 a63e c86d 673e
000003d0: 3227 2abe 0aeb 233f 977f b3bd afc1 96be
000003e0: aeb7 9bbd e3eb 17bd 3321 c9bd 5983 2fbe
000003f0: fe0b 8a3e c575 233e 6616 5cbe 4e52 c63e
0.0073616873 0.16997986 0.076818205 -0.23119956 0.10961135 0.21045664 0.8671142 -0.43730924
0.0031864285 0.1965563 0.24586608 -0.27300993 -0.16168933 0.12635107 0.2404391 0.2981193
-0.79575545 0.17092435 -0.20443097 0.028934516 0.03737363 0.40786946 -0.5951695 0.20505913
0.1829546 0.13130336 0.16762966 -0.03290644 0.14596827 0.17437175 -0.20384727 0.45029503
0.2333836 0.15442063 0.07575171 0.06451539 0.17155996 -0.4794457 -0.028599693 0.035154864
0.10966915 -0.09217058 -0.20884766 0.45336345 0.11392495 0.26326665 0.2981472 0.55138046
0.07061923 -0.30323398 0.3946473 -0.055194557 -0.38584727 0.2916806 0.6406576 -0.18469068
0.26513138 -0.06335224 0.5809351 -0.2984649 0.04525716 0.06629226 0.2758801 0.2438647
0.37919444 -0.048553396 -0.17195995 0.55055046 0.15752931 -0.16082609 -0.10032408 -0.009918179
-0.0974687 -0.05348264 -0.2005982 0.37816557 -0.0768887 -0.27453262 0.4157454 0.26236218
-0.068576865 -0.23221113 -0.09348576 0.0057197507 -0.06170737 0.37703383 -0.24908918 0.11855993
0.08732442 0.20373054 -0.09566974 -0.06357716 0.00948544 0.104911506 0.13173479 0.47595274
0.042235725 -0.28411922 0.3502543 -0.06351499 0.22058631 0.13498573 -0.5555133 -0.016088165
-0.46638647 0.06413525 -0.12009259 -0.11292745 0.04949024 0.34290445 -0.17932431 0.28486824
-0.027940808 -0.0129571855 -0.25399315 0.12166376 0.17391007 -0.21492982 0.23973402 -0.11281816
-0.097458184 0.3227838 -0.21150674 -0.10866426 0.30307785 0.090261646 0.21241803 0.32497644
-0.28072116 0.082614906 -0.037295375 -0.009591478 0.19941254 0.23014542 0.26340318 0.117534816
0.070412256 0.097974226 0.2768462 -0.1501104 0.16462009 0.18953325 0.32781106 0.10669477
-0.24696566 -0.009292635 0.10710858 0.015479914 0.21279208 0.05876432 0.12286543 -0.21634391
-0.08311981 0.06792306 -0.50987816 0.2216274 0.23253731 -0.13836268 0.3447034 0.28559437
0.16913943 0.093889646 -0.09778379 0.15419596 -0.08618587 -0.18764956 0.41899636 0.31467116
-0.36639285 -0.077715255 0.09503209 -0.13241582 0.032537486 -0.11928932 0.58654433 0.24568944
-0.31481093 -0.16481425 -0.009228089 -0.28055775 -0.25485456 -0.12503533 0.33403596 0.19491059
-0.6985673 -0.07002593 -0.116607845 0.033142783 0.3706684 -0.30267674 -0.1662485 -0.20685919
-0.11688291 0.10742309 -0.1437207 0.14567687 0.118591696 0.20912392 0.38808504 0.074848235
0.036747765 -0.33850107 0.27121732 -0.10108689 0.19802889 0.1125185 0.06931891 -0.093698435
0.25196043 -0.004350841 0.0019950806 -0.44706568 0.049129296 0.11612882 0.47671875 0.40099555
0.09629182 -0.19451432 0.2295052 0.089850955 0.10335334 0.22275552 -0.28238377 -0.054348104
0.35721052 -0.18215005 -0.064718984 -0.11309492 0.03902514 0.11318845 -0.6410184 0.22727127
-0.064069554 -0.14586815 0.047461137 0.16754264 -0.047128983 -0.15140009 0.072452135 0.10064221
0.0016005576 0.027198223 0.32561526 0.22600472 -0.16616514 0.64030516 -0.0876457 -0.29444644
-0.076033935 -0.037090193 -0.098207854 -0.17139949 0.26962274 0.15962894 -0.2149292 0.38734668

lstm.weight_hh_l1 f4 [160, 40]
00000000: de66 77be 1a5d d5be 6a09 d7bd 769c b0be
00000010: 4ce3 433e c449 b7bd 407f 01be e371 9b3d
00000020: 149c 0bbf 6506 06be 69ef 9dbe 800a 8cbe
00000030: 7137 babd 0169 0cbe ecbc 9c3e 28ed b6be
00000040: 23b8 923d aef2 01be ee5b 8fbd 2783 943e
00000050: 5a36 043d 9152 17bd 017c afbe 7090 403d
00000060: 6bf8 03bd 7ef9 6c3e 4410 5abe 4cff 593e
00000070: 9221 a93e 9854 c53e 8d74 f03e bd26 98bd
00000080: 67e7 1fbd 4ffa 8fbc dce0 b5bd 205e 493e
00000090: 2cfc de3e 88e8 e1bd ce73 743e 4aec e0bd
000000a0: c18a 61bd 1506 46be 9346 a13e 920c 66bf
000000b0: 8c41 1bbe 0bf9 273e 26f8 86bb 122c 70be
000000c0: 50eb 37bf d649 823e e637 fd3e f930 8cbe
000000d0: 6c6f a63e 7206 8ebd d526 663f a66b d2bd
000000e0: 8c74 23bd 7bd3 afba dad8 f93e 6e82 dd3d
000000f0: 0b85 2dbc 86bd b13e a74e e03e 64d1 c23e
00000100: ef45 cabc e470 6bbd 8c8a be3e ebae a93d
00000110: f651 1d3e 4192 a13d 4571 1a3e 611a a7be
00000120: 4c64 f0bd 53c4 2ebe 7284 c93c 464a 023d
00000130: 04e6 b43e 56ef a13d 98bf 5abe f13f 78bd
00000140: 1cde 303e 5884 26be 76f3 a8bd 1f49 ad3d
00000150: 317a 1e3e f9d1 d73b bf26 d33e 1282 bf3d
00000160: 5548 00bd ffa9 a23e 4f8e 60bd a5dd ca3d
00000170: e07f 5a3e bc6c 083e 7119 81be 8962 4bbe
00000180: 735e 36be 64f0 3abc 16e3 56bd 5272 7c3e
00000190: 1cff eabd e455 9f3d e8c0 91bd 56fd 61bd
000001a0: 9a45 2c3e 65a3 abbd 865d 503e ba25 63bc
000001b0: 5aa7 e0bb 328e 2b3d ba8b 2c3d 16b8 acbe
000001c0: ebe4 96bd 5d84 8b3d 911e 99be 3e83 71be
000001d0: b2e4 3ebe 6fee 5bbe 4669 7c3e 62b2 c93c
000001e0: a7d2 86bc 4416 d7bb 57f9 2d3e 9ba7 343d
000001f0: 7099 dabd cc09 243e af21 ae3d be81 cd3d
00000200: 2880 b3be 6ff3 5c3e c696 023e f3c5 223e
00000210: b5fe 84bd b0e5 253d 686c 393e b54e 54be
00000220: 740e 483e 957b 37be 64cf 1ebe 4daa 8d3d
00000230: 4bc1 17be e8cf 30bd 86b4 763e ec11 c93c
00000240: 0b59 69bd 0b01 06be 1c9c fa3d cc6b 4bbd
00000250: 9223 c53d a192 d2bd 3c70 603d 8385 413e
00000260: f37e c2bc 546e 53be 99f7 1ebc 1e8b 023e
00000270: 2dbe b9bd 88be 0ebd db6d 83bc 9c3f a93d
00000280: 1e7e fe3c b01e 7cbe d896 9c3b 0308 a8be
00000290: 2be5 853c 789d dfbb 02fc 4ebd 5374 25bd
000002a0: 6741 dfbe 0e8b 073f c8bb 7dbd c111 22be
000002b0: 4bbc 0bb9 5374 483e fa80 0c3f a835 cbbd
000002c0: a6ce 903d e1f2 893d 5369 733d 182b 91be
000002d0: d946 c63d d688 013e 29e4 1f3d 13c5 793d
000002e0: 4cb5 bc3c be05 97bc 7241 11be 9150 c7be
000002f0: 84ea e13e c380 b43d 409b a73d 7a0c 88be
00000300: f24a ba3e 285a f5bd 1f7a c1be e226 613c
00000310: 9ada 0a3f de4d 013d 2ecf 20be b4c4 a13e
00000320: 0b7b 383e 484f 86be 267f 393e b73d 103d
00000330: 125a 96be c45b dabd 9a05 e1bc ee55 febd
00000340: f732 71be a8cc 2ebe 48a7 2a3e 4e1c 4a3e
00000350: 896d 3b3d c46a b43e dfc0 f4bd 8683 87be
00000360: cf41 dd3c 1e6e 4ebd 29d0 613e 9a5c dc3b
00000370: 58b5 0a3e a19d a9be c362 afbd 5387 2c3e
00000380: 4e56 3b3d 4323 fc3d 6965 32be 45c8 3a3d
00000390: 94b0 233e 82c4 01be c142 213e e693 2a3e
000003a0: f33b e73d 2a14 9e3d 6ae4 d33e cfb0 113e
000003b0: 6ddf aa3e b397 f0be ae09 013f b29b 22be
000003c0: 592d b53e 1ff3 ff3c db31 f23d af9e d03c
000003d0: b0f0 243e 3b22 41bd fe29 273e 1dc0 3bbd
000003e0: 5f2f e03d 49ff b53e 61f9 593e abaa e13c
000003f0: 9cf3 763e d5cf ba3d 8de6 2fbe 93b7 bbbe
-0.24160334 -0.41672593 -0.104998425 -0.3449437 0.19129676 -0.089496166 -0.12646198 0.075900815
-0.5453503 -0.13088377 -0.30846718 -0.2735176 -0.09092606 -0.13711931 0.30612886 -0.3572781
0.071640275 -0.12690231 -0.06999956 0.2900631 0.032278396 -0.036943976 -0.34274295 0.047012746
-0.03221933 0.23142049 -0.21295267 0.21288794 0.33033425 0.38541102 0.4696392 -0.07429264
-0.03903904 -0.017575411 -0.08880779 0.19664812 0.43551767 -0.1103068 0.23872301 -0.109825686
-0.055063967 -0.19338258 0.31499156 -0.8986293 -0.15161723 0.16403596 -0.004118937 -0.23454311
-0.71843433 0.25446957 0.4945671 -0.27381113 0.32506883 -0.06934823 0.89903 -0.102744386
-0.03990607 -0.0013414467 0.48798257 0.10815893 -0.010590802 0.34714907 0.43810007 0.38050377
-0.02469155 -0.057480708 0.37215078 0.08285316 0.15363297 0.07889224 0.15082271 -0.32637313
-0.1173788 -0.17067079 0.024599288 0.031809114 0.35331738 0.07906978 -0.2136215 -0.060607854
0.17272228 -0.16261423 -0.082495615 0.08461212 0.154763 0.00658631 0.41240498 0.09350981
-0.03131898 0.31770322 -0.054823216 0.099055566 0.21337843 0.13322729 -0.25214723 -0.19861807
-0.17809467 -0.011409853 -0.05246266 0.24652985 -0.114744395 0.07780054 -0.07116872 -0.05517324
0.16823426 -0.083807744 0.20348176 -0.013863975 -0.0068558874 0.041883655 0.04212544 -0.33734196
-0.073678814 0.06812356 -0.29906133 -0.23585221 -0.18641928 -0.21477674 0.24649534 0.024621192
-0.016457869 -0.0065639336 0.16989647 0.044105154 -0.10673797 0.16019362 0.085025184 0.10034512
-0.35058713 0.21577238 0.12752828 0.15895824 -0.06493894 0.04050225 0.1810776 -0.2073315
0.19536763 -0.17918237 -0.155088 0.06917248 -0.14819829 -0.043167025 0.24092302 0.024544679
-0.056969684 -0.13086335 0.12236807 -0.04966335 0.09625925 -0.102818735 0.054794535 0.18898587
-0.023742175 -0.20647556 -0.009702587 0.12748381 -0.09069476 -0.034849674 -0.016043594 0.08264086
0.031065997 -0.24621081 0.004778724 -0.32818612 0.016344627 -0.0068241917 -0.050533302 -0.04039414
-0.43604586 0.52946556 -0.06194666 -0.15827085 -0.00013326218 0.19575624 0.548843 -0.099223435
0.07070665 0.067357786 0.059426617 -0.2835319 0.09681482 0.12649855 0.03903595 0.06097896
0.023035668 -0.018435355 -0.14185122 -0.38928655 0.44124234 0.08813622 0.081839085 -0.2657202
0.36385304 -0.119800866 -0.37788484 0.013742181 0.5423981 0.0315684 -0.15704033 0.31595385
0.18015687 -0.26232362 0.1811491 0.035215106 -0.29365593 -0.10662034 -0.027468491 -0.124187335
-0.23554598 -0.17070258 0.16665375 0.1973736 0.045758758 0.35237706 -0.1195085 -0.26467532
0.027008919 -0.050397985 0.22052063 0.006724906 0.1354574 -0.33128074 -0.08563759 0.16848497
0.045736603 0.12311413 -0.17421497 0.04560115 0.15985328 -0.12672618 0.15748121 0.16657981
0.11290731 0.0771869 0.41385204 0.14227603 0.33373585 -0.46990737 0.50405395 -0.15879706
0.3538616 0.031243859 0.118259154 0.025466291 0.1610744 -0.047151785 0.16324612 -0.04583751
0.10946535 0.3554633 0.21286537 0.027547201 0.24116367 0.09121672 -0.17177792 -0.36663494

lstm.bias_ih_l1 f4 [160]
00000000: 309f eebc 8978 f63e 833d 7a3e d477 fe3d
00000010: ded8 7e3d e6d4 6c3e d4db eb3d 7c08 c53d
00000020: 06d7 ec3d e1da 423e 057e 8a3e 146b b23d
00000030: 210d 403e 8952 623e 821a 913e 9d63 613e
00000040: 0752 6c3e 3111 2a3e de56 34bd c761 e23d
00000050: a416 d43d 2864 963e 13c7 a13d ea4d bb3d
00000060: 021e 223e b3af 5f3e 9541 633d 5a56 1c3d
00000070: 4c20 593e eaca e13d 0590 e63d 0c3e 7a3e
00000080: cfaa 823e 2643 853d d6b7 473e 2a20 a33e
00000090: 0068 f33d 3b53 ac3d 2a8e 43bd 39e4 4d3e
000000a0: 1d20 63bb 2be0 583e fbba 8fbd c747 0a3e
000000b0: d793 b33d 8776 d4ba b368 ce3e 35f4 dd3d
000000c0: 41f2 653c 58ba 40b9 0403 f63d b8b4 e4bd
000000d0: 1b17 89bd bef1 1f3d d747 b53d 5d35 773d
000000e0: ec04 c33d 08e8 3e3e e571 75bc 276c 533e
000000f0: 7e93 4c3d c6a3 303e 7110 293d bd41 b33d
00000100: 12d1 103e 94c5 d63b 6fc6 e3bc c36a d63c
00000110: 4931 933e b629 a43d 1b8e df3d 4db2 ad3d
00000120: bc46 363d 8171 8cbd 638f 893d f041 993c
00000130: d11c d1bd 2963 aebd 6021 203e 48bf 3b3d
00000140: bf73 e1bc 043c fabd b92e e13d f559 10bc
00000150: 6abf b43c d302 d13d 1c56 7e3d 4216 c63d
00000160: dfb0 9d3d b8d5 7a3d 2485 413d ad02 fe3d
00000170: ef2e 5d3c ec95 6cbd 30d4 5ebd 7840 cabd
00000180: af38 893c 0972 0f3e 776c c03d 116c 783d
00000190: 3755 c2bc f727 a7bd c6c9 d73c 26fc b53c
000001a0: 2a55 383d 2d8f e23d 7c48 0b3e fe82 eb3d
000001b0: f14a 1c3e 1570 c3bd 8892 b33c 2307 c8bd
000001c0: 76e9 a4bc c05a 4ebd 0591 e3bd 1d36 17be
000001d0: 3bf1 a93d abec 08be 0b53 543d 4dd6 63bd
000001e0: 12ef 343d fcfe f13e 80a0 fb3d ef4a f43d
000001f0: f823 663e a0fc 8fbc e29f dc3d fcde 943e
00000200: c343 843e c47d 8d3e 94b0 123e 687d d13d
00000210: 42ac ca3d 9cec 503e 3290 ee3d f08e 0b3e
00000220: 6309 433d d573 833e 019d 27bb dbfb 383e
00000230: 8486 323e 0417 a83e f4c7 883e 84a4 cd3c
00000240: 1be5 333d 9397 603e 5411 963e ca41 be3c
00000250: 66a3 a13e 539f a53d 86d5 003e 1900 bc3d
00000260: 80ea a13d ffa1 2f3e ee71 c33d 58ec 4a3e
00000270: 0a9f 02be 7c38 b23d f2bb db3d 8588 053e
-0.02912864 0.48138836 0.24437527 0.12425199 0.06221854 0.2312809 0.11516538 0.09620759
0.1156445 0.19028808 0.2704927 0.0871183 0.18755008 0.22101797 0.28340536 0.22010656
0.23078166 0.1660812 -0.044028156 0.11053806 0.10355881 0.29373288 0.078992985 0.0914572
0.1583176 0.21844368 0.055482466 0.03816829 0.21203727 0.11025031 0.11257938 0.24437732
0.25520942 0.06506948 0.19503722 0.31860477 0.11885071 0.084143125 -0.047743 0.20106591
-0.0034656592 0.21179263 -0.070180856 0.13503943 0.087684326 -0.001620964 0.40314254 0.108375944
0.014034809 -0.00018379965 0.12012294 -0.11167282 -0.0669386 0.039048903 0.08851593 0.060353626
0.09522423 0.186432 -0.014980768 0.20646726 0.049945347 0.17249975 0.041275445 0.08752773
0.14142254 0.006554315 -0.027804581 0.026173955 0.2874854 0.08015768 0.10915776 0.08481274
0.04450105 -0.06857587 0.06716802 0.0187082 -0.102105744 -0.08515007 0.15637732 0.045836717
-0.027521012 -0.12218478 0.1099524 -0.00881051 0.02206393 0.10205617 0.06209384 0.09672214
0.07699751 0.061238974 0.047246113 0.12402854 0.013499959 -0.057760164 -0.054401577 -0.09875578
0.016750662 0.14008345 0.09395688 0.060649935 -0.023722274 -0.081619196 0.02634133 0.02221496
0.045003094 0.11062465 0.1360187 0.11499594 0.15262963 -0.09542862 0.021920457 -0.09766986
-0.020130854 -0.050379515 -0.11111645 -0.14766736 0.08297964 -0.13371532 0.05183701 -0.055624295
0.044173308 0.4726485 0.12286472 0.11928355 0.22474658 -0.017576516 0.10772683 0.29076374
0.25832948 0.27635014 0.14325172 0.102289975 0.09896137 0.2040276 0.11648597 0.13628745
0.047616374 0.2567431 -0.002557576 0.18064825 0.17434126 0.3283006 0.26715052 0.025102861
0.043919664 0.21932821 0.29310095 0.02322473 0.31569976 0.08087029 0.12581453 0.09179706
0.079060555 0.1715164 0.09543215 0.1981672 -0.12755981 0.0870218 0.10729207 0.1304036

lstm.bias_hh_l1 f4 [160]
00000000: 3ca0 433e 6778 f63e 8401 b03d 4aea a23e
00000010: 30b1 b43b 2d06 40bb 1443 303e 4233 c93d
00000020: f15c 553e 197c 803d d8f2 053e d1db 603e
00000030: 951f 0e3e 379c 893e fc14 713e c2e9 323e
00000040: 7977 d13e 10fa 7c3e 7352 4f3e 1a3b 223d
00000050: c92d 833e 9eb2 ae3e b65c 9f3e a41c ae3d
00000060: 87c4 e33d 7fb4 ef3d f63e 493e e071 823e
00000070: 37a5 703e 07a8 013d eabb 1c3e 31ef c13d
00000080: 3262 583e b285 6a3e 35d2 7d3e 0b2d 1f3e
00000090: 52f7 bdbd fff7 a83c d323 b93c 575b 023e
000000a0: 9bf0 0abe a761 fd3d f028 073e a89e 433e
000000b0: d51b 543e 919b 353e 92ff a73e 84ff 2c3e
000000c0: aaf5 2e3e 6fd1 20bd 24ea c63d c0cd d53d
000000d0: 4198 233e d429 853e 90bc cc3d b2bc 2bbd
000000e0: 3c23 a83d bbdd 733d 694f b13a 6129 c53d
000000f0: f120 683e 10af 9f3d 7c3c 463e 589c 313e
00000100: 7778 c53d df47 113e 9707 853b ec00 013d
00000110: 3f2a 873d 9a10 1a3e effb b1bc 03b9 c3ba
00000120: d6b7 ab3e 4267 81bc f402 993d e1a6 e53d
00000130: 733b 6d3c a71e 83bc 4bd9 093e e5b0 82bd
00000140: f148 953d c51b 3bbe e724 d1bd a087 16bc
00000150: 4ff6 20bd be73 89bd 7923 193e c91f 37be
00000160: e483 5fbc e684 abbd fec9 c93d 3a48 f7bc
00000170: 5524 443d acb3 573e 5634 073d da91 d7bd
00000180: 2a78 18bd 5dea 22be 7c3a 103e 3cfb 083c
00000190: d85a 90bd 118b d9bd 45db 8b3d 3989 fe3d
000001a0: 7de8 abbd 7d6e c3bd e9a7 debd d04e 27be
000001b0: a1d4 9c3d 905b f3bd bf47 7dbc 5112 05bd
000001c0: 40a0 c23d 0eb1 91bd e9db 273d 1eea 053e
000001d0: 5126 69bd 2f21 303d 9eca 0a3e 295e 0abe
000001e0: 3e46 aa3d 2ad9 ca3e 1617 143d c97c 993e
000001f0: 0bb9 433e c212 0b3e 8b41 283e af0c 083e
00000200: aec1 743e 410a 483e 78cf 2b3d ca43 9c3e
00000210: c612 163e ac4d 533e 34d4 d43e e331 803e
00000220: 9d24 c13c 8bf9 853e 01ea 3d3e 6024 5b3e
00000230: 2244 543e 5456 ad3d 19fd f63c 3198 413d
00000240: 9189 3fbc dddf 5a3e 7ab4 183e 49f2 b73d
00000250: 6dcf 193e 9683 773e 9726 133e 898f 833e
00000260: 2288 113d c0b9 583e 7d3a 1d3e 443f 4c3d
00000270: 8ecc 0e3e 48dd e6bb a5a3 603d e942 713d
0.19104093 0.48138735 0.08594039 0.31819373 0.0055142865 -0.0029300556 0.17213088 0.0982423
0.20836236 0.0627367 0.13080919 0.21958853 0.13879235 0.26876995 0.23543161 0.17471984
0.40911463 0.24704766 0.20246296 0.039607145 0.2562087 0.3412065 0.3112542 0.085015565
0.11121469 0.11704349 0.19652924 0.25477505 0.23500524 0.031654384 0.15306059 0.0946945
0.21131209 0.22902563 0.24787219 0.15544526 -0.09275688 0.020626066 0.02260009 0.12730156
-0.13568346 0.12372141 0.1319921 0.19103491 0.20713742 0.17735125 0.32812172 0.16894346
0.17085901 -0.03926223 0.097126275 0.10439634 0.15976049 0.26008475 0.09996903 -0.041928
0.082098454 0.05953763 0.0013527694 0.09627033 0.22668816 0.077970624 0.1935901 0.17344797
0.096421175 0.14187573 0.0040597427 0.03149502 0.06599855 0.15045395 -0.021726577 -0.0014932457
0.33538693 -0.015796307 0.074712664 0.1121347 0.014479506 -0.016005827 0.13461797 -0.06381396
0.07289303 -0.18272312 -0.10212117 -0.009187609 -0.0392974 -0.06711529 0.14954938 -0.17883219
-0.013642285 -0.08374958 0.0985298 -0.030185807 0.04788621 0.21064633 0.033008896 -0.10525866
-0.037223972 -0.15909715 0.1408481 0.00836068 -0.07048577 -0.10622228 0.06828932 0.12428517
-0.08393953 -0.09542558 -0.1087187 -0.16338658 0.07657743 -0.118826985 -0.015459 -0.03248817
0.095032215 -0.071138486 0.040981207 0.1307759 -0.056921307 0.043000396 0.13553855 -0.13512482
0.08314179 0.39618808 0.03615483 0.29978016 0.19113557 0.13581374 0.16431253 0.13286088
0.23902008 0.19535162 0.041945904 0.3052047 0.14655599 0.20635098 0.41568148 0.2503806
0.023577029 0.2616695 0.18546297 0.21400595 0.20729116 0.084637314 0.030149983 0.04726428
-0.011690513 0.2137446 0.14912596 0.08981759 0.15020533 0.2417129 0.1437019 0.25695446
0.035530217 0.21164608 0.15354343 0.049865022 0.13945219 -0.0070454217 0.054843564 0.0589017

lstm.weight_ih_l2 f4 [160, 40]
00000000: eaec 5bbe d22a b4be 58a8 8cbe 9861 63bd
00000010: 60b6 56bd 8a80 20be 42e4 7cbe b903 9d3e
00000020: 3a46 9dbe f7ab 03be 2126 46be a726 61bc
00000030: dd34 d13d cc96 68be 6b3b 843d de5d 88be
00000040: bf48 9fbe 0769 8e3d 9d97 d1bc 9115 8c3d
00000050: f95b 92bd 1930 4dbe 1ecb 4abe 7537 143d
00000060: d77b d5bd 762f 003e 53d7 113e 84ce 45be
00000070: c0ec 943e 94c5 56be cbee 77be fe75 603c
00000080: ce79 173f 1236 7c3e e1e1 ce3e 51a6 a2be
00000090: 4a06 c6bd f00a 88bd bdc5 7dbc 2e75 55bd
000000a0: 7ed8 02bc 55ce d2be 696f 9abe d683 89be
000000b0: 3da0 983c 5383 8ebd dac2 13be 8218 423e
000000c0: 634b a7be bd5f 113e 761e 71bd c93c 59bd
000000d0: dc78 723d 4909 7abe 85da 103f be1b 3fbe
000000e0: a414 b83d e559 003e 098c 873e 83b5 aabd
000000f0: 7ba3 2c3e f9cd 953e 6f80 33be 74e7 743d
00000100: 6164 2bbe 904b 5cbe 6c64 9abe d0bf 373d
00000110: a26d 563e bd3a a43d 9933 523d ed33 38be
00000120: 4b15 e2be 2348 383d 78ed 72be dfdc 04be
00000130: c670 833e a400 0abd f009 9abe 7418 243e
00000140: 0f9a 17bf 1902 8fbe 3250 373e e01d 443e
00000150: 0a64 7abd cea6 adbd 7791 bb3b 6170 713d
00000160: 23ed 9ebd c0e8 4d3e 7431 7bbd de7c 49be
00000170: 64f5 133e b8c3 24be 2e00 913e a035 303e
00000180: 10b4 e23d 60ea 63bd 3028 27be ef1b 973e
00000190: 3f83 d03d 5712 283e 937f 913d d134 bebd
000001a0: 4e97 79be d8b8 143d af54 093e b2bb 17be
000001b0: 0f5a 3a3d b348 89bd a5e7 213e 9093 313e
000001c0: b71e 5bbe de8e 42be 3c61 073e de5a 52bc
000001d0: 6bc3 78be 4b26 1d3e be1f 0fbb bf83 033e
000001e0: 0f74 70bd 6c6b 343d 8fc2 e73d f9fb 323d
000001f0: 9f56 413d aa8f c83d f07f b4bb 1353 3b3e
00000200: 3bc5 033f 86d7 81be 7e33 3bbe c6ab 333d
00000210: 484d 7b3e 23c7 b0be fa44 18be 25a8 833e
00000220: ca10 89bc a8b1 323d 8de5 abbe 7ad0 ed3e
00000230: 2fc6 1dbe effd bcbe abde 2a3e 4581 e5be
00000240: 940f 8bbe 439b 933e f874 8fbe 8c84 6e3d
00000250: c9c4 7c3d 87fe 46be 7d5b 5d3e ae02 cb3e
00000260: e0e7 93be cd6e 5bbe ccc2 833e c9d6 8a3d
00000270: 9c9a a23d ed28 9f3d 62dc a53d b969 4b3e
00000280: a642 b1be c6db b5be 50b0 91be 45fa 33be
00000290: 18e4 d4bd 2f3c 48be 8382 013d 9afc d93b
000002a0: e2a6 81be dbd5 e6bd 0747 62be b822 adbc
000002b0: aa15 0cbf 0c25 91be 8790 ac3e d2fc 32be
000002c0: b743 4a3d 6bc2 dd3e d793 853e b2cd 133e
000002d0: e67c a9bd 8ba3 503e 4fa5 c0be 33c8 063f
000002e0: 32a5 4fbe 341e 093d 15da 433e b431 a2bb
000002f0: 4e90 39bd 0c96 b43e b2ab febd d48c 8cbe
00000300: 98dc 01bf b84b 933e 6c12 cdbd ab17 92bc
00000310: 3722 9ebd 9204 123e 648f f23b c8ad a83d
00000320: 3773 01be f65c 01be a57b cfbd 7788 11be
00000330: 48be a7bd ad3d b73d 9541 9dbe 3b5b 6cbe
00000340: 9328 68be e06f cbbd 9981 2f3e 1362 db3d
00000350: 5a9f a3be e6e2 15bd e739 bf3e 5444 a93d
00000360: 8bfb c93d f57f ea3b f74d 393e 3dad 3c3d
00000370: a134 28be 7c27 a3bd 1386 9b3e 943a cd3e
00000380: 7ddc c0be 1c6e c4be dc3b e13d 0ebc 15bd
00000390: f16b 66be b2a2 7f3e 1f17 e3bd 3a66 1cbd
000003a0: e6cb 2bbf 1600 4d3e adc9 e83d 6604 3b3d
000003b0: 81ff 2a3e 7482 763d 00e8 5fbd a5f6 023b
000003c0: 71ea 6e3e 9d45 e6be 66ed ad3d f7f3 a2be
000003d0: fe9e 603e ca81 82be be20 083f 861c 16bd
000003e0: 2c5b 0f3e 18f5 5dbd 25e7 9abc 104f aeba
000003f0: 87d0 d7be f050 903d 1b23 63bd b3a4 c0be
-0.21477094 -0.3518892 -0.27472186 -0.055512995 -0.05242002 -0.15674034 -0.24696448 0.30666903
-0.3071764 -0.12858568 -0.19350483 -0.013742126 0.10215161 -0.22713774 0.064566456 -0.26634115
-0.31110188 0.06953626 -0.02558499 0.06840051 -0.07146449 -0.20037879 -0.19804046 0.0361857
-0.10424011 0.12518105 0.14242296 -0.1931706 0.29086876 -0.20973808 -0.24212186 0.0137000065
0.59170234 0.24630001 0.40406707 -0.31767514 -0.09669168 -0.06642711 -0.015489039 -0.052113704
-0.007986186 -0.41173044 -0.30163124 -0.26858395 0.018631095 -0.06958642 -0.14429799 0.18954661
-0.32674703 0.14196678 -0.05886694 -0.053036485 0.05919729 -0.24417605 0.56583434 -0.18662927
0.08988312 0.12534292 0.26474026 -0.08335402 0.16859238 0.29258707 -0.17529462 0.059791043
-0.1673751 -0.215132 -0.3015474 0.04486066 0.20940259 0.08019016 0.05131874 -0.17988558
-0.4415687 0.04499067 -0.237234 -0.1297488 0.25671977 -0.033692017 -0.30085707 0.16024953
-0.5921945 -0.27931288 0.17901686 0.19152021 -0.06113056 -0.08479081 0.005724128 0.058945064
-0.07760074 0.20108318 -0.06132646 -0.1967654 0.14449078 -0.16090286 0.2832045 0.17207956
0.110695004 -0.05564344 -0.16323924 0.295135 0.10181283 0.16413246 0.07104411 -0.09287418
-0.24374124 0.036309093 0.1341121 -0.14817694 0.045496043 -0.067033194 0.15811022 0.17341447
-0.21398436 -0.18999812 0.13220686 -0.012839047 -0.24293296 0.15346639 -0.0021838988 0.12843226
-0.058704432 0.044047758 0.11316406 0.04369733 0.04720175 0.09793027 -0.0055084154 0.18293409
0.51472825 -0.25359744 -0.18281361 0.043864988 0.24541199 -0.3452693 -0.14870062 0.25714222
-0.016731638 0.043626457 -0.3357357 0.46448117 -0.15407632 -0.36912486 0.16686504 -0.44825187
-0.27160323 0.28829393 -0.28018928 0.058231875 0.061711106 -0.19433032 0.21616931 0.39650482
-0.28887844 -0.21428986 0.25734556 0.06779248 0.07939646 0.07771478 0.08098675 0.19864549
-0.3462116 -0.35519236 -0.28454828 -0.17575939 -0.10395068 -0.19554208 0.031618606 0.006652427
-0.25322634 -0.112712584 -0.22097407 -0.02113472 -0.54720557 -0.28348577 0.33704016 -0.17479256
0.049380984 0.43312392 0.26089355 0.14433935 -0.082757756 0.20374887 -0.3762612 0.5264923
-0.20277861 0.03347607 0.1912616 -0.0049497727 -0.045303635 0.35270727 -0.12435092 -0.27451193
-0.50727224 0.28768706 -0.10013279 -0.017833551 -0.0772137 0.14259556 0.0074023474 0.08236271
-0.12641607 -0.12633118 -0.10131005 -0.14212213 -0.0819059 0.089473106 -0.30714098 -0.23081677
-0.22671728 -0.09933448 0.17139281 0.107120655 -0.31957513 -0.03659334 0.37348863 0.08264986
0.09862431 0.007156367 0.18096147 0.04606365 -0.16426326 -0.079665154 0.30375728 0.40083754
-0.3766822 -0.38365257 0.109977454 -0.036556296 -0.22502114 0.24964407 -0.110883944 -0.03818343
-0.67108 0.20019564 0.113665916 0.04565849 0.1669903 0.060183004 -0.05466461 0.0019983437
0.2333162 -0.44974986 0.08492546 -0.31826755 0.2193565 -0.25489646 0.5317496 -0.036648296
0.13999623 -0.054188818 -0.018909046 -0.0013298709 -0.4215128 0.070466876 -0.0554534 -0.37625656
