models/LSTM_for_best_best_model_16_220_epoch.pth (torch, 707299 bytes, 46 tensors)

lstm.weight_ih_l0 f4 [160, 34]
0	0x3d6770fb	0.05650423
1	0x3e3e3dd5	0.18578275
2	0x3e992699	0.2991226
3	0x3e87bbcb	0.26510462
4	0x3d92ffa7	0.07177668
5	0x3d2f7dc1	0.042844538
6	0xbe3e5628	-0.18587554
7	0xbdd1171b	-0.10209485
8	0x3ef43e2b	0.4770368
9	0x3e92a44d	0.28640977
10	0x3e9fcca9	0.3121083
11	0xbc9bcab7	-0.01901756
12	0x3dfb0b00	0.122579575
13	0x3de26df0	0.11056125
14	0x3e81f7b7	0.25384304
15	0x3e38fc8c	0.18065089
16	0xbccaef4c	-0.024772309
17	0x3d46801f	0.04846203
18	0x3e29623e	0.16541383
19	0x3e741a40	0.23838139
20	0xbe869a59	-0.26289633
21	0xbe4f1ca4	-0.2022577
22	0xbcd491a3	-0.025948351
23	0x3e848cc2	0.2588864
24	0x3df55221	0.119785555
25	0x3d092da5	0.033490796
26	0x3c92aaeb	0.017903766
27	0x3d1069b3	0.035257053
28	0x3e5f8e1d	0.21831556
29	0x3e10c459	0.141374
30	0xbd830d30	-0.06399
31	0x3e73c9ae	0.23807403
32	0x3e94f017	0.29089424
33	0x3e9372d2	0.28798538
34	0x3c8549a7	0.016270472
35	0xbe1dbd31	-0.15404202
36	0x3e180e17	0.14849125
37	0xbe388cd0	-0.18022466
38	0xbd209de4	-0.039213076
39	0xbe50f2e3	-0.20405154
40	0x3c945940	0.018108964
41	0x3e975fed	0.29565373
42	0x3da89d5d	0.0823314
43	0x3dbaa397	0.091132335
44	0x3e5ab052	0.21356323
45	0x3c4d1610	0.012517467
46	0x3ea27b5f	0.3173475
47	0xbc1ed80c	-0.009695064
48	0x3cd9c0b9	0.026581155
49	0xbdd8a9cc	-0.10579261
50	0x3b00fb75	0.001968113
51	0x3dad3954	0.084582
52	0xbd9f9fb4	-0.07794133
53	0xbdb6721d	-0.08908484
54	0xbea64c6b	-0.32480177
55	0xbe488bf6	-0.19584641
56	0x3d12ffba	0.03588841
57	0xbd97e6ee	-0.07417093
58	0x3df796b9	0.12089295
59	0x3dc09fac	0.09405455
60	0x3e0460f6	0.12927613
61	0x3dced8d3	0.1009995
62	0xbcb3874d	-0.021915102
63	0x3d0e032a	0.034670986
64	0xbe792e2c	-0.2433402
65	0x3dc65ee2	0.09686066
66	0x3d70c41c	0.058780774
67	0x3cdc5942	0.02689803
68	0xbc95f9d6	-0.018307608
69	0x3de5724b	0.1120344
70	0x3d83dfc4	0.06439164
71	0x3e4d722a	0.20063081
72	0xbdc78e2b	-0.09743913
73	0x3eb551ce	0.35413975
74	0x3ce66c72	0.028127883
75	0x3e89dca6	0.26926154
76	0xbdd0a4fc	-0.10187718
77	0x3edb38da	0.42816812
78	0x3e14879a	0.14504853
79	0x3eb0bbe8	0.3451836
80	0xbd4cfba3	-0.050044667
81	0x3f282959	0.6568809
82	0x3e3fefc7	0.18743812
83	0x3edef596	0.43546742
84	0x3e29af7f	0.16570853
85	0x3ed11fd2	0.4084459
86	0x3e54c7e1	0.20779373
87	0x3dce2cb1	0.10067118
88	0x3ebb7f67	0.36620638
89	0x3d919c7f	0.071099274
90	0x3d9af5d6	0.07566421
91	0x3e82b85d	0.25531283
92	0x3bc90ac1	0.006135315
93	0x3e5ca7a7	0.2154833
94	0x3e53a80f	0.20669578
95	0x3ebc9cac	0.3683828
96	0x3e68105e	0.22662494
97	0x3ee5edb4	0.44907916
98	0x3ea64072	0.32471043
99	0x3eaafde0	0.33396816
100	0x3eeb606e	0.45972008
101	0x3e74c8f1	0.23904778
102	0x3e88cc78	0.26718497
103	0xbe0d315d	-0.13788362
104	0x3d96900e	0.07351695
105	0x3d216b14	0.03940876
106	0x3d161715	0.036643106
107	0x3e1c81bd	0.15283866
108	0x3e46e2b3	0.19422416
109	0x3e195320	0.14973116
110	0x3e725a60	0.23667288
111	0x3f0b0b4e	0.54314125
112	0x3e4443eb	0.19166534
113	0x3e87e5b0	0.26542425
114	0x3d7424e6	0.0596055
115	0x3eaaa334	0.3332764
116	0x3e329893	0.17441015
117	0x3e78833d	0.24268813
118	0xbea5cb95	-0.32381883
119	0xbdc7f1e9	-0.097629376
120	0x3e40f6ef	0.18844198
121	0x3edec801	0.43511966
122	0xbd2ee006	-0.042694114
123	0x3e684445	0.22682293
124	0x3ea5bad8	0.32369113
125	0x3d263992	0.040582247
126	0x3e1f73eb	0.15571563
127	0x3e03a343	0.12855248
128	0x3e87d4fd	0.26529685
129	0x3e80dc86	0.25168246
130	0x3e14fc38	0.14549339
131	0x3df2b1cc	0.11850318
132	0xbde7786b	-0.11302265
133	0xbdc53cce	-0.09630738
134	0x3ecb0060	0.39648724
135	0x3e0a0521	0.13478519
136	0x3eaa3a5e	0.33247656
137	0xbd689adb	-0.056788307
138	0x3e928772	0.28618962
139	0x3e57be03	0.21068577
140	0xb9500eb9	-0.0001984191
141	0xbe4c93a0	-0.1997819
142	0x3d0aa7f7	0.03385159
143	0xbc6d9b0f	-0.014502301
144	0x3a18b2dc	0.0005824992
145	0x3e933d83	0.28757867
146	0x3e61a310	0.2203486
147	0x3dbbe504	0.09174541
148	0x3eca0d18	0.39463115
149	0x3dd9d57a	0.106364205
150	0x3ca1119f	0.019661723
151	0x3e19bf74	0.1501444
152	0xbe3597a0	-0.17733622
153	0xbc505174	-0.012714732
154	0xbc8cfe6d	-0.017211163
155	0xbe001b27	-0.12510358
156	0xbe098bb5	-0.134322
157	0xbe1e0ae8	-0.15433848
158	0x3cdd628c	0.02702453
159	0x3e4f5e8f	0.20250915
160	0x3d958c46	0.07302146
161	0x3e957dec	0.29197633
162	0xbe03b683	-0.12862591
163	0x3e02fe09	0.12792219
164	0x3dd558f9	0.10417361
165	0x3e5406a0	0.20705652
166	0xbdfb7c94	-0.12279621
167	0x3e8e4aa1	0.27791312
168	0xbdb44681	-0.0880251
169	0x3dbf0f73	0.093291186
170	0x3dd073ba	0.10178323
171	0xbb0071cb	-0.0019599076
172	0xbc21be1d	-0.009871987
173	0x3b044f5b	0.00201889
174	0x3e8a3415	0.2699286
175	0x3e144308	0.14478695
176	0xbdcf040f	-0.10108196
177	0xbed4d50d	-0.41568795
178	0x3e67c3ef	0.22633336
179	0x3d66a423	0.056308877
180	0x3ebffea4	0.37498963
181	0x3e7dc612	0.24782589
182	0x3e0499d1	0.12949301
183	0xbd06fd5e	-0.032956474
184	0x3d2532db	0.040331703
185	0x3e67e175	0.22644599
186	0x3e153feb	0.14575164
187	0x3da51100	0.08059883
188	0x3e0e5fa3	0.1390367
189	0x3f0331ba	0.5124775
190	0xbe79e1c5	-0.2440253
191	0x3e88a402	0.26687628
192	0x3d97d26d	0.074131824
193	0xbd7f2890	-0.062294543
194	0x3de212b5	0.11038724
195	0xbdd7b055	-0.105316795
196	0x3dbefdb6	0.09325735
197	0xbdd739f8	-0.105091035
198	0x3ec99e3a	0.3937853
199	0x3e35a342	0.17738059
200	0xbdc00eaa	-0.09377797
201	0x3e37d621	0.17952777
202	0x3e3e5994	0.18588859
203	0x3d01225e	0.031526916
204	0x3dc7b5f9	0.097515054
205	0x3ec51ed0	0.3850007
206	0x3e70584e	0.23471186
207	0x3ec0bf45	0.37645927
208	0x3e6239b0	0.22092319
209	0x3ed551bc	0.4166392
210	0x3e590c5e	0.21196124
211	0x3e30a189	0.17249121
212	0xbe8581f2	-0.26075703
213	0x3dc557c5	0.09635881
214	0x3e37f767	0.1796547
215	0x3e37bdbf	0.17943476
216	0xbea83ad6	-0.32857388
217	0x3e375959	0.17905177
218	0x3dc1cb25	0.09462575
219	0x3ed6592e	0.41864914
220	0xbe3aaf7a	-0.18231001
221	0x3e97f128	0.29676175
222	0xbdf148ef	-0.11781489
223	0x3e96fd91	0.2949033
224	0x3eedf1f5	0.4647366
225	0x3e854759	0.26030996
226	0x3e1cab7f	0.15299796
227	0x3e25c3fc	0.16188043
228	0xbdf6e103	-0.12054636
229	0x3dc88d93	0.09792628
230	0x3e2888de	0.1645846
231	0xbb489866	-0.0030608415
232	0x3cec50a1	0.02884704
233	0x3e542780	0.20718193
234	0x3c8f0782	0.017459635
235	0xbd46958b	-0.04848246
236	0xbe52fb2b	-0.20603625
237	0x3df24e24	0.118313104
238	0x3e10fd20	0.1415906
239	0xbe895488	-0.26822305
240	0x3d3618b4	0.044457152
241	0xbea52898	-0.32257533
242	0x3dfdbb6f	0.12389266
243	0xbeb65d43	-0.35618028
244	0x3e96d7a6	0.29461402
245	0x3eb5de6f	0.35521266
246	0x3e587471	0.21138169
247	0x3cd4bb83	0.025968319
248	0x3dc48fe1	0.09597755
249	0x3e2312a8	0.15925086
250	0x3e1bd150	0.15216565
251	0x3dbe7d73	0.09301271
252	0xbdff97d3	-0.1248013
253	0x3e0c4ec8	0.13701928
254	0x3ea8e4ab	0.3298696
255	0xbe08ba3f	-0.13352297

lstm.weight_hh_l0 f4 [160, 40]
0	0x3e790af5	0.24320586
1	0x3e30db8d	0.17271252
2	0xbe249a7f	-0.1607456
3	0xbe9a1b74	-0.3009907
4	0xbb372056	-0.0027942858
5	0x3c5de6b0	0.01354377
6	0xbea81766	-0.32830352
7	0xbeb9847f	-0.362339
8	0x3e80d983	0.25165948
9	0x3de85cba	0.11345811
10	0xbd650ce7	-0.055920508
11	0x3ec038ea	0.37543422
12	0x3eb8cb38	0.36092544
13	0xbe81a696	-0.25322407
14	0xbe5eaca2	-0.21745542
15	0x3ea67a0b	0.32514986
16	0xbe95f8f1	-0.2929149
17	0x3da151a3	0.07876899
18	0x3e15e8cc	0.14639586
19	0xbeb41d07	-0.35178396
20	0x3e51d9db	0.20493262
21	0x3daf2625	0.08552197
22	0x3ccbb713	0.02486757
23	0xbecbb8a1	-0.39789298
24	0xbe719371	-0.235914
25	0x3e613748	0.21993744
26	0xbcd2b35f	-0.025720296
27	0x3e46edd6	0.19426665
28	0xbd92dda2	-0.07171179
29	0x3db596f3	0.08866682
30	0xbec75ad5	-0.38936487
31	0x3ece8e06	0.4034273
32	0x3e37ceb4	0.17949945
33	0x3dc38feb	0.095489345
34	0xbe820bbc	-0.25399578
35	0x3ebc02f8	0.36721015
36	0x3e69a327	0.22816144
37	0xbe29fbb2	-0.1659992
38	0xbe07e86a	-0.13272253
39	0x3eb49b9f	0.3527498
40	0x3e895860	0.26825237
41	0x3e15ae0e	0.14617178
42	0x3e3a2f36	0.18182072
43	0xbebe795f	-0.37201974
44	0xbe16c7c0	-0.14724636
45	0x3dfa7757	0.122297935
46	0xbe89c4b5	-0.26907888
47	0x3e4c847c	0.19972414
48	0xbc536086	-0.012901431
49	0x3b8ec228	0.0043566413
50	0xbdea1c26	-0.1143115
51	0x3caa1a80	0.02076459
52	0xbe040958	-0.1289419
53	0x3e362fbe	0.1779165
54	0xbcf168fb	-0.029469004
55	0xbdcfbcac	-0.10143408
56	0x3dba6a6a	0.09102328
57	0xbe3e5a9e	-0.18589255
58	0x3d078b98	0.03309211
59	0x3e022006	0.12707528
60	0x3df4b186	0.119479224
61	0x3dad43e8	0.08460218
62	0x3d9d2ae7	0.076741986
63	0xbd6a84fe	-0.057255737
64	0xbc491c81	-0.012274862
65	0x3da03aac	0.07823691
66	0xbe098250	-0.13428617
67	0xbe94c185	-0.29053894
68	0x3dab81b6	0.0837435
69	0x3e63d752	0.22250107
70	0xbe0aa81a	-0.13540688
71	0xbdccc959	-0.099993415
72	0x3e87d602	0.26530463
73	0xbe57cf0f	-0.2107508
74	0x3e811527	0.2521145
75	0x3d771725	0.060324807
76	0xbdc6711e	-0.09689544
77	0xbde0d18b	-0.10977467
78	0xbe593115	-0.2121013
79	0xbe0da639	-0.1383294
80	0x3ed434f3	0.41446647
81	0x3dcc0d39	0.099634595
82	0xbe0d2d99	-0.13786925
83	0x3d5e97eb	0.0543441
84	0xbeb2b3e8	-0.34902883
85	0x3eaedd7e	0.3415336
86	0x3df67386	0.12033753
87	0xbf01ed10	-0.50752354
88	0xbd3e82fc	-0.046511635
89	0x3e6aa561	0.2291465
90	0xbd803382	-0.06259824
91	0x3d2047d8	0.039131016
92	0xbee1ee63	-0.44127187
93	0xbf166deb	-0.5876147
94	0x3e3424a3	0.17592101
95	0xbec5a523	-0.38602552
96	0x3e3044ee	0.17213795
97	0xbe72f059	-0.23724498
98	0xbb1e5863	-0.002416157
99	0x3e8064e7	0.25076982
100	0xbd071709	-0.032980952
101	0xbf0baa66	-0.5455688
102	0xbd9e3901	-0.077257164
103	0x3e1c25d5	0.15248807
104	0x3e68fa92	0.22751835
105	0xbe15e83e	-0.14639375
106	0xbf0f4ea7	-0.5597939
107	0xbe18d106	-0.14923486
108	0x3d0b00cb	0.033936303
109	0x3e0d4b0b	0.13798158
110	0xbe542292	-0.20716313
111	0x3b82fb95	0.003997276
112	0xbec136ec	-0.37737215
113	0x3eb3587b	0.35028443
114	0x3e2311aa	0.15924707
115	0xbe22d137	-0.15900122
116	0x3df003d1	0.11719478
117	0xbe32ffe8	-0.17480433
118	0xbe2a7c2e	-0.16648933
119	0x3db2f83f	0.087387554
120	0xbe5ecd41	-0.21757986
121	0xbea2f93a	-0.3183077
122	0x3e5ec2a6	0.2175394
123	0x3a107bd4	0.0005511616
124	0xbdf82473	-0.12116327
125	0xbe34b5da	-0.17647496
126	0x3edf754f	0.43644187
127	0xbeefa048	-0.46801972
128	0x3e1814f0	0.14851737
129	0x3da3b358	0.079931915
130	0x3eb4c3dc	0.3530568
131	0xbd418638	-0.04724714
132	0x3e53837f	0.2065563
133	0x3ddb4321	0.10706163
134	0x3eb63ae1	0.35591796
135	0xbe764a4e	-0.24051782
136	0x3e6e00de	0.23242518
137	0x3e55c296	0.2087501
138	0x3d4f0a25	0.050546784
139	0xbeb08c63	-0.34482107
140	0xbc984f10	-0.018592387
141	0xbf20c2f7	-0.6279749
142	0x3c6f9da0	0.014624983
143	0xbe94fe4f	-0.29100272
144	0xbe28da2a	-0.16489473
145	0x3c43f93a	0.011961276
146	0x3e5770a1	0.21039058
147	0x3d014e19	0.03156862
148	0x3ec02513	0.37528285
149	0xbd1a0460	-0.03760183
150	0x3e31133c	0.17292494
151	0x3d994d70	0.07485473
152	0x3dd3729e	0.10324596
153	0x3e14cfcc	0.14532393
154	0xbd502daf	-0.050824817
155	0x3efd1df4	0.49436915
156	0x3e14a1a3	0.14514785
157	0xbe513729	-0.20431198
158	0xbccef09a	-0.025261212
159	0x3ec068fc	0.37580097
160	0x3e78ef89	0.24310125
161	0xbcf580fb	-0.02996873
162	0x3f469ed8	0.77586126
163	0x3b50234b	0.0031759317
164	0x3dbdb1f0	0.092624545
165	0x3ed3de4c	0.41380537
166	0x3f332b95	0.69988376
167	0x3de81ee3	0.11334016
168	0xbd39b0ba	-0.045334555
169	0xbb8445fe	-0.004036664
170	0x3f024cb2	0.5089828
171	0xbe8f6030	-0.28003073
172	0xbb186c57	-0.0023257935
173	0x3dc7175e	0.09721254
174	0x3df88671	0.12135018
175	0xbe3eb086	-0.18622026
176	0xbd3211af	-0.043473896
177	0x3e15c722	0.14626744
178	0xbe2bad15	-0.16765244
179	0x3e3ab2e8	0.1823231
180	0xbe403da0	-0.18773508
181	0xbda05b7f	-0.078299515
182	0x3d7cc87f	0.061714645
183	0xbe0237b6	-0.12716565
184	0x3e21db0e	0.15806219
185	0x3e508675	0.20363791
186	0xbd07cb10	-0.03315264
187	0xbd96d726	-0.07365255
188	0x3ede057e	0.43363565
189	0xbdb9bdb0	-0.09069383
190	0xbefbcc15	-0.4917914
191	0x3efaa98a	0.48957473
192	0x3ee00a80	0.4375801
193	0xbe28f372	-0.16499117
194	0x3f0c586f	0.5482244
195	0xbc570f8a	-0.013126263
196	0x3db2d3f5	0.08731834
197	0xbe9d3859	-0.30707052
198	0xbde0d4b4	-0.1097807
199	0x3dc54690	0.09632599
200	0xbe7cc0b6	-0.24682888
201	0xbd7ce1a8	-0.06173864
202	0x3dc18e4a	0.094509676
203	0xbdffd4d0	-0.12491763
204	0x3eac18ae	0.3361258
205	0xbde0ba0f	-0.10972988
206	0xbd7ca872	-0.06168408
207	0xbe8ccb4d	-0.27498856
208	0xbdc54fc5	-0.096343555
209	0x3e884092	0.26611763
210	0x3e153e7a	0.14574614
211	0x3c28eb87	0.01031006
212	0x3a6acd7a	0.000895701
213	0xbdde2cb1	-0.10848368
214	0x3e89b9fe	0.26899713
215	0x3e042543	0.12904839
216	0xbbd5ae61	-0.0065210317
217	0x3dd981a9	0.10620434
218	0x3e749f05	0.23888786
219	0xbe591145	-0.21197994
220	0x3e1225b6	0.14272198
221	0x3d8429de	0.06453298
222	0xbe85c0cf	-0.26123664
223	0x3da03083	0.07821753
224	0x3e009afa	0.12559119
225	0x3d4583bf	0.048221346
226	0x3e82b9c5	0.25532356
227	0x3ec8bae1	0.39205077
228	0x3e12c75b	0.1433386
229	0xbe737a61	-0.23777153
230	0xbebd19ca	-0.36933738
231	0x3ecb58c7	0.3971617
232	0x3ebafee9	0.36522606
233	0x3dafdf0d	0.085874654
234	0x3e49a578	0.19692028
235	0x3e5ec396	0.21754298
236	0xbef955bb	-0.4869822
237	0xbe52d40e	-0.20588705
238	0x3e56c01e	0.20971724
239	0x3e382515	0.17982896
240	0xbc24ac7a	-0.010050887
241	0xbe0c8a08	-0.1372453
242	0xbf123ae2	-0.571211
243	0x3e9d1743	0.3068181
244	0x3ed662d1	0.41872266
245	0x3d583f47	0.05279472
246	0xbeaf9aa4	-0.3429767
247	0xbec06dca	-0.37583762
248	0x3e31cc34	0.17363054
249	0x3d00e5a4	0.031469002
250	0xbe09f808	-0.13473523
251	0x3d85f181	0.06540204
252	0xbe9440ba	-0.28955632
253	0xbe8b32ae	-0.27187103
254	0xbe3693a5	-0.1782976
255	0xbe7d9600	-0.24764252

lstm.bias_ih_l0 f4 [160]
0	0x3d5e6695	0.05429705
1	0xbced3059	-0.028953718
2	0x3ea5e25c	0.3239926
3	0x3e21b96f	0.15793394
4	0x3cee1c74	0.029066302
5	0x3e56a1ac	0.2096011
6	0x3ddefcb9	0.10888047
7	0x3e3f4607	0.18679057
8	0x3c0d6514	0.008630056
9	0xbdeb9547	-0.11503082
10	0x3ce7cd14	0.028296031
11	0x3e5d3364	0.21601635
12	0x3e318e50	0.17339444
13	0x3db6e4ef	0.08930384
14	0x3e005d21	0.12535526
15	0x3e65c5f5	0.22438796
16	0x3e5a037f	0.21290396
17	0x3c8a9218	0.016915366
18	0x3ce84e7a	0.028357733
19	0x3e152772	0.14565828
20	0xbc786d70	-0.015162811
21	0x3e9c1bc3	0.3048993
22	0x3e09252a	0.13393083
23	0x3e623bcb	0.22093122
24	0x3d5e9968	0.05434552
25	0x3e90bd52	0.2826944
26	0xbd8cd793	-0.06877055
27	0xbe1206f8	-0.14260471
28	0x3c797fcc	0.015228223
29	0x3d081403	0.03322221
30	0x3d23d3ad	0.03999679
31	0x3e7247b7	0.2366017
32	0x3eb81bf6	0.35958833
33	0x3d409982	0.047021396
34	0x3d3b5e61	0.045744304
35	0x3e3c6c11	0.18400599
36	0x3db18ef2	0.08669843
37	0x3e61bc90	0.22044587
38	0x3e67c5f0	0.22634101
39	0x3e848c5b	0.25888333
40	0xbd6c44b2	-0.0576827
41	0x3dba6b75	0.09102527
42	0xbdd9bf49	-0.10632188
43	0xbd8abc03	-0.06774142
44	0x3d615173	0.055009317
45	0xbddeb718	-0.10874766
46	0x3e1a4f72	0.15069368
47	0x3e67f6db	0.22652762
48	0x3e073cdf	0.13206814
49	0x3e041f88	0.12902653
50	0xbdc9ae4b	-0.09847697
51	0x3c65fd27	0.014037407
52	0x3e2225cf	0.15834735
53	0xbda1a14b	-0.07892092
54	0xbdd6283a	-0.10456891
55	0x3d17072e	0.03687208
56	0x3e0e2fbd	0.13885398
57	0x3c0d686b	0.008630852
58	0x3e1bba14	0.15207702
59	0x3df80e6b	0.12112125
60	0xbd933c69	-0.07189257
61	0xbd1ca2e2	-0.038241275
62	0xbe195df6	-0.1497725
63	0x3e041c43	0.12901406
64	0x3c7126ed	0.014718753
65	0x3c0b8269	0.008514979
66	0xbd0ce4d1	-0.034397904
67	0xbdb1c79c	-0.086806506
68	0x3dda21c9	0.10650975
69	0x3b97bdad	0.0046307654
70	0xbceaebed	-0.028676951
71	0x3d864660	0.06556392
72	0x3d83a963	0.06428792
73	0xbdd0a69b	-0.101880275
74	0x3dde14f8	0.10843843
75	0xbe27ee35	-0.16399463
76	0x3dedcd4d	0.11611424
77	0xbd9ec1d4	-0.077518135
78	0xbda8369d	-0.08213542
79	0xbdc19d4d	-0.09453831
80	0xbe1495f8	-0.14510334
81	0xbda19422	-0.07889582
82	0xbda2e483	-0.079537414
83	0xbdd93c60	-0.10607219
84	0xbc3c9d6f	-0.0115121445
85	0x3b2d5a0b	0.0026451375
86	0xbe37211e	-0.17883727
87	0xbe20e5a6	-0.15712604
88	0xbda887c6	-0.08229022
89	0xbb9897ee	-0.0046567833
90	0x3dd02715	0.10163704
91	0xbe149998	-0.14511716
92	0xbd89eb0a	-0.06734283
93	0x3ca8e47e	0.020616766
94	0xbd4d8fa9	-0.050185833
95	0xbd7f134f	-0.062274273
96	0xbc22629e	-0.0099112075
97	0x3e056e85	0.13030441
98	0x3e089ca1	0.13340999
99	0xbd8ea870	-0.06965721
100	0xbba3e4e5	-0.0050016516
101	0x3da7d186	0.0819426
102	0xb99a5c35	-0.00029441869
103	0x3d5c7a01	0.05382729
104	0x3e088014	0.13330108
105	0xbc61b9a8	-0.013777174
106	0xbdc22c61	-0.09481121
107	0xbc627541	-0.013821901
108	0xbd4c7626	-0.049917363
109	0xbd92b38e	-0.071631536
110	0xbdb97632	-0.09055747
111	0xbbf9b53c	-0.007620482
112	0x3d893821	0.06700159
113	0x3d2ae666	0.04172363
114	0xbd4fb9b3	-0.050714206
115	0x3d17c13e	0.037049524
116	0xbe0e0204	-0.13867956
117	0xbe028c29	-0.1274878
118	0x3d536fa4	0.05162014
119	0xbe028cf0	-0.12749076
120	0x3e86b9e9	0.26313713
121	0x3e31f2d2	0.17377785
122	0x3e0df068	0.13861239
123	0x3e258220	0.1616292
124	0x3de7c19e	0.113162264
125	0x3ce08d17	0.027411027
126	0x3e084c83	0.13310437
127	0x3c0a7b50	0.008452252
128	0x3e43a205	0.19104774
129	0x3e214c6f	0.15751813
130	0xbc8c893a	-0.017155278
131	0xbd1a94e5	-0.037739653
132	0xbc93fa2e	-0.01806363
133	0x3c84f018	0.016227767
134	0x3d1b820a	0.03796581
135	0x3e09e4db	0.13466208
136	0x3e261e3a	0.16222468
137	0x3e195314	0.14973098
138	0x3dafd365	0.08585242
139	0x3e5e2113	0.21692304
140	0xbd8554ec	-0.06510338
141	0x3e93a27f	0.28834912
142	0x3e6e938c	0.23298472
143	0x3eb9133e	0.36147493
144	0x3e0a0603	0.13478856
145	0x3e425590	0.18977952
146	0x3e0dccbb	0.1384763
147	0x3d5acf58	0.053420395
148	0x3d5f3b96	0.054500185
149	0xbcc39f61	-0.023879709
150	0xbc72c1e6	-0.014816737
151	0x3d7f2aa5	0.06229653
152	0x3eb50262	0.3535338
153	0x3daf682d	0.08564792
154	0x3e09603e	0.1341562
155	0x3e2a05d0	0.1660378
156	0x3df17c27	0.11791258
157	0x3b12d175	0.0022402678
158	0x3dba462e	0.09095417
159	0x3e526e61	0.20549919

lstm.bias_hh_l0 f4 [160]
0	0xbcd20b23	-0.025640076
1	0x3d8e67da	0.06953402
2	0x3e9a5ddf	0.30149743
3	0x3e84fb38	0.25972915
4	0x3e42501c	0.18975872
5	0x3e3f9f64	0.18713146
6	0x3e02e982	0.12784389
7	0x3e773c4c	0.24144095
8	0xbb285abf	-0.0025688855
9	0xbddc30d6	-0.10751502
10	0x3e4822a1	0.1954446
11	0x3e841b80	0.2580223
12	0x3d4e3ae1	0.05034912
13	0x3def5e94	0.11687961
14	0xbd052a85	-0.032511253
15	0xbca6d0f4	-0.020363308
16	0x3e654dc7	0.22392951
17	0x3dc478fe	0.0959339
18	0xbd700c87	-0.058605697
19	0x3cf3bf7b	0.029754391
20	0x3c6a73ef	0.014309867
21	0x3e0f2c49	0.13981737
22	0x3b5c8668	0.0033649448
23	0x3e2bc0b1	0.16772725
24	0x3e447bb6	0.19187817
25	0x3e438633	0.19094162
26	0x3bcb5966	0.0062057255
27	0xbdd22715	-0.102613606
28	0x3e58ac76	0.21159539
29	0x3c74944b	0.014927934
30	0xbdb501d7	-0.088382415
31	0x3e587cae	0.21141312
32	0x3e795c5c	0.24351639
33	0x3d92b745	0.07163862
34	0x3e00252e	0.12514183
35	0x3dfb4aef	0.12270152
36	0x3d830c96	0.06398885
37	0x3e792410	0.24330163
38	0x3e080217	0.13282047
39	0x3d80ccca	0.062890604
40	0xbdd93ac6	-0.10606913
41	0x3db67d65	0.08910636
42	0xbdf499e0	-0.11943412
43	0x3d4612e7	0.04835787
44	0x3da99e9e	0.08282207
45	0x3dfe3572	0.12412538
46	0x3cc4844f	0.02398887
47	0x3e3bc7f3	0.18337993
48	0xbe2e0f2f	-0.1699798
49	0xbde3db48	-0.11125809
50	0xbd53c225	-0.051698823
51	0xbc19a844	-0.009378497
52	0xbe0f6c5a	-0.14006177
53	0x3da8d130	0.08243024
54	0x3c8db382	0.01729751
55	0x3d823a96	0.06358831
56	0x3dbf69c5	0.09346346
57	0xbaf2dbf1	-0.0018528682
58	0xbd7fe620	-0.062475324
59	0x3c955024	0.01822669
60	0x3d5a6107	0.05331519
61	0x3d22e8f5	0.039772946
62	0x3c8c04dd	0.017092163
63	0x3e08be54	0.13353854
64	0xbd7a9dcb	-0.06118564
65	0x3e423340	0.18964863
66	0x3d05fa3d	0.03270935
67	0xbe3a8bf2	-0.18217447
68	0x3de60c8e	0.11232863
69	0x3bc1e68a	0.005917375
70	0xbdbd9130	-0.09256208
71	0x3db291f8	0.087192476
72	0xbd917396	-0.071021244
73	0x3de2088d	0.11036787
74	0x3d437ea0	0.04772818
75	0xbdcca189	-0.09991748
76	0x3ddc4508	0.10755354
77	0x3d49d57d	0.049275864
78	0x3e0703fc	0.13185114
79	0x3e171e6e	0.14757702
80	0xbca8ea38	-0.020619497
81	0xbda6b3ab	-0.08139738
82	0x3daed37b	0.085364304
83	0xbe19f39b	-0.15034334
84	0x3ddc2a89	0.107503004
85	0xbcb799a9	-0.022412138
86	0xbcd8f387	-0.02648331
87	0xbd269576	-0.04066988
88	0x3de38284	0.11108878
89	0x3d92d726	0.071699426
90	0x3dbc8176	0.0920438
91	0x3d86af7f	0.06576442
92	0xbcd36fb5	-0.025810102
93	0xbdd36fcd	-0.10324059
94	0xbce7f213	-0.028313672
95	0x3ac73e0b	0.0015200985
96	0x3ddd4189	0.108035155
97	0x3e0ef761	0.13961555
98	0x3cd5ddde	0.026106771
99	0xbc720ead	-0.014774007
100	0x3dbe4417	0.09290331
101	0xbdaf6d5b	-0.0856578
102	0x3d255290	0.04036194
103	0xbd0d969f	-0.03456747
104	0xbd94a361	-0.072577246
105	0xbd8b325c	-0.06796715
106	0x3e0384ef	0.12843679
107	0xbd67ed9b	-0.056623083
108	0xbd249c34	-0.04018803
109	0x3d9885d5	0.074474014
110	0xbcda8ae6	-0.02667756
111	0xbd64f76c	-0.055900022
112	0xbdb267d9	-0.087112136
113	0xbdd5f769	-0.1044758
114	0xbcbccc2e	-0.02304658
115	0x3d7d8def	0.061902937
116	0xbdb4ff70	-0.08837783
117	0xbda89e7c	-0.082333535
118	0xbdf008d9	-0.117204376
119	0xbc9b749c	-0.018976502
120	0x3c98d840	0.018657804
121	0xbc96dea7	-0.018416716
122	0x3e2aa7d9	0.16665591
123	0x3c8886e4	0.016665883
124	0x3e0187d4	0.1264947
125	0x3d7ac2bc	0.06122087
126	0x3df1a321	0.117986925
127	0x3e8c9c30	0.27462912
128	0x3e7a945b	0.24470656
129	0x3d045804	0.0323105
130	0xbc85bd48	-0.016325608
131	0x3e2330d6	0.15936598
132	0x3e078da7	0.1323763
133	0x3e328f48	0.1743747
134	0xbd69857b	-0.057012063
135	0xbc951b66	-0.018201541
136	0x3da16bc9	0.078818865
137	0xbc08bc93	-0.008345741
138	0x3da1f576	0.07908146
139	0x3b87dbc7	0.0041460725
140	0x3e0d3051	0.13787962
141	0x3ec37df2	0.38182026
142	0x3db33843	0.087509654
143	0x3eb8d72a	0.36101657
144	0xbbf33621	-0.007422224
145	0x3e081ba0	0.13291788
146	0xbd5e7081	-0.05430651
147	0xbd8d2818	-0.06892413
148	0x3de87f02	0.1135235
149	0x3e435ba7	0.19077931
150	0x3d77598b	0.06038813
151	0xbc38ce6e	-0.011279685
152	0x3eb51db4	0.35374224
153	0x3e42dd60	0.1902976
154	0x3d1e295f	0.038613673
155	0xbd4740f2	-0.04864592
156	0x3e47966a	0.19490972
157	0x3da0f50e	0.078592405
158	0x3ccb1b1d	0.024793202
159	0x3e1949d8	0.14969575

lstm.weight_ih_l1 f4 [160, 40]
0	0xbe3bcd08	-0.18339932
1	0x3d19db19	0.037562463
2	0xbeeb6a40	-0.459795
3	0xbe54895d	-0.20755525
4	0xbc49fa24	-0.012327705
5	0xbd6e177c	-0.058127865
6	0xbef6b364	-0.4818374
7	0xbf28615a	-0.65773547
8	0xbc9d3f08	-0.019195095
9	0x3e1b522d	0.15168066
10	0x3ea38332	0.31936032
11	0xbe252b38	-0.16129768
12	0xbee376eb	-0.44426665
13	0x3dd3723c	0.10324523
14	0x3de41302	0.11136438
15	0x3df262f9	0.11835284
16	0xbec7d170	-0.39026976
17	0x3dd8b05c	0.10580513
18	0xbe71555b	-0.23567717
19	0xbd5ef6f3	-0.054434728
20	0xbdff7de8	-0.124751866
21	0xbed46632	-0.4148422
22	0xbe721478	-0.2364062
23	0x3e9cf452	0.30655152
24	0xbdfd1f3b	-0.12359472
25	0x3e1e9118	0.15485036
26	0xbed0dfcf	-0.40795752
27	0x3db88d0e	0.09011279
28	0x3e770ff5	0.24127181
29	0x3ea9a5dd	0.33134356
30	0x3e0b7e7b	0.13622467
31	0x3f2b2a44	0.6686137
32	0x3e9396ac	0.2882589
33	0x3ea8062b	0.32817206
34	0x3e332578	0.17494762
35	0xbe4b766d	-0.19869395
36	0x3dcb2313	0.09918799
37	0xbb91e210	-0.0044519976
38	0x3e0eddac	0.13951749
39	0x3e541104	0.20709616
40	0xbdc926fb	-0.09821888
41	0x3b64c769	0.0034908897
42	0x3e41fc23	0.18943839
43	0x3e251a96	0.16123423
44	0x3c91218f	0.017716197
45	0xbe3c2e3f	-0.18377016
46	0x3e28de4e	0.16491053
47	0x3e628022	0.22119191
48	0x3c65296e	0.013986928
49	0x3ea40fb7	0.3204324
50	0x3e10b2cd	0.14130707
51	0xbe3e50ab	-0.1858546
52	0x3eb53c0d	0.35397378
53	0xbe693742	-0.22774985
54	0x3e2c71dd	0.1684031
55	0xbcf7fb38	-0.030271158
56	0x3f1f542a	0.622378
57	0xbe6269fa	-0.2211074
58	0x3e9ea6fb	0.3098677
59	0xbdeeee37	-0.116665296
60	0x3e98a3a1	0.2981234
61	0x3e52d3f1	0.20588662
62	0xbe3d882a	-0.18508974
63	0xbdd251b4	-0.1026949
64	0x3bfc97eb	0.0077085397
65	0x3d55b64f	0.052175816
66	0xbde4cbbc	-0.11171672
67	0xbcfbff6d	-0.030761445
68	0xbe50f85c	-0.20407242
69	0xbed0fc2a	-0.40817386
70	0xbebc3c26	-0.3676464
71	0xbc401d9c	-0.011725809
72	0xbec0bb9a	-0.3764313
73	0x3dec1447	0.11527305
74	0x3cfa853e	0.030581113
75	0x3e75a663	0.23989253
76	0xb91c7d37	-0.00014923966
77	0xbd3cca21	-0.046091203
78	0x3d41cacf	0.047312554
79	0x3c0a879e	0.008455185
80	0x3de60ffc	0.112335175
81	0x3adca829	0.0016834784
82	0x3e33a9b8	0.17545211
83	0x3d73cd6d	0.05952208
84	0xbf0018b1	-0.50037676
85	0x3e6df9c9	0.23239817
86	0x3d0081ca	0.031373776
87	0x3eb7721d	0.3582925
88	0xbe443cee	-0.19163868
89	0x3ec49011	0.38391164
90	0x3e2d1ba0	0.1690507
91	0xbcbeb91e	-0.02328163
92	0x3dd6304b	0.1045843
93	0xbe0c3769	-0.13693012
94	0x3ee0f379	0.43935755
95	0xbed2c902	-0.41168982
96	0x3f0b03bd	0.5430258
97	0xbe1f6076	-0.1556414
98	0x3e41e370	0.18934417
99	0xbd1224b4	-0.035679534
100	0x3e4cb40f	0.19990562
101	0x3e83fbe6	0.2577812
102	0xbefad34c	-0.48989332
103	0x3c39c764	0.011339042
104	0xbf4ec229	-0.80765015
105	0x3e9e2383	0.30886468
106	0xbde0eb12	-0.10982336
107	0x3e0b0ca1	0.13579036
108	0x3dafe278	0.08588117
109	0xbe0bd6ae	-0.13656113
110	0xbe7bfdc6	-0.24608526
111	0x3e9866f5	0.2976605
112	0x3e44114f	0.19147228
113	0xbd6986ef	-0.05701345
114	0x3e9e3655	0.30900827
115	0x3ec1e29c	0.37868202
116	0xbd86a607	-0.06574636
117	0x3dad20ac	0.08453497
118	0x3eabb35d	0.3353528
119	0xbdeffdf3	-0.11718359
120	0x3eab70bf	0.33484456
121	0xbccc32fd	-0.024926657
122	0xbe2f31da	-0.1710886
123	0xbe0ee3cf	-0.1395409
124	0xbe4e35f4	-0.20137769
125	0x3e068aa3	0.13138823
126	0xbeff2d93	-0.49839458
127	0xbdb8c7f9	-0.09022517
128	0xbecec218	-0.40382457
129	0xbdddf127	-0.10837012
130	0xbece4b57	-0.40291855
131	0xbdc81810	-0.097702146
132	0x3ca4be76	0.02011035
133	0xbd9cb8be	-0.07652424
134	0x3e3e425d	0.18580003
135	0x3edb1c70	0.42795134
136	0x3ee620b5	0.44946828
137	0xbd258b8f	-0.040416297
138	0xbd5e14f8	-0.054219216
139	0x3e6edcd2	0.23326424
140	0xbb978cc2	-0.004624934
141	0xbf3e64e3	-0.7437269
142	0x3e8130cb	0.2523254
143	0xbe8e1974	-0.27753794
144	0x3e957649	0.29191807
145	0xbca5a714	-0.02022127
146	0xbee93cdf	-0.45554253
147	0xbe672adb	-0.22574942
148	0x3ecb0afe	0.39656824
149	0x3f4567d6	0.77111566
150	0x3ef9bc81	0.4877663
151	0xbed4a52d	-0.4153227
152	0x3e9fa6af	0.31181857
153	0x3debe23b	0.115177594
154	0xbe686b28	-0.22697127
155	0xbe0245ac	-0.1272189
156	0xbc8ae045	-0.016952643
157	0x3da266c5	0.07929758
158	0x3e24285d	0.16031022
159	0xbe2c3ed9	-0.1682085
160	0x3dde6496	0.10859029
161	0x3e2f9170	0.17145324
162	0xbe59e549	-0.21278872
163	0x3e065803	0.13119511
164	0xbc547905	-0.012968306
165	0xbe1a70bb	-0.15082066
166	0xbe8a8d6a	-0.27061015
167	0x3e614c58	0.22001779
168	0xbe771836	-0.2413033
169	0x3ea15e14	0.31517088
170	0xbd0b026f	-0.033937868
171	0xbec75fa6	-0.3894016
172	0x3de09905	0.10966686
173	0xbea05c31	-0.31320336
174	0x3ec1d513	0.37857875
175	0xbde61c51	-0.1123587
176	0xbea815b9	-0.32829073
177	0xbf17cf8d	-0.5930107
178	0x3e283f35	0.16430362
179	0x3e6b9c1c	0.2300877
180	0xbce64c9c	-0.028112702
181	0x3e873373	0.2640644
182	0xbeb6bf05	-0.3569261
183	0x3ea47642	0.32121474
184	0x3dbbeef2	0.091764346
185	0x3eb78873	0.3584629
186	0xbeb4b94f	-0.3529763
187	0x3c0284f4	0.007966269
188	0xbde2fcbd	-0.11083362
189	0xbf1b03f1	-0.6055289
190	0xbef6112c	-0.48059976
191	0x3e92682b	0.285951
192	0x3d651a6e	0.05593341
193	0x3e0c1647	0.13680373
194	0x3e916583	0.2839776
195	0x3e9bbfcd	0.3041977
196	0xbe0fc5e2	-0.1404033
197	0xbe055407	-0.13020335
198	0xbe26d04f	-0.16290401
199	0xbe933e2f	-0.2875838
200	0xbe922ab4	-0.28548205
201	0xbec85ccd	-0.391333
202	0x3e42584b	0.18978994
203	0xbdf0b3d6	-0.11753051
204	0x3f107141	0.5642281
205	0x3e6f0d37	0.23344885
206	0xbced1e9e	-0.028945263
207	0xbde79ea5	-0.11309556
208	0x3efb2594	0.49052107
209	0xbcd73837	-0.026271923
210	0x3e333063	0.17498927
211	0xbe45423c	-0.19263548
212	0xbef71b77	-0.48263142
213	0x3e3c48d8	0.18387163
214	0x3ecb0d02	0.39658362
215	0xbdd89b74	-0.10576525
216	0xbd8d6776	-0.06904499
217	0x3bcd2e6b	0.006261637
218	0x3db8794c	0.090075105
219	0xbe41301d	-0.1886601
220	0x3d8c3df8	0.06847757
221	0xbb7af1cd	-0.0038291097
222	0xbe9165b1	-0.28397897
223	0x3e192658	0.14956033
224	0x3bc6fdf1	0.0060727526
225	0xbe8600c9	-0.26172474
226	0xbe124150	-0.14282727
227	0x3e2a3e7d	0.166254
228	0x3e510ae6	0.20414314
229	0x3d493740	0.049124956
230	0x3def0ace	0.11671983
231	0x3e1a69d9	0.1507944
232	0x3d44cad3	0.04804499
233	0x3e2a9468	0.16658175
234	0x3cddc79c	0.02707272
235	0xbd568be1	-0.052379493
236	0x3d501f67	0.050811198
237	0x3cd55a27	0.026043965
238	0x3ebfa981	0.3743401
239	0x3e29780a	0.16549698
240	0xbb76cce8	-0.0037658755
241	0xbbe8a3b7	-0.0070995945
242	0xbdf39b18	-0.11894816
243	0x3e7f9a8a	0.24961296
244	0xbda15f03	-0.0787945
245	0xbe854800	-0.26031494
246	0xbeb91752	-0.36150604
247	0xbe257ea4	-0.16161591
248	0xbd966576	-0.07343571
249	0xbe263729	-0.1623198
250	0x3ee24967	0.44196627
251	0xbd8dc8fe	-0.06923102
252	0x3e12e659	0.14345683
253	0x3b676228	0.0035306308
254	0x3e3c7071	0.18402268
255	0x3efaab9f	0.48959062

lstm.weight_hh_l1 f4 [160, 40]
0	0xbdd5f31f	-0.10446762
1	0xbe9e4461	-0.30911544
2	0xbbdea584	-0.0067946333
3	0xbed16f32	-0.40905148
4	0x3d5aa56e	0.053380422
5	0x3d9dbb4f	0.07701742
6	0x3d90f2c8	0.07077557
7	0xbddd73cf	-0.10813104
8	0x3d4855be	0.048909895
9	0xbe50375f	-0.20333622
10	0xbdf00f24	-0.11721638
11	0xbf002cc3	-0.500683
12	0xbd3a13e2	-0.045429118
13	0x3ecaaaa8	0.39583325
14	0xbd712fde	-0.05888354
15	0xbe85fdaf	-0.26170108
16	0xbe2f1631	-0.17098309
17	0x3dbfc66e	0.09364019
18	0xbea1073a	-0.31450826
19	0x3f0a8607	0.5411076
20	0xbe9b0f97	-0.30285332
21	0xbdd53b91	-0.10411752
22	0x3d3e1224	0.04640402
23	0x3ce65cbf	0.028120397
24	0xbed23d35	-0.41062322
25	0x3df473bf	0.11936139
26	0xbdaa2a23	-0.08308818
27	0x3eae5243	0.34047136
28	0x3dc0fc8a	0.09423168
29	0x3e1c787f	0.1528034
30	0x3e3c56bc	0.18392462
31	0xbddaf4c6	-0.10691218
32	0xbe8e9cdd	-0.27854052
33	0x3b6eab30	0.0036417954
34	0xbd6ec073	-0.058289003
35	0x3dc97599	0.09836883
36	0x3e7dacd8	0.24772966
37	0xbe8cb001	-0.2747803
38	0xbdf42c80	-0.1192255
39	0xbdd7977b	-0.105269395
40	0xbebc9927	-0.36835596
41	0x3ad7f95d	0.0016477514
42	0xbeb3dcb3	-0.35129318
43	0xbe882f85	-0.26598755
44	0xbf24f0b2	-0.6442977
45	0xbdadfb37	-0.08495181
46	0x3d766fef	0.060165342
47	0x3e48b68e	0.19600889
48	0x3e4f0204	0.20215613
49	0xbddf5e4c	-0.109066576
50	0x3ef8b69f	0.4857683
51	0x3eaba911	0.33527425
52	0x3d716daf	0.058942493
53	0x3e2aab76	0.1666697
54	0xbea14624	-0.31498826
55	0xbe58b517	-0.2116283
56	0xbdecdcb3	-0.115655325
57	0xbe01d5be	-0.12679192
58	0x3e609d30	0.21934962
59	0x3ccd534b	0.025064131
60	0xbe80d300	-0.2516098
61	0x3dd5ba02	0.10435869
62	0xbe9eae3f	-0.30992314
63	0x3e5835ee	0.21114323
64	0x3e08b57c	0.13350481
65	0x3e72fd65	0.23729475
66	0x3dd8cf23	0.10586383
67	0x3e3363e6	0.17518577
68	0xbd0a21fd	-0.03372382
69	0xbe5f1a57	-0.21787392
70	0x3dd8becb	0.10583266
71	0xbd937007	-0.07199102
72	0x3eb1c512	0.34720665
73	0xbc1241a5	-0.008926784
74	0xbe81236d	-0.2522234
75	0x3e4c711b	0.19965021
76	0xbe9f0104	-0.31055462
77	0xbde5f3c7	-0.112281375
78	0x3eaeb0cd	0.34119263
79	0x3d6d7fc6	0.057983182
80	0x3e9b972c	0.30388772
81	0xbeea9b9e	-0.45821851
82	0xbe1b07cb	-0.15139692
83	0x3b22e110	0.0024853386
84	0xbdb72c1b	-0.08943959
85	0x3e8a01ca	0.2695449
86	0xbd011067	-0.031509783
87	0xbde3ea5a	-0.111286834
88	0x3e06b54f	0.13155101
89	0x3e79fc33	0.24412613
90	0xbe69b849	-0.22824205
91	0x3eb2696a	0.3484605
92	0xbd2b8d7c	-0.041882977
93	0xbeccf62b	-0.4003156
94	0x3d023a25	0.031793732
95	0xbdd6bab4	-0.104848295
96	0xbcef065c	-0.029177837
97	0x3c338e3f	0.010959207
98	0x3ecd0253	0.40040836
99	0x3e4d74c0	0.20064068
100	0x3e72d80c	0.23715228
101	0x3d5942a2	0.05304206
102	0xbe47b52f	-0.1950271
103	0x3de5a964	0.11213949
104	0x3e1c72af	0.15278123
105	0x3d32eb21	0.043681268
106	0x3dfee154	0.12445322
107	0xbd8cbc67	-0.068718724
108	0xbcc02715	-0.023456136
109	0xbe05cdf4	-0.13066846
110	0x3d563eb7	0.052305903
111	0xbe5ddff7	-0.21667467
112	0x3e202742	0.15639976
113	0x3e45c8bd	0.19314857
114	0xbdb3a5ef	-0.08771884
115	0xbe455263	-0.1926971
116	0xbeb0f415	-0.3456122
117	0x3e20c2ee	0.1569936
118	0x3defcfda	0.117095664
119	0x3de597cf	0.11210596
120	0xbd12766a	-0.03575746
121	0xbed175b8	-0.40910125
122	0x3cfe6c85	0.031057606
123	0x3dcfd48f	0.10147964
124	0x3e1f7358	0.15571344
125	0xbc3b2187	-0.011421568
126	0x3e30cd43	0.17265801
127	0xbe646985	-0.22305878
128	0x3cc9eaef	0.024648158
129	0x3b0aa2ef	0.0021154245
130	0xbe83e070	-0.2575717
131	0xbc7c0437	-0.015381864
132	0xbe37681b	-0.17910807
133	0xbeed4c77	-0.463474
134	0x3eabe7ae	0.33575195
135	0xbdf75f62	-0.1207874
136	0xbd4deac1	-0.050272707
137	0x3eeddebb	0.46458992
138	0xbeb93576	-0.361736
139	0x3ed077ad	0.40716305
140	0x3d82f111	0.06393636
141	0xbe91dcbf	-0.28488728
142	0xbb88ec6b	-0.004178574
143	0xbed6c4cf	-0.41947028
144	0xbe4f05ac	-0.20217007
145	0x3d55ef13	0.052229952
146	0xbda5ffe4	-0.08105448
147	0xbd7b3703	-0.06133176
148	0xbc8a22eb	-0.016862353
149	0xbe1051b7	-0.14093672
150	0x3e659e8b	0.2242376
151	0x3e7ee1be	0.24890801
152	0x3d748970	0.059701383
153	0x3ee516b5	0.44743887
154	0x3e2ceac8	0.16886437
155	0x3db1dc33	0.08684578
156	0x3cfb4cfe	0.030676361
157	0x3e974fa3	0.29552945
158	0x3dd9ef95	0.106414
159	0xbd71ab96	-0.059001528
160	0x3e6d9b5a	0.23203793
161	0x3d81df1a	0.06341381
162	0xbebc6437	-0.36795208
163	0x3ea6cae2	0.32576662
164	0xbd8cb5aa	-0.06870587
165	0x3cc0ac21	0.023519577
166	0xbd11606f	-0.035492357
167	0xbdf0e790	-0.11762917
168	0x3cfd27b0	0.030902714
169	0x3e024c12	0.12724331
170	0x3dceaac7	0.10091167
171	0xbe134584	-0.14381987
172	0xbedaca12	-0.42732292
173	0x3eb8a46a	0.36062938
174	0xbdc91e62	-0.09820248
175	0xbe3169ad	-0.17325468
176	0x3e0d8c06	0.13822946
177	0xbd7c219b	-0.061555486
178	0xbdae2cc8	-0.08504635
179	0xbd8bfc2e	-0.06835209
180	0x3d6d7435	0.05797215
181	0x3ddf0e55	0.108914055
182	0xbe12536c	-0.14289635
183	0x3eb814c3	0.3595334
184	0x3db7fc48	0.08983666
185	0xbee48451	-0.446322
186	0xbc83b033	-0.01607523
187	0x3d8bb1b8	0.068210065
188	0x3e1448dd	0.1448092
189	0xbea44434	-0.32083285
190	0xbf0b9d66	-0.54537046
191	0xbebe1f51	-0.37133268
192	0xbda80fbe	-0.082061276
193	0x3de1492b	0.11000284
194	0xbf06b62d	-0.5262173
195	0x3eacb858	0.33734393
196	0xbec18f61	-0.37804702
197	0x3d4fff14	0.05078037
198	0x3e129b19	0.14316978
199	0x3ed7a572	0.42118412
200	0x3d888e85	0.066678084
201	0xbd9ddfe6	-0.07708721
202	0x3c26f2ca	0.010189721
203	0xbe8c6401	-0.27420047
204	0xbdd814fc	-0.105508775
205	0xbb778702	-0.003776968
206	0x3d24d5f4	0.040243104
207	0x3b2334ba	0.0024903254
208	0x3d840047	0.064453654
209	0xbeed4cbe	-0.46347612
210	0x3e591abc	0.21201605
211	0xbec96575	-0.39335218
212	0xbde39114	-0.11111656
213	0x3e9a18ab	0.30096945
214	0x3de508bf	0.11183309
215	0xbebc584d	-0.36786118
216	0xbebc2810	-0.36749315
217	0xbe303b6f	-0.17210172
218	0xbe258de9	-0.16167416
219	0x3d931b2b	0.07182916
220	0xbea6e546	-0.32596797
221	0x3d1271e8	0.03575316
222	0x3e93aabc	0.28841197
223	0x3d0c3d58	0.03423819
224	0xbe7d1ec6	-0.2471877
225	0x3e9bd1c9	0.3043349
226	0xbe83cd13	-0.25742397
227	0xbd2bbba7	-0.041927006
228	0x3e8c6a75	0.2742497
229	0xbe4d2278	-0.2003268
230	0xbd7112bf	-0.05885577
231	0xbdcf6c79	-0.101281114
232	0xbed44b9c	-0.41463935
233	0x3daf19ed	0.08549867
234	0x3e9a120f	0.30091903
235	0x3e5052ff	0.2034416
236	0x3da45688	0.08024317
237	0xbed179cf	-0.40913245
238	0xbe59e12a	-0.212773
239	0x3d46784a	0.04845456
240	0x3ed81663	0.4220458
241	0xbeb11ebb	-0.34593758
242	0x3e85005a	0.2597683
243	0xbeba17bf	-0.36346242
244	0xbdcb5b5d	-0.099295355
245	0x3d481046	0.048843645
246	0x3ecd133d	0.4005374
247	0xbe66d27a	-0.22541228
248	0x3ad65d2f	0.0016354675
249	0xbce874a9	-0.02837594
250	0x3e4ca2a2	0.19983914
251	0xbe0875aa	-0.13326135
252	0x3e65d5d5	0.22444852
253	0x3eaaa1ce	0.33326572
254	0x3e142e47	0.14470778
255	0x3ba7bf60	0.005119249

lstm.bias_ih_l1 f4 [160]
0	0xbc8ed89c	-0.017437272
1	0x3eb40f21	0.35167792
2	0x3e8d2081	0.2756386
3	0xbe11557b	-0.14192764
4	0x3e872df9	0.26402262
5	0x3eb1834c	0.34670484
6	0x3d07fd34	0.033200458
7	0x3e413199	0.18866576
8	0x3e4b929e	0.19880149
9	0x3df022a2	0.11725356
10	0x3e84fc83	0.259739
11	0xbb800cca	-0.0039077746
12	0x3deccbc6	0.11562304
13	0x3dcff88f	0.10154831
14	0xbbbdb4f5	-0.005789394
15	0x3eaee31e	0.34157652
16	0x3e0d0a19	0.13773383
17	0x3e178d74	0.14800054
18	0x3d8fcb93	0.070212506
19	0x3e1f4c6c	0.15556496
20	0x3e3bdde4	0.18346363
21	0x3e75ef9b	0.24017183
22	0x3d2a9ff4	0.04165645
23	0xbb24ae34	-0.0025128247
24	0x3e8f38ce	0.27973026
25	0x3e10da76	0.14145836
26	0x3cee2afe	0.029073235
27	0x3da8dbde	0.08245061
28	0x3de4725e	0.11154626
29	0x3e1d4a7e	0.15360448
30	0x3e9588fd	0.29206076
31	0x3ea36db3	0.3191963
32	0x3e24b869	0.16085972
33	0x3d077dbf	0.033078905
34	0x3e413bd5	0.1887048
35	0x3e87c2ea	0.26515895
36	0x3e86ea44	0.26350605
37	0x3e1fefb5	0.15618785
38	0x3da9b4f4	0.08286467
39	0x3d371888	0.04470113
40	0x3d3a0964	0.04541911
41	0x3e8069e5	0.2508079
42	0xbd3c63a9	-0.04599348
43	0xbdc40b09	-0.09572417
44	0xbd8adbbe	-0.06780194
45	0x3bfc96f9	0.007708427
46	0x3e8f6af6	0.28011292
47	0x3dc9562c	0.09830889
48	0xbbd538dd	-0.006507023
49	0x3d36ddcc	0.044645116
50	0x3e006de0	0.12541914
51	0xbd839142	-0.0642419
52	0xbddb5a9e	-0.10710643
53	0xbe10c728	-0.14138472
54	0xbdce7881	-0.10081578
55	0xbc991116	-0.018684905
56	0xbde42fce	-0.111419305
57	0x3e0083ee	0.12550327
58	0x3e2c6293	0.16834478
59	0x3e568dee	0.2095258
60	0xbd63c8b2	-0.05561132
61	0x3e2ad112	0.16681316
62	0x3b04bcb8	0.0020254087
63	0x3dbf5767	0.093428425
64	0x3d98837d	0.074469544
65	0xbcbf1e3d	-0.023329848
66	0x3c9f087b	0.019413223
67	0x3e35da59	0.17759074
68	0x3e1b5604	0.15169531
69	0x3dcbee29	0.09957535
70	0x3e2cda36	0.16880116
71	0x3de439af	0.11143815
72	0xbdce3a64	-0.10069731
73	0xbd4ca5ea	-0.049962915
74	0x3e17438c	0.14771861
75	0x3c96d72d	0.01841315
76	0xbcd849e0	-0.026402414
77	0x3c9449d9	0.01810162
78	0x3d26b5da	0.04070077
79	0xbbd688be	-0.0065470627
80	0xbd21ef63	-0.039534938
81	0xbd4bd64f	-0.049764927
82	0x3de6f0d5	0.11276404
83	0xbdc23963	-0.09483602
84	0xbba11db3	-0.0049168705
85	0x3d4a7a0c	0.0494328
86	0x3d7d587e	0.06185197
87	0x3e1f2cb9	0.15544404
88	0x3df43d58	0.11925763
89	0xbb830a9f	-0.003999069
90	0x3beb9ea3	0.007190542
91	0x3e402db9	0.18767442
92	0x3a557c67	0.00081438426
93	0xbe11ea37	-0.14249502
94	0xbd1412ee	-0.036150865
95	0xbe019f9c	-0.12658542
96	0x3d884f6c	0.066557735
97	0x3dbf8cea	0.09353049
98	0x3d9587f8	0.073013246
99	0x3da9fcb5	0.08300153
100	0xbd053479	-0.032520745
101	0xbdb9ef3e	-0.09078835
102	0x3dae1716	0.08500497
103	0xbd7d50ad	-0.061844517
104	0x3d3036cd	0.043021012
105	0x3dd386cc	0.10328445
106	0x3e041bd4	0.1290124
107	0x3df304eb	0.118661724
108	0x3dacba17	0.08433931
109	0xbd5fd040	-0.054641962
110	0x3cc737f2	0.024318669
111	0xbd849241	-0.06473208
112	0xbcffe412	-0.031236682
113	0xbd497983	-0.04918815
114	0xbe0bc2c7	-0.1364852
115	0xbde66223	-0.11249187
116	0xbd0fa8aa	-0.03507296
117	0xbdc88531	-0.09791029
118	0x3cf460af	0.029831259
119	0x3cd5b1e5	0.026085803
120	0x3df22ff1	0.1182555
121	0x3ed226c3	0.41045198
122	0x3dd3f39d	0.103492
123	0xbcad17ee	-0.021129575
124	0x3e9b1a2e	0.3029341
125	0x3dbd67a9	0.09248287
126	0xb8a2d426	-7.764278e-05
127	0x3e9d45b0	0.3071723
128	0x3e9ff22a	0.31239444
129	0x3e6f246e	0.2335374
130	0x3e59997a	0.21249953
131	0xbc80e198	-0.015732571
132	0x3da68743	0.08131268
133	0x3d8f0035	0.06982461
134	0xbd99d775	-0.07511798
135	0x3e98d634	0.29850924
136	0x3d840894	0.06446949
137	0x3e92df71	0.28686097
138	0x3ddc1ca9	0.10747654
139	0x3e317769	0.17330708
140	0x3e1de1d3	0.15418176
141	0x3e9becfa	0.30454236
142	0x3e8ad0d7	0.27112457
143	0x3d6ece82	0.05830241
144	0x3dea41d1	0.11438335
145	0x3e5dd73f	0.21664141
146	0x3e3d01ab	0.18457668
147	0x3d0a2630	0.033727825
148	0x3e7647b6	0.24050793
149	0xbca5b25a	-0.020226646
150	0x3e1a004b	0.15039174
151	0x3d231b9b	0.03982125
152	0x3dcc3a0b	0.09972008
153	0x3deece42	0.11660434
154	0x3d42048a	0.04736761
155	0x3e1af326	0.15131816
156	0xbd20dceb	-0.039273184
157	0x3e69ddfd	0.22838588
158	0x3e42e468	0.19032443
159	0x3db1b056	0.086762115

lstm.bias_hh_l1 f4 [160]
0	0x3e4f9807	0.20272838
1	0x3eb40eff	0.3516769
2	0x3df00821	0.117203005
3	0x3d550a20	0.05201161
4	0x3e544ae6	0.20731696
5	0x3de66181	0.11249066
6	0x3db8a8bf	0.09016561
7	0x3e4346ea	0.1907002
8	0x3e954165	0.29151455
9	0xbc28bc84	-0.010298852
10	0x3df5df28	0.12005454
11	0x3e03a5f6	0.12856278
12	0x3d88f0ab	0.06686529
13	0x3e18e204	0.14929968
14	0xbd5c3bf3	-0.05376811
15	0x3e97a6be	0.29619402
16	0x3ea1d32f	0.31606433
17	0x3e6a766b	0.22896735
18	0x3ea227ac	0.31670892
19	0x3dad56a1	0.08463789
20	0x3eac16db	0.33611187
21	0x3e934606	0.2876436
22	0x3e8c3e72	0.27391392
23	0xbc12b2d1	-0.008953766
24	0x3e6e3660	0.2326293
25	0x3d24156d	0.040059496
26	0x3e2e3577	0.17012583
27	0x3e991dc0	0.2990551
28	0x3e09bdca	0.13451305
29	0x3d999d94	0.07500759
30	0x3eaa42d0	0.332541
31	0x3e2d94ba	0.16951266
32	0x3def8e97	0.11697119
33	0x3e49c473	0.19703846
34	0x3e7755b1	0.24153782
35	0x3dd0e4cc	0.101998895
36	0x3d549477	0.0518994
37	0x3dbdc85a	0.0926673
38	0x3e1ce2dc	0.15320915
39	0xbcee1460	-0.02906245
40	0xbdb1c2e2	-0.08679749
41	0x3e26a39c	0.1627335
42	0x3e1fefa5	0.15618761
43	0xbd22b935	-0.03972741
44	0x3d5392d8	0.051653713
45	0x3e3f279a	0.1866745
46	0x3e520476	0.20509514
47	0x3e22b055	0.15887578
48	0x3e19ecad	0.15031691
49	0x3bb66665	0.0055664056
50	0x3dd1c2e4	0.102422506
51	0x3e1b7892	0.15182713
52	0x3df4ed7d	0.1195936
53	0x3da323d8	0.07965821
54	0xbdb7033d	-0.089361645
55	0xbdf7bc77	-0.12096494
56	0xbdff10d9	-0.12454385
57	0xbab5ebfd	-0.0013879534
58	0x3e3d1c0d	0.18467732
59	0x3dcb6cf3	0.0993289
60	0x3df81552	0.121134415
61	0x3d940acc	0.07228622
62	0x3e1e0acf	0.1543381
63	0x3e37a770	0.17934966
64	0x3cf1672c	0.029468141
65	0x3de55b26	0.11199026
66	0x3d520763	0.051276576
67	0x3e3b4d28	0.18291152
68	0xbd8eeca9	-0.06978733
69	0x3e2df261	0.16986991
70	0x3d1b4f17	0.037917223
71	0x3ccde0f2	0.025131676
72	0x3e42bf9e	0.19018409
73	0x3b383b23	0.002811142
74	0x3e1efd92	0.15526417
75	0x3de50b06	0.11183743
76	0x3db8b0bf	0.09018087
77	0x3db2adc4	0.087245494
78	0x3c9b2d0d	0.01894238
79	0xbdedf9d1	-0.11619914
80	0x3d795c0a	0.06087879
81	0xbde1e71f	-0.11030411
82	0xbdcb61f6	-0.09930794
83	0xbdc2ff16	-0.0952131
84	0xbd87bc33	-0.06627693
85	0xbdf538fb	-0.11973759
86	0x3e18e375	0.14930518
87	0xbdf5fbd5	-0.12010924
88	0x3cea6d0a	0.028616447
89	0xbe1890e3	-0.1489902
90	0x3d6f826f	0.058474
91	0x3d090df3	0.03346057
92	0x3d102e89	0.03520063
93	0x3e00ef99	0.12591399
94	0x3d51f590	0.051259577
95	0xbe084820	-0.13308764
96	0x3c4e2b18	0.012583517
97	0xbe529704	-0.2056542
98	0x3df59168	0.11990625
99	0x3cfb9677	0.030711396
100	0xbda25ff4	-0.07928458
101	0xbdec517d	-0.1153898
102	0x3e01ff3e	0.12695023
103	0x3d24c2dc	0.040224895
104	0xbdaff8ee	-0.085924014
105	0xbdd2779d	-0.10276721
106	0xbded0030	-0.115723014
107	0xbe238ddd	-0.15972085
108	0x3c07d235	0.008289863
109	0xbd9fd553	-0.0780436
110	0xbc55fc5c	-0.013060655
111	0x39ea8f66	0.00044738798
112	0x3dabe235	0.08392755
113	0xbd8f409d	-0.06994746
114	0x3c7fce08	0.0156130865
115	0x3e29eefe	0.16595075
116	0xbe332d08	-0.17497647
117	0x3da16585	0.078806914
118	0x3de8852a	0.11353524
119	0xbd5ac83c	-0.053413615
120	0x3e20ffa2	0.15722516
121	0x3eab0124	0.33399308
122	0x3c897d33	0.016783332
123	0x3e233074	0.15936452
124	0x3e89e4c0	0.26932335
125	0x3e7bc568	0.24587023
126	0x3d67745f	0.056507464
127	0x3e18d929	0.1492659
128	0x3e960f40	0.2930851
129	0x3e1c335f	0.15253972
130	0x3de3b881	0.11119176
131	0x3e3facf0	0.18718314
132	0x3e040125	0.12891062
133	0x3d93c2cb	0.07214888
134	0x3e657492	0.2240775
135	0x3ed33fce	0.41259617
136	0x3d259a0c	0.040430114
137	0x3e9564d1	0.2917848
138	0x3e974c12	0.29550225
139	0x3e53a01d	0.20666547
140	0x3e3f9fd3	0.18713312
141	0x3d7958d8	0.060875744
142	0x3d0bc425	0.034122605
143	0x3da4ca5c	0.080464095
144	0x3d70be2b	0.05877511
145	0x3e581f70	0.21105742
146	0x3d2648df	0.04059684
147	0x3dcd73a0	0.10031819
148	0x3d99a140	0.07501459
149	0x3e0ffdb3	0.14061622
150	0x3e2c50f3	0.16827755
151	0x3e51e679	0.20498075
152	0x3d6626e7	0.056189444
153	0x3e207e59	0.15673198
154	0x3dd80539	0.10547871
155	0x3b45b038	0.003016485
156	0x3e69359a	0.22774354
157	0x3e098b12	0.13431957
158	0x3e0d2eb1	0.13787343
159	0x3c7a01b2	0.015259193

lstm.weight_ih_l2 f4 [160, 40]
0	0x3e9800e7	0.29688188
1	0xbec14f4f	-0.3775582
2	0x3d9935d8	0.07480973
3	0xbec5c172	-0.3862415
4	0xbddc4222	-0.10754801
5	0xbddb9fca	-0.10723837
6	0x3da348e7	0.079728894
7	0xbea4d41f	-0.32193086
8	0xbef0d03b	-0.47033867
9	0xbdb56f91	-0.0885917
10	0xbb87fe07	-0.0041501555
11	0xbe960af1	-0.29305223
12	0x3e125d60	0.14293432
13	0x3c1d1a77	0.009588829
14	0xbe74923e	-0.23883912
15	0x3cfa023c	0.030518644
16	0xbe6cacd5	-0.23112805
17	0xbe9dab2e	-0.30794662
18	0x3d664fc3	0.05622841
19	0x3e928b77	0.28622028
20	0xbd425276	-0.047441922
21	0x3e81bf83	0.25341424
22	0x3ecdb8dd	0.40180102
23	0x3e1f0e05	0.15532692
24	0xbeecc5a6	-0.46244544
25	0x3d72aa3b	0.059244376
26	0x3e116657	0.14199196
27	0x3bc02873	0.005864197
28	0xbe16fbce	-0.14744493
29	0xbec6d9fd	-0.38838187
30	0x3ebe1986	0.37128848
31	0x3e80661e	0.2507791
32	0xbec4753b	-0.3837069
33	0x3d2539cf	0.040338334
34	0x3e73b8e7	0.23801003
35	0xbee7bd32	-0.45261532
36	0x3eafaad4	0.3431002
37	0xbe5d1451	-0.21589781
38	0x3e82749d	0.25479594
39	0x3dcd9e74	0.10039988
40	0xbdea59ff	-0.11442947
41	0xbe3653d1	-0.17805411
42	0x3e573579	0.21016492
43	0x3e767f49	0.24071993
44	0xbe0a0e04	-0.13481909
45	0xbf129d40	-0.57271194
46	0xbd58317c	-0.052781567
47	0xbee35324	-0.4439937
48	0xbf14d321	-0.5813466
49	0xbe47bc6e	-0.19505474
50	0xbf05d191	-0.522729
51	0x3e2819fc	0.16416162
52	0x3da108e3	0.07863023
53	0xbf02a367	-0.5103058
54	0xbf7d8034	-0.9902375
55	0xbf026fa6	-0.5095161
56	0xbe9fbcaf	-0.31198642
57	0x3dd8b463	0.10581281
58	0x3db11a56	0.08647601
59	0xbd738a4f	-0.059458073
60	0xbe883317	-0.26601478
61	0x3e332ce8	0.17497599
62	0x3e5497e8	0.20761073
63	0x3d95674b	0.07295092
64	0xbd4e9fa4	-0.050445214
65	0x3e5d3cc1	0.21605207
66	0xbe50b9c3	-0.20383362
67	0xbdc34822	-0.095352426
68	0x3dd93167	0.10605126
69	0x3d9c205e	0.07623361
70	0x3e54ba46	0.20774183
71	0x3d5e9ae5	0.054346938
72	0xbed1ecb0	-0.4100089
73	0xbde92a52	-0.11385025
74	0xbe56ebbc	-0.20988363
75	0xbeb27b89	-0.34859875
76	0x3b418f30	0.002953481
77	0xbdbd9c83	-0.09258368
78	0x3e12e492	0.14345005
79	0x3d83d92b	0.06437906
80	0x3d7a6791	0.061133925
81	0xbeafa010	-0.34301805
82	0xbdf1a071	-0.1179818
83	0x3e1e0cff	0.15434645
84	0x3e7a6257	0.24451576
85	0x3e58ddfc	0.2117843
86	0x3e6013a6	0.21882495
87	0xbdd93506	-0.106058165
88	0x3df1b806	0.11802678
89	0xbd956c55	-0.07296053
90	0x3bc3037b	0.0059513426
91	0xbe2b90fc	-0.16754526
92	0x3d2cac73	0.042156648
93	0xbce807bb	-0.028323999
94	0xbf64d393	-0.89385337
95	0xbef3a2b0	-0.47585058
96	0xbdd9c8cc	-0.10634002
97	0x3ebcea1e	0.36897367
98	0xbe5d176d	-0.21590967
99	0xbc089403	-0.00833607
100	0x3ceaa72a	0.028644163
101	0x3ea55fc1	0.32299617
102	0x3e901354	0.28139746
103	0xbe5c3b84	-0.21507078
104	0xbc695d5f	-0.014243453
105	0xbe49a999	-0.19693603
106	0xbd365720	-0.044516683
107	0xbe364257	-0.17798744
108	0x3d0f0ccf	0.034924325
109	0xbe8984df	-0.26859185
110	0xbebdf6dd	-0.37102404
111	0x3d62c814	0.05536659
112	0xbcc2e308	-0.023789898
113	0xbe3cbe72	-0.18432024
114	0x3cee9094	0.029121675
115	0x3d05f20f	0.03270155
116	0xbe96b327	-0.29433557
117	0xbe60d6c4	-0.21956927
118	0x3e627e22	0.22118428
119	0x3f002b49	0.5006605
120	0xbc062df6	-0.008189669
121	0x3de8d436	0.11368601
122	0xbec0e095	-0.37671342
123	0xbe3c2fe9	-0.18377651
124	0x3e785ea8	0.24254858
125	0xbe5f1202	-0.21784213
126	0x3db71e5d	0.08941338
127	0xba44c40b	-0.00075060193
128	0x3c8b2f87	0.016990436
129	0xbe756496	-0.23964152
130	0xbe73a83f	-0.2379465
131	0x3d7e977c	0.062156186
132	0x3e126278	0.14295375
133	0xbe8ad55a	-0.271159
134	0xbc6eca36	-0.014574578
135	0xbda26ca1	-0.079308756
136	0x3d6d1fdd	0.057891715
137	0x3eca1dac	0.39475763
138	0x3d47e91a	0.048806287
139	0xbe1ff4f5	-0.15620787
140	0x3ea30596	0.318402
141	0xbde3bd40	-0.11120081
142	0xbe0031b1	-0.12518956
143	0xbd9ecbf1	-0.077537425
144	0x3e08779b	0.13326876
145	0x3e22ffa5	0.15917833
146	0xbe058ef3	-0.13042812
147	0xbe81b13c	-0.25330532
148	0x3de0b8d7	0.109727554
149	0xbda6dc97	-0.08147543
150	0x3d927279	0.0715074
151	0x3dfb00d9	0.12256021
152	0x3c66bc00	0.014082909
153	0xbe92bf83	-0.28661737
154	0xbe4eaa8e	-0.20182249
155	0x3dd692d2	0.104772225
156	0x3e50ee33	0.20403366
157	0x3e4753b7	0.19465528
158	0xbe661fae	-0.22473022
159	0xbe63ebb0	-0.22257876
160	0x3e050b51	0.12992598
161	0xbcfb0fa5	-0.030647108
162	0xbe51d4ab	-0.20491283
163	0x3dc69d17	0.09697931
164	0xbf087130	-0.5329771
165	0xbe456800	-0.19277954
166	0x3e3c095d	0.18362947
167	0x3d221f69	0.039580736
168	0x3e9d1069	0.30676582
169	0xbe99de5c	-0.3005246
170	0x3eb1ce7f	0.34727857
171	0x3e65bc17	0.22435032
172	0xbe0d2dca	-0.13786998
173	0x3e7f74c6	0.2494689
174	0x3eae643b	0.34060845
175	0xbc92364b	-0.017848155
176	0xbdb9795b	-0.0905635
177	0x3e9df459	0.30850485
178	0x3ec9276e	0.39287895
179	0x3e19ca72	0.15018633
180	0x3d1d06d0	0.038336575
181	0x3dcdfa99	0.10057563
182	0xbdb705f2	-0.08936681
183	0xbdeec853	-0.116593026
184	0xbdc4f49e	-0.096169695
185	0x3e4a55d9	0.19759311
186	0x3e373065	0.17889555
187	0x3b819c41	0.0039553945
188	0xbed7c0e8	-0.42139363
189	0xbdffa094	-0.124818
190	0xbcf3d6f0	-0.029765576
191	0xbd72ca39	-0.059274886
192	0xbdcca9e4	-0.099933416
193	0x3e9a1269	0.3009217
194	0x3e8d0751	0.27544644
195	0x3de1211c	0.10992643
196	0x3ea02799	0.3128021
197	0xbc764e70	-0.015033349
198	0x3ed83786	0.4222986
199	0x3e0ba948	0.13638794
200	0xbeb8ec7f	-0.36117932
201	0x3dc4e341	0.09613658
202	0xbeadae74	-0.3392216
203	0xbe38db9b	-0.18052523
204	0xbf41a527	-0.7564263
205	0xbe8c6898	-0.2742355
206	0xbe4f9639	-0.20272149
207	0x3d2c651a	0.042088605
208	0xbf024cb3	-0.50898284
209	0x3ca27aa8	0.019833878
210	0x3eeddaba	0.46455938
211	0x3e2e54a1	0.17024471
212	0x3d850f0b	0.0649701
213	0x3e0f7464	0.14009243
214	0x3e90adc2	0.28257567
215	0xbeba90df	-0.36438653
216	0x3c1f9246	0.009739464
217	0xbec52168	-0.3850205
218	0x3e5f7a28	0.21823943
219	0x3eb0d214	0.34535277
220	0xbea0dab9	-0.31416872
221	0xbd99a073	-0.075013064
222	0xbe617b07	-0.22019587
223	0xbe136eda	-0.14397755
224	0xbeaff899	-0.34369352
225	0xbe5b824d	-0.21436425
226	0x3c3cbb16	0.011519214
227	0xbd9b7615	-0.07590882
228	0xbdbc8d04	-0.09206584
229	0xbd867eb0	-0.065671325
230	0x3d52d20d	0.05146985
231	0x3dc63953	0.096789025
232	0x3e39a9bc	0.18131155
233	0x3ce372d6	0.027764719
234	0x3e2dd9bb	0.16977589
235	0x3df82a0c	0.12117395
236	0x3e993e39	0.29930285
237	0xbe82f3e5	-0.25576702
238	0x3d95fbf9	0.073234506
239	0xbee60fb1	-0.44933847
240	0x3e9a2a0f	0.30110213
241	0xbdc86ebf	-0.09786748
242	0x3d545fd2	0.051849194
243	0x3bfb0b6a	0.007661273
244	0xbdd29712	-0.102827206
245	0xbe554ed1	-0.20830847
246	0x3ebbb9ca	0.36665183
247	0xbf07ad3c	-0.5299871
248	0xbc1b00db	-0.009460653
249	0xbca0529d	-0.019570643
250	0xbd40d62d	-0.047079254
251	0xbec33bc4	-0.38131535
252	0x3d24a9c1	0.040200952
253	0x3eb1c645	0.3472158
254	0xbdb94913	-0.09047141
255	0xbe579167	-0.2105156
